policy/Himloco/policy_6_10.onnx (onnx, 978188 bytes, 14 tensors)

estimator.0.weight f4 [128, 270]
-0.045197446 -0.02701712 -0.067565374 0.075747214 0.16216129 0.32747728 0.089116536 -0.13251595
0.11730122 0.29508254 0.3035643 -0.22385311 -0.6493004 0.18652749 0.274906 -0.31024224
0.52679354 0.18541801 0.6917966 -0.2513162 -0.52260584 -0.053526204 0.12855807 -0.047766324
0.36596215 -0.072985336 -0.058154125 0.15164246 -0.029574746 0.029815793 -0.018562406 -0.00014206408
-0.07500028 0.002319051 -0.067847 0.032786805 -0.03264718 -0.085611105 -0.021452548 0.026702601
-0.1054089 -0.015353665 -0.0030186423 -0.004027243 0.12625486 0.049007323 -0.013038435 0.008450901
0.12360693 -0.2076624 -0.21780711 0.06721518 -0.06773125 0.08082399 0.014034387 0.20767999
-0.13832122 0.0060550706 -0.25949892 0.18457493 0.12956022 0.07169134 0.23038957 0.16916232
-0.19058701 -0.30449128 -0.14811604 0.14000748 0.10164261 0.10126404 -0.0810147 0.08286439
0.022806093 0.20377952 0.08939269 -0.19073564 0.07829941 0.053101934 -0.008888682 -0.052407503
-0.00019979251 -0.06560523 0.067724906 -0.10434281 0.03443648 -0.035404522 -0.07525269 -0.040788196
0.05790913 0.080414824 0.029822497 -0.029767683 0.100623555 0.2392841 -0.013424451 -0.38544595
0.12150504 0.039171603 0.04174137 -0.08378694 0.096444026 -0.11352754 0.46235737 -0.21640751
-0.08375485 0.21841164 -0.09068563 0.05536317 -0.16258098 0.05293553 -0.16311437 -0.12793683
0.08097901 0.039737232 -0.3315174 0.019032706 0.16461942 -0.22756946 0.07740444 0.0892837
-0.032712996 -0.14300281 -0.025967218 -0.006165175 -0.017394401 0.008553756 -0.09076088 0.10083041
-0.14341414 0.011838409 -0.014890257 -0.0643359 0.010428154 0.050256886 0.09484669 0.0021049874
0.020281754 0.19568896 0.13804159 0.101394795 -0.15136217 0.07939447 0.05932541 0.08966164
0.019224329 -0.0127279265 -0.09071905 0.6331585 0.013531201 -0.21461363 0.14148964 -0.070421785
-0.10240138 -0.44102058 0.017578006 -0.09006707 -0.14685111 -0.016565088 0.008984904 0.073027
0.0007218831 0.07486053 -0.26122335 -0.06897045 0.031425346 0.0061209616 -0.12354165 -0.11636747
0.0019915176 -0.0033771337 0.034137543 -0.016585534 9.716252e-06 -0.043580797 0.012490247 -0.014825433
-0.008843038 0.015505509 0.01888468 0.0645834 -0.054762434 -0.0070697446 0.08384131 -0.0041353004
0.040380683 -0.113799885 0.030003047 0.054671653 0.08516022 0.0058514564 -0.00042191785 -0.079487495
0.3757658 0.090804905 -0.075081214 -0.02466263 0.006266549 -0.058707364 -0.32586238 -0.0072760927
0.015408329 -0.10305035 -0.045854725 -0.019269092 0.27009284 0.0076659205 -0.021261781 -0.042231604
-0.085020915 -0.022492042 -0.103457116 0.030710982 -0.047286183 0.00344496 0.0017526406 0.059253197
0.030245371 -0.06053053 0.020077614 -0.0043877573 -0.012122329 0.0158449 -0.012142009 0.017251492
-0.00318149 -0.07995549 -0.0026310075 -0.12218892 -0.007840504 0.087044284 -0.1307035 0.07471368
0.06364857 0.14478432 0.05573323 -0.09046102 -0.014675988 -0.07496649 0.037627712 0.13777447
-0.16040565 0.11436814 -0.04449653 0.13257957 -0.04966042 -0.08973953 -0.15662155 0.040648405
-0.018374246 0.24074769 0.102074675 -0.0699977 0.16212606 -0.1341741 -0.052694693 -0.25566772
00000000: f520 39bd 0253 ddbc b75f 8abd 5b21 9b3d
00000010: 9c0d 263e 1aab a73e bb82 b63d 43b2 07be
00000020: 9f3b f03d 0f15 973e c86c 9b3e c039 65be
00000030: 8d38 26bf 1001 3f3e 7bc0 8c3e 12d8 9ebe
00000040: f1db 063f 38de 3d3e 9519 313f 84ac 80be
00000050: 7fc9 05bf 4b3e 5bbd baa4 033e 9fa6 43bd
00000060: 645f bb3e 5679 95bd 0533 6ebd 2948 1b3e
00000070: bd46 f2bc 4040 f43c 3010 98bc 09f7 14b9
00000080: bf99 99bd 38fb 173b 5ef3 8abd 754b 063d
00000090: 0db9 05bd e054 afbd 41bd afbc 6abf da3c
000000a0: 9fe0 d7bd f08d 7bbc 6ad4 45bb f6f6 83bb
000000b0: f448 013e e7bb 483d 299f 55bc a675 0a3c
000000c0: a125 fd3d 74a5 54be d408 5fbe 1da8 893d
000000d0: aeb6 8abd 0c87 a53d 7cf0 653c 10aa 543e
000000e0: 14a4 0dbe 9d69 c63b 0bdd 84be 3601 3d3e
000000f0: 6fab 043e e9d2 923d 3eeb 6b3e e338 2d3e
00000100: 3e29 43be 48e6 9bbe bbab 17be 1f5e 0f3e
00000110: 002a d03d 8563 cf3d 09eb a5bd ceb4 a93d
00000120: d8d3 ba3c 94ab 503e 8413 b73d 3450 43be
00000130: 715b a03d 6a81 593d d6a1 11bc 40a9 56bd
00000140: 657f 51b9 095c 86bd 5bb3 8a3d afb1 d5bd
00000150: 440d 0d3d 5504 11bd 151e 9abd 8611 27bd
00000160: 2032 6d3d 87b0 a43d 4f4e f43c 5bdb f3bc
00000170: b913 ce3d e406 753e 3bf2 5bbc 2c59 c5be
00000180: a2d7 f83d 6772 203d 00f9 2a3d 7d98 abbd
00000190: 7284 c53d 2081 e8bd 1bba ec3e ee99 5dbe
000001a0: aa87 abbd 4da7 5f3e 63b9 b9bd 7ec4 623d
000001b0: a17b 26be edd2 583d 7407 27be df01 03be
000001c0: 53d8 a53d 82c3 223d a6bc a9be 7aea 9b3c
000001d0: fe91 283e f807 69be 3886 9e3d 5fda b63d
000001e0: 10fe 05bd 546f 12be 34b9 d4bc 3c05 cabb
000001f0: b47e 8ebc 0e25 0c3c d7e0 b9bd 2d80 ce3d
00000200: 28db 12be e3f5 413c 44f6 73bc 8ac2 83bd
00000210: d9da 2a3c 2ada 4d3d fb3e c23d d4f3 093b
00000220: ec25 a63c b062 483e c65a 0d3e 13a8 cf3d
00000230: affe 1abe 9199 a23d 33ff 723d 86a0 b73d
00000240: 577c 9d3c cb88 50bc e9ca b9bd ad16 223f
00000250: f8b1 5d3c adc3 5bbe a9e2 103e 4c39 90bd
00000260: d1b7 d1bd 73cd e1be c0ff 8f3c 1675 b8bd
00000270: 2360 16be 82b3 87bc 6b35 133c 2e8f 953d
00000280: c13c 3d3a 7a50 993d 11bf 85be 6140 8dbd
00000290: ddb7 003d 5992 c83b 6803 fdbd 1152 eebd
000002a0: 1f84 023b e752 5dbb cfd3 0b3d 63de 87bc
000002b0: fc02 2337 c781 32bd e5a3 4c3c 5fe6 72bc
000002c0: 64e2 10bc d20a 7e3c 0bb4 9a3c 4d44 843d
000002d0: 934e 60bd 51a9 e7bb feb4 ab3d 6a81 87bb
000002e0: 3766 253d ea0f e9bd f3c8 f53c 62ef 5f3d
000002f0: 7b68 ae3d 93bd bf3b db34 ddb9 57ca a2bd
00000300: 6064 c03e ecf7 b93d 2ec4 99bd 4909 cabc
00000310: a057 cd3b 2277 70bd 6fd7 a6be 4a6c eebb
00000320: 3773 7c3c 100c d3bd 2ad2 3bbd 37da 9dbc
00000330: 9c49 8a3e 6732 fb3b 302d aebc 0cfb 2cbd
00000340: 721f aebd 3b41 b8bc 53e1 d3bd 9995 fb3c
00000350: 28af 41bd d7c4 613b dcb8 e53a 7bb3 723d
00000360: 24c5 f73c dcee 77bd cf79 a43c 2dc7 8fbb
00000370: bc9c 46bc 2acd 813c 47ef 46bc 0053 8d3c
00000380: 8c80 50bb b4bf a3bd fb6c 2cbb 2f3e fabd
00000390: 7575 00bc 4644 b23d 23d7 05be 7c03 993d
000003a0: 2e5a 823d 5742 143e 8748 643d a143 b9bd
000003b0: 8e73 70bc 0888 99bd 841f 1a3d c014 0d3e
000003c0: 6141 24be d839 ea3d fe41 36bd f0c2 073e
000003d0: b968 4bbd 5cc9 b7bd 6661 20be f17e 263d
000003e0: 9685 96bc 9086 763e 870c d13d f45a 8fbd
000003f0: 6004 263e ef64 09be 64d6 57bd e1e6 82be

estimator.0.bias f4 [128]
-0.041338228 0.06854339 0.065391965 -0.180887 -0.015094644 -0.25613913 -0.06281432 0.03476888
-0.07308397 0.14123389 0.06579203 -0.12600546 0.15491113 0.009728148 -0.33735403 -0.4256336
-0.044238795 -0.14702894 -0.120403975 0.074089915 0.09565694 -0.19821773 0.1822339 -0.07334937
0.11706566 -0.06386656 -0.35060176 -0.005993628 -0.21293567 0.16915376 0.2016264 -0.41266248
-0.30142066 0.08106504 -0.16963258 -0.035623018 -0.011782295 0.5035174 -0.19838141 0.062215433
0.01004298 -0.014325508 0.020911105 -0.5551434 -0.19752271 -0.117460385 0.1404685 0.07044497
-0.13176005 -0.037057392 -0.10137368 -0.059977617 -0.3818935 0.015764663 -0.24654777 -0.20337355
-0.2133905 -0.103605635 0.03534922 -0.13606367 -0.12935843 -0.18015157 -0.24569504 -0.08618323
-0.116639875 -0.088478096 -0.03235713 -0.08224041 -0.06484629 -0.070427425 0.05209383 0.09829334
-0.020193819 -0.16834313 0.14377755 -2.0678349 0.11805022 0.020544458 0.078985885 -0.040870864
0.13200346 0.04155545 0.015352508 -0.14501221 0.14602396 -0.19545515 0.11179231 -0.19092494
-0.048654873 0.012832229 0.0032810403 0.47706884 0.13743326 -0.047399875 0.15127309 0.101063825
-0.19574851 0.03998039 0.061102267 0.17710613 0.054401416 0.08978843 0.13286522 -0.053504642
0.24988921 0.04525017 0.18336888 0.07517848 -0.19184853 -0.31486386 -0.0757112 -0.06417072
-0.2027423 0.06339529 0.03217648 -0.22414903 -0.09743848 0.018560069 0.10173292 -0.05204716
0.06643701 -0.03995936 -0.037398767 -0.22969465 -0.08850396 0.017708685 0.1457413 -0.097949505
00000000: 4652 29bd 7a60 8c3d 39ec 853d 713a 39be
00000010: 874f 77bc ab24 83be cba4 80bd d069 0e3d
00000020: 0cad 95bd 9e9f 103e f9bd 863d 9307 01be
00000030: 06a1 1e3e cf62 1f3c abb9 acbe a6ec d9be
00000040: bd33 35bd c18e 16be 5c96 f6bd 74bc 973d
00000050: c9e7 c33d 97f9 4abe 869b 3a3e 3238 96bd
00000060: 1fc0 ef3d 79cc 82bd 1382 b3be 3266 c4bb
00000070: cf0b 5abe a536 2d3e 2777 4e3e 7f48 d3be
00000080: cf53 9abe 6d05 a63d 2ab4 2dbe 71e9 11bd
00000090: 870a 41bc 84e6 003f 7f24 4bbe 9cd5 7e3d
000000a0: 508b 243c 89b5 6abc c44d ab3c e11d 0ebf
000000b0: 6543 4abe 128f f0bd f9d6 0f3e 7445 903d
000000c0: 1bec 06be 7ec9 17bd 019d cfbd 17ab 75bd
000000d0: 8b87 c3be e524 813c 0577 7cbe 2841 50be
000000e0: 0a83 5abe 312f d4bd 58ca 103d 4654 0bbe
000000f0: 8976 04be a779 38be 7b97 7bbe d580 b0bd
00000100: e3e0 eebd 0134 b5bd e988 04bd a96d a8bd
00000110: 22ce 84bd 413c 90bd 5760 553d 054e c93d
00000120: 826d a5bc 2462 2cbe 6c3a 133e 6857 04c0
00000130: 50c4 f13d da4c a83c 5ac3 a13d 3568 27bd
00000140: ea2b 073e 0c36 2a3d 1689 7b3c 157e 14be
00000150: 4e87 153e 6525 48be 5ef3 e43d d481 43be
00000160: 554a 47bd 453e 523c b906 573b 5e42 f43e
00000170: 4ebb 0c3e 5f26 42bd 55e7 1a3e 8dfa ce3d
00000180: 4c72 48be 7ac2 233d 5f46 7a3d 4f5b 353e
00000190: 05d4 5e3d ffe2 b73d d20d 083e af27 5bbd
000001a0: f5e2 7f3e 3e58 393d 0dc5 3b3e 2df7 993d
000001b0: f173 44be d635 a1be 790e 9bbd f06b 83bd
000001c0: ad9b 4fbe 64d5 813d 7ccb 033d 5387 65be
000001d0: d38d c7bd 490b 983c 5959 d03d 672f 55bd
000001e0: 2110 883d 6dac 23bd 732f 19bd 1335 6bbe
000001f0: 9041 b5bd ce11 913c 353d 153e c099 c8bd

estimator.2.weight f4 [64, 128]
-0.09978445 0.010767269 -0.1342134 -0.047621723 -0.04777364 -0.058614917 -0.16314666 -0.022044212
-0.09502488 -0.024705933 -0.14544989 0.14542161 0.0828239 0.19513999 0.048507016 -0.24462304
-0.38944817 0.031509794 -0.3683407 0.065139756 0.31807628 -0.16394629 0.24012822 -0.22660178
-0.093019664 0.0017639179 0.07597756 -0.14365654 0.048889227 -0.023999412 0.18766004 -0.18638636
-0.15496245 -0.12592188 0.0806056 0.013359537 -0.12049319 0.11979637 -0.08989438 -0.042994536
0.2223078 0.15386412 0.009212228 0.077920824 -0.12190131 -0.046268955 0.19712456 0.04403246
-0.074864745 -0.23640764 -0.07156737 0.10183546 -0.22805662 -0.22420211 -0.06781075 0.03639753
-0.23162249 -0.110693544 -0.04774661 -0.038812816 -0.06449928 0.23082235 -0.1544225 -0.20101836
-0.10328713 -0.3279022 0.029684355 0.050423846 -0.07196065 0.05992065 0.18728663 -0.22956872
0.11332259 0.12502621 0.03561018 -0.004730393 0.049306247 0.03253877 0.069409445 0.055432886
-0.08368081 -0.02366722 0.22196461 0.2590783 0.003737957 -0.1510812 -0.03821018 -0.045202415
0.091201514 0.34618694 -0.1279974 -0.0025334347 -0.0064188247 -0.0953246 0.28074184 0.035896804
-0.0072901105 -0.27419212 -0.14773451 0.06269562 -0.09133117 0.0090930015 0.12972143 0.021019801
0.18244116 0.23828639 -0.12865306 0.26397327 -0.20327297 0.28750008 0.052379612 0.03128546
-0.2445198 0.054739174 -0.030628877 0.18645827 -0.07718409 -0.16824648 -0.1635926 -0.07932411
0.19183812 -0.026940098 -0.03934399 0.051229026 -0.10396018 -0.1038298 -0.041868314 -0.21342061
0.033478443 0.03244837 0.07924865 -0.16602519 -0.07193399 -0.15763746 0.26357642 0.02965213
-0.05148256 -0.29521704 0.11581434 -0.016077235 -0.0322286 -0.09591278 0.15494484 0.18756446
0.40633962 0.3431635 0.29925433 0.29644656 -0.115806065 0.22055115 0.0063962564 -0.09988336
-0.039226506 0.26793006 -0.17595857 -0.073645204 -0.29748812 -0.2051589 -0.5391141 0.15068631
0.18574947 0.031278975 -0.048866533 0.30125 0.15385215 -0.1791508 0.11110918 -0.118090555
-0.10277665 0.46040925 -0.26263198 0.25405914 0.2739164 0.2006996 -0.019300718 -0.2617645
0.15293866 0.13028368 0.19622275 -0.071510255 0.39283833 -0.20867418 0.009611838 -0.08140908
-0.306183 0.015144271 0.13357486 0.37164682 0.15872367 -0.11547647 0.08180756 0.11587703
-0.078670785 -0.0052637546 0.015013439 0.0933661 -0.218103 -0.15723671 -0.30256876 0.097574
-0.016748222 0.044686843 0.31905723 -0.042620596 0.12880701 -0.19918783 0.265599 0.14648862
-0.2196883 -0.18191503 -0.2893365 0.17868705 0.27294677 0.18237445 0.07903222 -0.08435277
0.026392125 0.13882293 0.06822453 -0.2375586 -0.010390739 -0.012323382 0.017656054 -0.022410044
-0.06470553 -0.07844912 -0.073057085 0.14593545 0.47060305 0.016794154 -0.026009195 0.23754503
0.023690471 0.25053832 0.043367963 0.09107689 -0.011272511 0.0418595 -0.060335588 -0.008989022
0.19175208 0.08214508 -0.2812639 0.047474813 -0.10618766 0.20094104 0.028738359 0.1414141
0.10502184 0.25228983 0.022053884 0.005683987 -0.08423186 0.1911455 -0.043545198 -0.1163095
00000000: ca5b ccbd 3369 303c 3d6f 09be ff0e 43bd
00000010: 4bae 43bd 3216 70bd eb0f 27be 1096 b4bc
00000020: 679c c2bd 1964 cabc d1f0 14be 67e9 143e
00000030: 949f a93d c7d2 473e 4baf 463d 767e 7abe
00000040: c065 c7be 6a10 013d 2797 bcbe fe67 853d
00000050: e5da a23e 89e1 27be 2ce4 753e 4c0a 68be
00000060: 1881 bebd 4333 e73a 1f9a 9b3d b31a 13be
00000070: 1240 483d 6a9a c4bc f429 403e 11dc 3ebe
00000080: 7aae 1ebe aaf1 00be 8c14 a53d f6e1 5a3c
00000090: 22c5 f6bd cd57 f53d 8b1a b8bd 0a1b 30bd
000000a0: a8a4 633e 8e8e 1d3e e2ee 163c f494 9f3d
000000b0: 65a7 f9bd 8484 3dbd 05db 493e 615b 343d
000000c0: b052 99bd d814 72be ea91 92bd 1c8f d03d
000000d0: ad87 69be 3d95 65be 5de0 8abd 9415 153d
000000e0: 722e 6dbe 4cb3 e2bd f391 43bd 30fa 1ebd
000000f0: 3318 84bd b25c 6c3e ef20 1ebe c2d7 4dbe
00000100: 3488 d3bd cce2 a7be 9b2c f33c 3c89 4e3d
00000110: 1b60 93bd 5b6f 753d 11c8 3f3e 1014 6bbe
00000120: ad15 e83d df06 003e fbdb 113d 6a01 9bbb
00000130: 59f5 493d 6047 053d 8a26 8e3d 980d 633d
00000140: d860 abbd c2e1 c1bc b14a 633e e9a5 843e
00000150: 83f8 743b 08b5 1abe 4782 1cbd 2b26 39bd
00000160: dcc7 ba3d 6a3f b13e c011 03be fb07 26bb
00000170: 0155 d2bb 8b39 c3bd 65bd 8f3e 8708 133d
00000180: e1e1 eebb e962 8cbe b747 17be 9066 803d
00000190: d60b bbbd d0fa 143c b2d5 043e b831 ac3c
000001a0: dbd1 3a3e 5901 743e a1bd 03be 8127 873e
000001b0: ca26 50be 3633 933e 018c 563d 2f25 003d
000001c0: 6663 7abe 2f36 603d 69e9 fabc ebee 3e3e
000001d0: b112 9ebd ce48 2cbe d284 27be ae74 a2bd
000001e0: 3671 443e 7bb1 dcbc 2a27 21bd 87d5 513d
000001f0: 13e9 d4bd b8a4 d4bd 1c7e 2bbd ef8a 5abe
00000200: b120 093d 95e8 043d 1e4d a23d 8202 2abe
00000210: 2152 93bd b76b 21be 7df3 863e 06e9 f23c
00000220: 60df 52bd b026 97be 1230 ed3d 68b4 83bc
00000230: 2302 04bd eb6d c4bd dca9 1e3e e610 403e
00000240: bf0b d03e 20b3 af3e dd37 993e d8c7 973e
00000250: bb2b edbd 29d8 613e b097 d13b a68f ccbd
00000260: f9ab 20bd 212e 893e 7c2e 34be 4cd3 96bd
00000270: 5d50 98be 2d15 52be 6203 0abf 834d 1a3e
00000280: 1c35 3e3e 621e 003d 4628 48bd 713d 9a3e
00000290: 6b8b 1d3e 4f73 37be 368d e33d 76d9 f1bd
000002a0: 907c d2bd c3ba eb3e b377 86be 0a14 823e
000002b0: c53e 8c3e 3284 4d3e 8a1c 9ebc ff05 86be
000002c0: f49b 1c3e 1669 053e 9eee 483e f873 92bd
000002d0: 1b22 c93e afae 55be f87a 1d3c ceb9 a6bd
000002e0: 05c4 9cbe ad1f 783c d9c7 083e 7e48 be3e
000002f0: 7588 223e ed7e ecbd b98a a73d f050 ed3d
00000300: 261e a1bd 937b acbb edfa 753c ba36 bf3d
00000310: 6556 5fbe a902 21be 4bea 9abe e1d4 c73d
00000320: 9133 89bc 8d09 373d 785b a33e ef92 2ebd
00000330: fce5 033e e5f7 4bbe 98fc 873e 1d01 163e
00000340: f8f5 60be ef47 3abe ea23 94be bdf9 363e
00000350: aebf 8b3e 5ec0 3a3e a5db a13d 25c1 acbd
00000360: 4c34 d83c 9927 0e3e 4db9 8b3d 9042 73be
00000370: eb3d 2abc 03e8 49bc 6ea3 903c 4595 b7bc
00000380: 5584 84bd efa9 a0bd f49e 95bd 1a70 153e
00000390: e2f2 f03e e593 893c 3c11 d5bc 013f 733e
000003a0: 8512 c23c 8f46 803e 9ba2 313d 8586 ba3d
000003b0: 57b0 38bc de74 2b3d 7322 77bd b146 13bc
000003c0: a85a 443e ae3b a83d d201 90be f374 423d
000003d0: ea78 d9bd 7dc3 4d3e b56c eb3c dcce 103e
000003e0: b115 d73d 222c 813e 59aa b43c bd40 ba3b
000003f0: c181 acbd a5bb 433e 735c 32bd ad33 eebd

estimator.2.bias f4 [64]
0.032022215 -0.2181243 0.007278845 0.11459094 -0.057197586 0.003863501 0.0675167 -0.043481283
-0.10956069 0.0062537636 -0.0030142576 -0.08380109 -0.100644924 0.0139607005 -0.02493415 -0.19949196
0.030541666 0.07970601 0.07930379 -0.026951294 -0.05668825 0.04403741 -0.090463966 -0.018592495
-0.1860211 -0.07624933 -0.17043814 -0.012896071 0.053949013 -0.11928663 -0.11768269 -0.020060994
-0.026618022 -0.21435513 -0.024420142 0.007266232 -0.15471049 0.022533385 -0.073827475 -0.04156173
-0.10281517 -0.027342677 -0.0819809 -0.10086822 -0.06796813 -0.18876891 0.01865419 -0.026644394
-0.16932036 0.10074409 -0.22419061 0.14993289 -0.022631055 -0.004259931 0.060152747 -0.13351682
-0.24174288 -0.060866848 0.06606983 -0.023827031 -0.035955068 -0.036266036 -0.08423966 -0.28169602
00000000: ba29 033d fa5b 5fbe 6183 ee3b a8ae ea3d
00000010: 0448 6abd ca32 7d3b 3246 8a3d 6e19 32bd
00000020: 5b61 e0bd 5fec cc3b da8a 45bb e89f abbd
00000030: ed1e cebd 6cbb 643c b442 ccbc 9f47 4cbe
00000040: 8432 fa3c e83c a33d 076a a23d f6c8 dcbc
00000050: f031 68bd 9260 343d 2c45 b9bd 4a4f 98bc
00000060: 517c 3ebe 9c28 9cbd 5687 2ebe 0b4a 53bc
00000070: a4f9 5c3d 8c4c f4bd 9f03 f1bd f456 a4bc
00000080: 0a0e dabc e97f 5bbe c00c c8bc 9219 ee3b
00000090: 6d6c 1ebe ef97 b83c dc32 97bd a23c 2abd
000000a0: c390 d2bd c0fd dfbc 9ae5 a7bd ff93 cebd
000000b0: e032 8bbd a34c 41be acd0 983c 5845 dabc
000000c0: 5162 2dbe eb52 ce3d 3992 65be 0288 193e
000000d0: c364 b9bc e496 8bbb ba62 763d a2b8 08be
000000e0: 728b 77be 844f 79bd 9e4f 873d e830 c3bc
000000f0: 9f45 13bd b28b 14bd d885 acbd 763a 90be

estimator.4.weight f4 [19, 64]
-0.26295966 -0.45843962 -0.19069313 -0.05760419 0.41030782 -0.15043722 0.3958448 -0.43896645
0.038616046 -0.4728796 0.015487425 0.15919231 0.25487694 -0.44962066 0.41919392 0.09260599
-0.24550118 -0.15990083 -0.032892507 0.20685624 -0.1872527 -0.2049174 0.24597712 -0.29732344
-0.12439523 -0.2860619 0.17159931 -0.15060645 -0.3740657 0.17797673 0.6002114 0.1309999
-0.26756787 -0.089503095 0.37817323 0.29822388 -0.23935547 -0.2193679 0.2531399 -0.08672101
-0.031005224 0.20390032 0.046723146 0.3173164 0.1867731 0.35681114 0.26267174 -0.33395392
-0.41394985 -0.036492173 0.088139035 0.030687608 -0.08132558 -0.4881331 -0.11330152 0.38282797
-0.10594589 0.27986008 -0.06959984 0.1972646 0.18401611 0.08350551 -0.2701167 0.30619317
0.03962912 0.106743835 -0.13508883 -0.26338395 -0.0047304216 -0.43545797 -0.16656426 0.033310737
0.14765373 0.025193404 -0.28307608 0.47043517 -0.23095883 0.09173406 0.002204585 -0.07888445
0.16479616 0.028244343 0.26448798 -0.18858752 0.22803088 -0.20351094 0.3026219 -0.11433526
0.40518346 -0.18107086 -0.16080368 -0.13390571 -0.019860316 -0.44000727 0.28932378 0.22914486
0.24181937 -0.2702202 -0.25342518 0.10790964 0.57074535 0.31323212 -0.42174673 -0.22964844
0.5695006 0.27679598 -0.32164598 0.36611027 0.12773268 0.07832632 0.085698634 -0.15810052
-0.24721687 0.061430972 0.12607405 -0.004956408 -0.47273394 -0.10981543 -0.092509165 0.051034387
0.42124534 -0.07326697 0.52479565 -0.31029317 -0.15550831 -0.13383271 -0.5624239 0.12430216
0.10450839 -0.07086125 -0.23611802 -0.28066853 -0.17181747 -0.050020155 0.12281442 0.021172158
-0.3028786 0.044285398 -0.1377689 0.2706059 0.30426583 0.2881721 -0.31694135 0.5014939
0.13068868 0.0480073 0.0039742333 0.25255483 -0.23469567 0.1439752 0.31280237 -0.39565134
0.24210477 -0.29698092 0.21641228 -0.40635166 -0.024065392 -0.11041033 -0.0009156028 -0.39580572
0.0949603 0.41884378 -0.086096026 0.11567147 0.008560977 -0.21612348 0.039372608 -0.1102197
-0.08138763 -0.03727648 0.2812481 -0.24364913 -0.40281332 0.52308774 -0.14129801 -0.03759678
-0.12915269 0.49239266 -0.55266136 0.27810103 0.11884239 0.027038911 0.33144167 0.08391974
0.0036178525 -0.04576254 0.26229697 -0.1438688 -0.2284607 -0.5025863 -0.19884358 0.2251528
-0.20752378 -0.24200708 -0.18173009 -0.4494139 -0.3523134 -0.384253 -0.4286024 -0.2218564
-0.31757334 0.15933387 -0.62402475 0.42861533 -0.28127152 0.6696085 0.26991242 -0.46838173
0.13639109 -0.21330142 -0.19801703 -0.5882926 -0.032199923 -0.17800958 -0.28386807 0.15470494
0.15020268 -0.027793093 0.24465609 -0.26449952 -0.77524126 -0.030432459 0.39507776 -1.0697951
-0.4081618 -0.10241147 -0.20783545 -0.10751407 0.3997755 -0.2975818 -0.117163666 -0.09880213
0.3956265 -0.33391625 -0.12338795 0.2100297 -0.33214435 0.004062229 -0.5123821 0.8400101
0.04046361 -0.11675339 0.011765438 -0.34638226 -0.03825589 -0.46720836 0.12381467 0.24936594
-0.094242446 -0.44863594 0.08266716 -0.28039485 -0.60282004 0.28015482 -0.29444653 -0.20165506
00000000: a6a2 86be 99b8 eabe 0f45 43be 5ff2 6bbd
00000010: de13 d23e 370c 1abe 2bac ca3e 36c0 e0be
00000020: dc2b 1e3d 461d f2be f8be 7d3c 4f03 233e
00000030: 3b7f 823e ae34 e6be 96a0 d63e 36a8 bd3d
00000040: a964 7bbe 0bbd 23be 4bba 06bd 1fd2 533e
00000050: 2cbf 3fbe ded5 51be 6de1 7b3e c73a 98be
00000060: edc2 febd b576 92be bbb7 2f3e 9438 1abe
00000070: 8a85 bfbe 883f 363e 74a7 193f d624 063e
00000080: a8fe 88be 664d b7bd ec9f c13e cdb0 983e
00000090: 9a19 75be fba1 60be 8e9b 813e c99a b1bd
000000a0: abfe fdbc 3fcb 503e c560 3f3d 4c77 a23e
000000b0: 7341 3f3e f3af b63e e97c 863e 02fc aabe
000000c0: 3cf1 d3be d178 15bd 3d82 b43d 9464 fb3c
000000d0: 078e a6bd 95ec f9be a10a e8bd 0702 c43e
000000e0: 29fa d8bd d249 8f3e 5c8a 8ebd bbff 493e
000000f0: b86e 3c3e f004 ab3d bc4c 8abe 5ac5 9c3e
00000100: 2552 223d 839c da3d ba54 0abe 43da 86be
00000110: a701 9bbb 59f4 debe d28f 2abe d770 083d
00000120: 8a32 173e 6662 ce3c 59ef 90be e1dc f03e
00000130: 7980 6cbe 11df bb3d cc7a 103b 2c8e a1bd
00000140: 53c0 283e ae60 e73c f86a 873e 161d 41be
00000150: ed80 693e 2c65 50be 42f1 9a3e 9b28 eabd
00000160: 3574 cf3e a46a 39be b8a9 24be 941e 09be
00000170: 1ab2 a2bc a248 e1be 3f22 943e f3a4 6a3e
00000180: 7f9f 773e 4d5a 8abe f2c0 81be bbff dc3d
00000190: 5e1c 123f f65f a03e 30ef d7be f628 6bbe
000001a0: cbca 113f 34b8 8d3e c8ae a4be ce72 bb3e
000001b0: 5bcc 023e 8d69 a03d c482 af3d 1ae5 21be
000001c0: 6b26 7dbe 0b9f 7b3d 8e19 013e 5d69 a2bb
000001d0: 2f0a f2be eae6 e0bd 7275 bdbd 6f09 513d
000001e0: 78ad d73e fe0c 96bd 0259 063f bfde 9ebe
000001f0: 923d 1fbe 710b 09be 03fb 0fbf 2292 fe3d
00000200: 7f08 d63d b41f 91bd ecc8 71be c9b3 8fbe
00000210: ebf0 2fbe efe1 4cbd 2086 fb3d 3c71 ad3c
00000220: e712 9bbe 9b64 353d 4a13 0dbe db8c 8a3e
00000230: bbc8 9b3e 4b8b 933e 2346 a2be e761 003f
00000240: 41d3 053e 4da3 443d 493a 823b de4e 813e
00000250: 1054 70be 3c6e 133e a227 a03e d092 cabe
00000260: 50ea 773e e20d 98be 2e9b 5d3e 530d d0be
00000270: c924 c5bc d01e e2bd 1005 70ba 0ca7 cabe
00000280: 8c7a c23d b172 d63e 1d53 b0bd 2ae5 ec3d
00000290: 5743 0c3c 794f 5dbe 2c45 213d deba e1bd
000002a0: 8fae a6bd 39af 18bd c0ff 8f3e 287f 79be
000002b0: 8c3d cebe 14e9 053f 6db0 10be 15ff 19bd
000002c0: 9a40 04be e41a fc3e 377b 0dbf 4263 8e3e
000002d0: a463 f33d b580 dd3c b9b2 a93e 1dde ab3d
000002e0: 7e19 6d3b 8071 3bbd ca4b 863e 5852 13be
000002f0: 9af1 69be 7fa9 00bf a79d 4bbe 758e 663e
00000300: 1d81 54be b4d0 77be 7417 3abe 9419 e6be
00000310: 6c62 b4be cfbc c4be c671 dbbe 532e 63be
00000320: f998 a2be 6b28 233e 16c0 1fbf 7873 db3e
00000330: d202 90be 766b 2b3f f631 8a3e bbcf efbe
00000340: 1baa 0b3e b06b 5abe fac4 4abe 589a 16bf
00000350: 11e4 03bd 2548 36be 2857 91be f96a 1e3e
00000360: bbce 193e 57ae e3bc 2087 7a3e 7b6c 87be
00000370: 3676 46bf 7e4d f9bc a247 ca3e 0cef 88bf
00000380: 95fa d0be 1bbd d1bd d1d2 54be 5630 dcbd
00000390: 60af cc3e a45c 98be 81f3 efbd c558 cabd
000003a0: 8e8f ca3e 12f7 aabe d2b2 fcbd 0712 573e
000003b0: d30e aabe 721c 853b 792b 03bf e70a 573f
000003c0: 2cbd 253d 671c efbd d3c3 403c 0459 b1be
000003d0: 35b2 1cbd ef35 efbe 8c92 fd3d c959 7f3e
000003e0: 2f02 c1bd 9cb3 e5be 664d a93d ea8f 8fbe
000003f0: 6a52 1abf 7470 8f3e b2c1 96be aa7e 4ebe

estimator.4.bias f4 [19]
0.09234689 -0.07369845 -0.008529669 -0.2916247 -0.58872515 -0.35116863 0.57984245 0.5733738
0.5523837 0.26731464 0.5547256 -0.41542745 0.55439293 0.5890721 0.5444103 0.46930423
-0.47871202 -0.53409004 0.49298337
00000000: 5e20 bd3d 37ef 96bd 06c0 0bbc d54f 95be
00000010: b1b6 16bf 60cc b3be 8e70 143f a0c8 123f
00000020: 0569 0d3f 77dd 883e 7f02 0e3f e8b2 d4be
00000030: b2ec 0d3f 6ecd 163f 795e 0b3f a548 f03e
00000040: be19 f5be 20ba 08bf 5168 fc3e

actor.0.weight f4 [512, 64]
0.014117436 0.119412616 -0.8744266 -0.031599905 -0.07351331 0.39059022 0.052283533 0.43850264
-0.06054861 -0.34864286 0.114561036 0.17722099 -0.08389839 0.41648868 -0.10085147 0.16997038
-0.21950176 0.0031201434 0.043236125 0.15630795 0.05263607 -0.15627357 -0.04034105 -0.038791172
0.23056082 0.33812597 -0.05358848 0.06275035 0.106877126 0.02141025 -0.13539232 0.032984145
0.011081827 0.05398247 0.004470228 -0.015861576 0.036633648 -0.054048516 0.018032875 0.004555986
0.04324386 -0.026613507 0.052828405 -0.026803033 -0.035230428 -0.025274983 -0.116169505 0.11162344
-0.2493108 -0.11343853 0.06280969 -0.057010636 -0.02045642 -0.13372943 -0.110561095 -0.08300547
0.005189866 0.10689497 -0.0009903826 0.13738143 -0.0810903 0.0077906363 -0.09722574 0.036587372
0.0064281947 -0.022558602 -0.28281978 0.060006734 -0.10458187 0.069022134 0.17818843 -0.4207584
0.059245028 -0.1758755 0.568288 0.00058779155 0.20646185 -0.037823197 -0.20891815 -0.15359166
0.22829434 -0.02142333 0.37017152 0.014125175 -0.013940696 -0.027609505 0.20822936 0.026061641
-0.09516897 0.2139581 0.083426535 0.42043626 -0.05941392 0.008805533 0.21543787 -0.17322952
-0.17040104 0.02724703 -0.06963986 -0.07980494 0.06596113 -0.054691512 -0.017613014 -0.097905986
0.009924694 -0.078720145 -0.067792594 -0.020054923 0.016274069 -0.011691875 -0.13421227 -0.166069
-0.12902778 -0.021342995 -0.05772638 -0.063981846 0.075824395 -0.084685795 -0.025598485 0.0073977984
0.11314109 -0.01781071 0.10047244 0.07729653 0.05373615 0.15392499 0.012716327 0.05530331
0.00536114 -0.0071221883 0.4924189 0.21396407 0.39242128 -0.10307529 0.054407638 0.010060437
-0.019440025 0.12687223 0.17304572 0.40086573 0.4324314 -0.33849236 -0.12620556 -0.2556138
-0.07636159 -0.14504728 -0.23790118 -0.05960528 0.12443208 0.036306474 -0.15073542 -0.007509972
-0.06372981 -0.1636178 -0.24344836 -0.31614858 -0.15800257 -0.015549419 0.16459148 -0.11397837
0.011943037 -0.05497484 0.0013489678 -0.026930107 -0.015331525 0.10861486 0.08764661 0.010346659
0.0013803606 0.028399108 0.032977037 0.025369193 -0.047778063 0.062029894 0.01404655 -0.093424514
0.0646003 -0.0032174692 0.04190368 -0.08785572 -0.07273746 -0.033404756 -0.0739965 -0.010871611
0.09401999 -0.0063312543 -0.050411068 -0.1817503 -0.015610917 0.008098737 -0.035194613 -0.113797985
-0.30842996 0.0738446 0.02788354 -0.021370552 0.0635755 -0.5179471 0.26493067 0.019807689
0.16443355 0.13544223 0.010863687 0.25612703 -0.26754227 0.15606953 -0.3335979 0.023554143
0.28423694 0.3559376 0.21045625 0.38323963 -0.0914817 0.05992874 -0.08884793 0.14712109
-0.008657139 -0.1282371 0.14038035 -0.1375308 0.09020427 -0.06392752 0.115901485 -0.10298927
0.06909258 -0.016034473 -0.00023230787 -0.030949412 0.06224534 -0.07149412 -0.10228993 0.10115277
0.014898687 -0.024856023 -0.039973766 0.078299955 0.040862776 0.039802533 -0.04600635 0.1939289
0.08083958 0.11486205 0.111233294 0.044143125 -0.09258705 0.07861917 -0.016011031 0.038643688
0.01517159 -0.027599784 -0.047424123 0.0011462059 -0.0057663424 0.12247628 0.099185206 0.022972899
00000000: d14c 673c 9a8e f43d 6cda 5fbf e76e 01bd
00000010: 258e 96bd 71fb c73e 4227 563d 6b83 e03e
00000020: d201 78bd 5181 b2be fa9e ea3d 6b79 353e
00000030: ebd2 abbd 013e d53e 378b cebd b70c 2e3e
00000040: 12c5 60be 527b 4c3b 5d18 313d 310f 203e
00000050: eb98 573d 2e06 20be a83c 25bd 7ee3 1ebd
00000060: 2318 6c3e d91e ad3e 987f 5bbd 4183 803d
00000070: 65e2 da3d 8c64 af3c 49a4 0abe 621a 073d
00000080: 8d90 353c b91c 5d3d fe7a 923b 23f0 81bc
00000090: 2a0d 163d fa61 5dbd aeb9 933c 614a 953b
000000a0: 7920 313d 9204 dabc 9962 583d 0992 dbbc
000000b0: c84d 10bd 7b0d cfbc 47ea edbd d59a e43d
000000c0: 554b 7fbe 7652 e8bd 5ea2 803d fc83 69bd
000000d0: 3994 a7bc 5ef0 08be db6d e2bd c6fe a9bd
000000e0: c00f aa3b c0eb da3d bacf 81ba b8ad 0c3e
000000f0: ac12 a6bd 9848 ff3b 4a1e c7bd a4dc 153d
00000100: 9ba3 d23b d1cc b8bc c1cd 90be 9fc9 753d
00000110: 052f d6bd 7a5b 8d3d 0777 363e a56d d7be
00000120: eaaa 723d b518 34be 537b 113f 0616 1a3a
00000130: bc6a 533e 7fec 1abd a4ee 55be 2247 1dbe
00000140: fec5 693e fb7f afbc 1f87 bd3e 476d 673c
00000150: 8467 64bc 542d e2bc 143a 553e 397f d53c
00000160: f3e7 c2bd d517 5b3e 88db aa3d 6c43 d73e
00000170: 035c 73bd 1545 103c bf9b 5c3e 1463 31be
00000180: 9c7d 2ebe 2a35 df3c 589f 8ebd c670 a3bd
00000190: a116 873d 3504 60bd 2b49 90bc ef82 c8bd
000001a0: 2f9b 223c 0738 a1bd d8d6 8abd 394a a4bc
000001b0: 3251 853c 478f 3fbc f16e 09be fe0d 2abe
000001c0: dc1f 04be 81d7 aebc 7f72 6cbd ea08 83bd
000001d0: d249 9b3d bf6f adbd eab3 d1bc 3b69 f23b
000001e0: 84b6 e73d c4e7 91bc 7fc4 cd3d a54d 9e3d
000001f0: 701a 5c3d 839e 1d3e 2458 503c b985 623d
00000200: 80ac af3b 3f61 e9bb 541e fc3e 6619 5b3e
00000210: 71eb c83e 2319 d3bd 8bda 5e3d 88d4 243c
00000220: b040 9fbc cbea 013e e632 313e 463e cd3e
00000230: a667 dd3e df4e adbe 083c 01be d0df 82be
00000240: 7763 9cbd 4687 14be 5e9c 73be ab24 74bd
00000250: 3fd6 fe3d 19b6 143d 635a 1abe 3616 f6bb
00000260: c684 82bd 6d8b 27be 874a 79be 3ade a1be
00000270: 6dcb 21be fec2 7ebc ab8a 283e 7e6d e9bd
00000280: baac 433c 4c2d 61bd d9cf b03a 879c dcbc
00000290: 1431 7bbc 7871 de3d 1180 b33d 0985 293c
000002a0: 37ed b43a 3fa5 e83c ee12 073d 0ed3 cf3c
000002b0: eeb2 43bd 0f13 7e3d 8023 663c 5a55 bfbd
000002c0: 294d 843d 2ddc 52bb 31a3 2b3d b3ed b3bd
000002d0: 61f7 94bd 6dd3 08bd 7a8b 97bd d71e 32bc
000002e0: 8d8d c03d 6976 cfbb d67b 4ebd c01c 3abe
000002f0: eec4 7fbc 91b0 043c 3a28 10bd eb0e e9bd
00000300: 88ea 9dbe d63b 973d 066c e43c 4c11 afbc
00000310: df33 823d 2e98 04bf fea4 873e bc43 a23c
00000320: 4561 283e 5eb1 0a3e 9bfd 313c 1523 833e
00000330: 4dfb 88be b1d0 1f3e 58cd aabe 9ef4 c03c
00000340: 8187 913e 743d b63e d881 573e fc37 c43e
00000350: c25a bbbd d777 753d e7f5 b5bd e9a6 163e
00000360: acd6 0dbc 9650 03be debf 0f3e e0d4 0cbe
00000370: 04bd b83d 6eec 82bd c25d ed3d 0aec d2bd
00000380: 6980 8d3d ba5a 83bc ab97 73b9 9f89 fdbc
00000390: f8f4 7e3d 826b 92bd 627d d1bd 2f29 cf3d
000003a0: 9f19 743c dc9e cbbc 88bb 23bd ba5b a03d
000003b0: ba5f 273d fb07 233d 2871 3cbd 4c95 463e
000003c0: 398f a53d cb3c eb3d 48ce e33d 6ccf 343d
000003d0: 479e bdbd 1603 a13d 9129 83bc d848 1e3d
000003e0: 4392 783c f118 e2bc cc3f 42bd 4a3c 963a
000003f0: 96f3 bcbb d8d4 fa3d 9d21 cb3d a931 bc3c

actor.0.bias f4 [512]
0.083038226 0.060749702 -0.21481334 0.03124072 0.029901918 -0.12062694 0.063467264 0.11147081
0.07163947 0.013311276 0.059924986 0.14117107 -0.16745915 -0.1588081 -0.10529453 -0.11006978
-0.08952551 -0.16855413 0.032339916 0.062107302 -0.07769654 0.07883442 0.17051506 0.094702624
0.059405908 -0.017865682 0.052906323 0.0022732455 -0.09152581 -0.053774048 0.092051625 0.036268055
0.02723101 -0.143376 0.15955494 0.031094506 0.024881868 -0.082821175 0.06720713 0.14933646
-0.22425474 0.08498 -0.14443825 -0.20240027 0.0039513507 0.072490275 -0.13518675 -0.22368233
-0.18052515 -0.1183301 0.036702033 -0.1307466 0.034477502 0.08413661 0.18435185 -0.15714528
-0.15362929 0.20028263 -0.06650251 -0.2600108 -0.10642475 -0.028835602 0.083814934 -0.14812352
-0.09992209 0.098354146 -0.11611732 -0.04206631 -0.0052900645 0.10335513 0.13803229 -0.012894162
0.035296295 -0.14956498 0.1672752 0.029828114 0.14585757 0.03796618 -0.014115703 0.09254431
0.0023358194 -0.21485212 -0.06629767 0.06357731 0.02678204 0.012414442 0.0001977894 -0.042591847
-0.23804119 0.004461095 0.053796906 -0.09201357 0.08185355 -0.04748198 -0.17097375 0.032515474
0.03963345 0.12764867 -0.066822186 0.0449432 -0.1374301 -0.043514665 -0.091935195 0.017149292
0.110325985 -0.23658183 -0.16316383 -0.00065103266 0.2283557 -0.0029042717 -0.01218447 0.16296811
0.049506735 0.12250885 -0.16820832 -0.33179215 -0.11484714 0.11073526 0.019157073 -0.08607703
0.0920536 0.18074554 0.07283435 0.14105426 -0.10302481 0.06714735 -0.31933883 0.10952264
-0.06334952 -0.0045904806 -0.006573684 -0.13217458 0.049295194 0.03600711 0.16923687 0.081541866
-0.04185963 -0.132115 -0.088906884 -0.011721595 -0.03016203 0.15905574 0.03479427 0.12043728
-0.26724863 -0.14907609 -0.18615079 -0.07859966 0.152776 0.03859488 -0.022499876 0.07271851
-0.04575283 0.20068792 0.058741085 -0.025205484 -0.27556536 -0.13272744 -0.037279084 0.25406975
-0.03223581 0.019117964 -0.1595552 -0.14634278 0.018486723 -0.0033278367 0.15495865 0.094402336
-0.044047136 0.008527606 0.09198405 0.11157804 0.1091395 -0.11559775 -0.1737369 0.0809398
0.05614579 -0.075077266 0.016814135 0.21496154 0.033966508 -0.099141374 -0.05686409 0.18612243
-0.11178077 0.09935615 -0.10900237 -0.21509153 0.14629453 0.06835236 -0.030147947 -0.36303177
-0.12553869 0.014427913 0.053686265 0.19463655 -0.12636459 0.20415798 -0.19342636 -0.021941777
0.10179867 -0.1814571 -0.07603777 -0.20020027 -0.03965482 -0.028940983 -0.119555235 -0.14517596
-0.16504616 -0.010942314 -0.062984034 -0.029580884 -0.08017856 -0.0540463 0.078426406 0.09387089
-0.12415793 0.16214477 -0.17164509 -0.020476587 0.017510314 0.18841337 0.10738601 -0.14483409
-0.020532705 -0.26035622 0.17405072 0.03596079 -0.20648387 -0.071874425 0.16071013 0.1393742
-0.09517183 -0.002132876 -0.04660342 -0.3257503 -0.07728183 -0.1909018 0.055760656 0.0026890168
0.02554387 -0.17644846 0.22276928 -0.05116385 -0.08966458 0.011045675 -0.039982107 -0.13516434
0.008660696 -0.255095 0.117761075 0.08821035 -0.061336916 -0.28223202 -0.00048626927 -0.029962419
00000000: f20f aa3d aed4 783d 07f8 5bbe 8aec ff3c
00000010: def4 f43c 420b f7bd 20fb 813d cf4a e43d
00000020: b7b7 923d 8a17 5a3c e773 753d 268f 103e
00000030: 697a 2bbe 979e 22be a9a4 d7bd 446c e1bd
00000040: 2759 b7bd 7499 2cbe dc76 043d 3a64 7e3d
00000050: 5d1f 9fbd f173 a13d 809b 2e3e 73f3 c13d
00000060: 9c53 733d 0d5b 92bc 4db4 583d bbfa 143b
00000070: e271 bbbd 2d42 5cbd 9085 bc3d d08d 143d
00000080: 9113 df3c 28d1 12be 5f62 233e e8b9 fe3c
00000090: 0fd5 cb3c 269e a9bd e4a3 893d a8eb 183e
000000a0: 09a3 65be ff09 ae3d 9fe7 13be 0442 4fbe
000000b0: 557a 813b c875 943d 656e 0abe fb0c 65be
000000c0: 96db 38be 0d57 f2bd df54 163d 70e2 05be
000000d0: 4838 0d3d d14f ac3d bbc6 3c3e b1ea 20be
000000e0: ff50 1dbe e416 4d3e 7832 88bd 2320 85be
000000f0: 38f5 d9bd a438 ecbc 2aa7 ab3d b1ad 17be
00000100: f4a3 ccbd e66d c93d ebce edbd b94d 2cbd
00000110: 4758 adbb dbab d33d 5658 0d3e 0942 53bc
00000120: d992 103d 9027 19be 314a 2b3e 175a f43c
00000130: b05b 153e 6d82 1b3d 8d45 67bc df87 bd3d
00000140: 8c14 193b 3202 5cbe 13c7 87bd d234 823d
00000150: 0266 db3c f265 4b3c b065 4f39 ca74 2ebd
00000160: 12c1 73be 612e 923b 255a 5c3d 9c71 bcbd
00000170: d6a2 a73d 777c 42bd be13 2fbe f22e 053d
00000180: af56 223d 55b6 023e 12da 88bd 5c16 383d
00000190: 7aba 0cbe 6f3c 32bd 8548 bcbd ac7c 8c3c
000001a0: 97f2 e13d 8242 72be 6b14 27be 10aa 2aba
000001b0: 14d6 693e 9855 3ebb 5fa1 47bc 1de1 263e
000001c0: 93c7 4a3d ece5 fa3d cd3e 2cbe a9e0 a9be
000001d0: fa34 ebbd 2bc9 e23d 4bef 9c3c 2749 b0bd
000001e0: 9986 bc3d 5c15 393e 2d2a 953d 8770 103e
000001f0: acfe d2bd 8d84 893d 6180 a3be 684d e03d
00000200: 65bd 81bd be6b 96bb 0f68 d7bb c658 07be
00000210: c2e9 493d 317c 133d 6e4c 2d3e 6cff a63d
00000220: 0175 2bbd 2849 07be d014 b6bd ef0b 40bc
00000230: 5d16 f7bc 82df 223e 7084 0e3d d2a7 f63d
00000240: d0d4 88be 67a7 18be 509e 3ebe dcf8 a0bd
00000250: 5071 1c3e aa15 1e3d a951 b8bc 71ed 943d
00000260: 5267 3bbd 2281 4d3e 7e9a 703d bb7b cebc
00000270: e716 8dbe b4e9 07be f4b1 18bd 6e15 823e
00000280: b209 04bd 479d 9c3c 7062 23be e2da 15be
00000290: 7871 973c d617 5abb 7bad 1e3e 0356 c13d
000002a0: c56a 34bd 5fb7 0b3c 2262 bc3d 0783 e43d
000002b0: 8884 df3d 83be ecbd 16e8 31be c4c3 a53d
000002c0: 21f9 653d 1cc2 99bd ccbd 893c e11e 5c3e
000002d0: 7720 0b3d a20a cbbd 52ea 68bd e196 3e3e
000002e0: 51ed e4bd 3d7b cb3d a23c dfbd f440 5cbe
000002f0: 3cce 153e 52fc 8b3d d4f8 f6bc 4ddf b9be
00000300: 378d 00be 0e63 6c3c 21e6 5b3d ce4e 473e
00000310: b865 01be ca0e 513e 8f11 46be 3ebf b3bc
00000320: d27b d03d e4cf 39be b1b9 9bbd 4d01 4dbe
00000330: 186d 22bd a415 edbc 60d9 f4bd 02a9 14be
00000340: dc01 29be 6447 33bc c6fd 80bd 9c53 f2bc
00000350: a834 a4bd a75f 5dbd 069e a03d 623f c03d
00000360: 8346 febd 4709 263e bbc3 2fbe 84be a7bc
00000370: ca71 8f3c 6fef 403e 32ed db3d 634f 14be
00000380: 3434 a8bc 694d 85be 5a3a 323e 9f4b 133d
00000390: 8270 53be e632 93bd 3291 243e 1cb8 0e3e
000003a0: 73e9 c2bd b9c7 0bbb 3ae3 3ebd bec8 a6be
000003b0: f045 9ebd c37b 43be 4965 643d 373a 303b
000003c0: 6141 d13c e8ae 34be a11d 643e 2f91 51bd
000003d0: 10a2 b7bd ebf8 343c 47c4 23bd 8568 0abe
000003e0: 98e5 0d3c d09b 82be b82c f13d a1a7 b43d
000003f0: 6b3c 7bbd b780 90be f5f1 feb9 bf73 f5bc

actor.2.weight f4 [256, 512]
-0.07363923 0.024841163 0.13060647 0.17369917 -0.092827626 -0.037833814 0.100364536 -0.16218585
0.0018556138 -0.081031024 -0.086022414 -0.01902989 0.06666938 0.041810364 0.007299785 0.019830646
0.06861609 -0.11447088 -0.025418544 0.046859648 -0.14189938 -0.04847625 0.011157529 -0.10377726
-0.062178724 0.02537831 0.10763531 0.020999871 -0.10034914 0.13694698 0.002135046 0.054218132
-0.05199406 0.037135098 -0.021564158 0.026810534 -0.02898645 -0.039339654 -0.09296276 0.094138876
-0.08237146 -0.03904799 -0.044775385 0.04154567 -0.13736218 -0.17283714 0.12341206 -0.06600467
0.033999495 0.008128985 0.017877372 0.013921305 -0.23872963 0.03652449 -0.13096894 0.06880741
0.17003036 0.03094614 0.036103733 0.05137459 0.123933285 0.010761694 -0.07349499 -0.037489235
-0.12683439 -0.1120642 -0.022702966 0.169059 -4.4070795e-05 -0.056105275 0.03599464 -0.08901944
0.17812257 -0.11492257 0.059723184 0.21351686 0.023684772 0.027615646 -0.09763622 0.0072776848
0.036068223 0.0255155 0.043733653 0.072921306 0.086926155 0.03452609 -0.013697078 0.07902658
0.08529538 -0.056515533 -0.0052946936 0.04673859 0.00029963892 -0.050929233 -0.074387446 0.035411935
0.098051995 -0.035940137 -0.09831792 0.10770733 -0.13285924 -0.13541704 -0.011573435 -0.0658111
0.005927768 0.074842915 -0.07011247 -0.06052213 0.09562045 -0.011422795 -0.10202384 -0.13523103
-0.010217003 0.049365558 0.01729008 0.034910392 -0.109012924 0.023763813 -0.051326077 -0.06691303
0.06741148 -0.201676 -0.033684235 -0.04547266 -0.0719816 -0.03783188 -0.042657904 0.003033729
-0.07729155 -0.013343884 0.035015635 0.10066701 -0.026322525 -0.14348096 0.039776977 -0.01066049
-0.06759973 -0.17075665 0.06111574 0.020087847 -0.07224277 -0.036931064 -0.020594617 -0.052074514
0.0873754 -0.06555865 0.12830164 0.01032324 -0.12318222 -0.031356487 -0.049647074 -0.04282896
0.085882865 -0.15116268 -0.16019794 0.09209444 0.017824855 -0.040975858 -0.04662449 -0.066142045
0.005952496 0.16595574 0.029280128 0.018134722 -0.007463397 -0.14280541 -0.057511747 0.18350638
-0.09985336 -0.20189026 0.15044403 0.05373061 -0.041091178 -0.020046763 -0.07032695 -0.075490996
-0.009140009 0.16384563 -0.06139681 -0.09139229 0.04398493 -0.076752946 -0.17634642 0.018435206
-0.045122858 0.0095918765 -0.094349556 -0.08585424 -0.24913125 -0.061989643 0.014467381 -0.07304859
0.035073172 0.013967071 0.18176767 0.0017110507 0.031122962 0.0060644145 -0.18093672 -0.03345889
0.11950163 -0.033152446 0.12832376 -0.010178352 0.032567818 0.065481864 0.07064812 0.028693112
0.008614092 -0.1376891 0.04119194 -0.019169228 -0.038635798 -0.008183232 0.02476567 -0.092822306
-0.07755803 -0.030272117 -0.013451677 -0.01166461 -0.042221345 -0.025075056 -0.27715132 -0.013805321
-0.10748707 -0.014327442 0.08132623 -0.09527681 0.06869413 0.08660158 -0.055862706 0.00068534556
-0.09182157 0.03585996 -0.06510025 -0.007003271 -0.11719078 0.0360654 -0.21130063 -0.2199864
-0.06800096 -0.09479625 0.03795823 -0.17607488 -0.070497036 -0.079942085 0.1297 -0.09030294
0.011155146 0.022962919 -0.09042435 -0.01645115 0.009119831 0.08584859 0.006290977 0.18500324
00000000: 2ad0 96bd b27f cb3c b4bd 053e 32de 313e
00000010: 691c bebd a1f7 1abd ec8b cd3d 0c14 26be
00000020: 1138 f33a 98f3 a5bd 852c b0bd 92e4 9bbc
00000030: f589 883d 5841 2b3d 0933 ef3b e173 a23c
00000040: 9886 8c3d b56f eabd 8d3a d0bc e7ef 3f3d
00000050: 124e 11be 088f 46bd 12ce 363c 2c89 d4bd
00000060: 1eaf 7ebd 2ce6 cf3c e76f dc3d ec07 ac3c
00000070: da83 cdbd d43b 0c3e 21ec 0b3b d513 5e3d
00000080: b9f7 54bd f91a 183d 51a7 b0bc c4a1 db3c
00000090: fe74 edbc 9e22 21bd 4263 bebd e2cb c03d
000000a0: 5eb2 a8bd c9f0 1fbd 6566 37bd cb2b 2a3d
000000b0: aca8 0cbe 38fc 30be 76bf fc3d 752d 87bd
000000c0: 0e43 0b3d 6f2f 053c 9173 923c 2f16 643c
000000d0: 8a75 74be b49a 153d b91c 06be e6ea 8c3d
000000e0: 701c 2e3e c282 fd3c 82e1 133d 296e 523d
000000f0: bcd0 fd3d d151 303c 8b84 96bd 508e 19bd
00000100: e0e0 01be ea81 e5bd 92fb b9bc cd1d 2d3e
00000110: a8d8 38b8 a5ce 65bd 1e6f 133d d34f b6bd
00000120: c365 363e 865c ebbd 4ca0 743d 2aa4 5a3e
00000130: 9106 c23c 353a e23c 80f5 c7bd a579 ee3b
00000140: 46bc 133d e205 d13c 0f22 333d c457 953d
00000150: 5706 b23d 3b6b 0d3d b669 60bc b0d8 a13d
00000160: 58af ae3d d57c 67bd 1c7f adbb f770 3f3d
00000170: db18 9d39 2c9b 50bd 7258 98bd 1b0c 113d
00000180: 7ccf c83d f735 13bd e85a c9bd a995 dc3d
00000190: 410c 08be c4aa 0abe 819e 3dbc f8c7 86bd
000001a0: b93d c23b 3e47 993d 2097 8fbd 0ee6 77bd
000001b0: a8d4 c33d ad26 3bbc e0f1 d0bd 017a 0abe
000001c0: 3765 27bc 8a33 4a3d eda3 8d3c 33fe 0e3d
000001d0: 2b42 dfbd 54ac c23c 4b3b 52bd b309 89bd
000001e0: 080f 8a3d 2784 4ebe 7bf8 09bd 8a41 3abd
000001f0: 176b 93bd 9af5 1abd 0eba 2ebd 87d1 463b
00000200: 084b 9ebd 4ea0 5abc 8e6c 0f3d 812a ce3d
00000210: 56a2 d7bc acec 12be 2fed 223d 56a9 2ebc
00000220: ba71 8abd d5da 2ebe 8054 7a3d 458f a43c
00000230: 04f4 93bd 0745 17bd 0bb6 a8bc 164c 55bd
00000240: e0f1 b23d 9d43 86bd 8161 033e cf22 293c
00000250: f646 fcbd a96f 00bd bb5a 4bbd 6b6d 2fbd
00000260: 5be3 af3d 64ca 1abe ee0a 24be 029c bc3d
00000270: 6e05 923c 4dd6 27bd 52f9 3ebd 7b75 87bd
00000280: 280d c33b 4df0 293e e1dc ef3c 458f 943c
00000290: 838f f4bb 953b 12be 7091 6bbd 19e9 3b3e
000002a0: eb7f ccbd 52bc 4ebe 000e 1a3e a114 5c3d
000002b0: 394f 28bd 1c39 a4bc 9307 90bd 069b 9abd
000002c0: fabf 15bc 26c7 273e 397b 7bbd e22b bbbd
000002d0: 8b29 343d a630 9dbd 2894 34be 6e05 973c
000002e0: bfd2 38bd 3f27 1d3c 573a c1bd 59d4 afbd
000002f0: 431c 7fbe dae8 7dbd 9808 6d3c 809a 95bd
00000300: e3a8 0f3d 24d6 643c 4e21 3a3e 5645 e03a
00000310: 95f5 fe3c ffb7 c63b 7a47 39be 300c 09bd
00000320: 45bd f43d dcca 07bd 4e67 033e 1ac3 26bc
00000330: d565 053d 5b1b 863d f6af 903d d10d eb3c
00000340: 1f22 0d3c 5ffe 0cbe e1b8 283d c908 9dbc
00000350: 9240 1ebd f612 06bc 60e1 ca3c 9f19 bebd
00000360: bfd6 9ebd 3bfd f7bc 6c64 5cbc ec1c 3fbc
00000370: 4af0 2cbd 346a cdbc c7e6 8dbe b72f 62bc
00000380: 2e22 dcbd a6bd 6abc 5e8e a63d 7d20 c3bd
00000390: 82af 8c3d 2b5c b13d 4bd0 64bd c3a8 333a
000003a0: f30c bcbd e5e1 123d 4853 85bd b27b e5bb
000003b0: b801 f0bd 50b9 133d 315f 58be 1d44 61be
000003c0: 1644 8bbd 8924 c2bd 177a 1b3d f94c 34be
000003d0: c060 90bd adb8 a3bd 14d0 043e bff0 b8bd
000003e0: 13c4 363c bb1c bc3c 6730 b9bd 90c4 86bc
000003f0: 586b 153c 63d1 af3d 8a24 ce3b 7d71 3d3e

actor.2.bias f4 [256]
0.028314363 -0.123465225 -0.10170714 -0.04993447 -0.1226783 -0.105342455 -0.06676883 0.026346378
-0.16054747 -0.017408635 -0.03590731 -0.046490088 0.053410433 -0.12136806 -0.09798915 0.015614357
-0.082676515 -0.028488107 -0.0018945333 -0.00033304023 -0.06489606 -0.024292707 -0.07032549 -0.12581289
-0.11769378 -0.13948883 -0.19189599 -0.07531202 -0.064085364 -0.1763357 -0.012330056 -0.12259968
-0.03249839 -0.05251196 -0.03325631 0.050270732 -0.094798766 -0.025939336 -0.08212495 -0.13865161
-0.079723984 -0.076354116 -0.08108683 -0.22899814 -0.03545311 -0.065680325 -0.05492555 0.021713134
-0.06306066 -0.015240853 -0.0373927 -0.006951663 -0.07628805 0.009248723 -0.09120012 -0.04178523
0.06224208 -0.0768566 -0.09234894 -0.09986873 -0.22098115 -0.09989559 -0.18818079 -0.071732745
-0.039788414 -0.064522 -0.056248426 -0.12418411 -0.1776442 -0.015507669 0.017328544 -0.012314281
-0.017486868 -0.06566593 -0.0863117 -0.04534023 -0.009646261 -0.38418317 -0.038458083 -0.0120754475
-0.17119265 -0.038647052 -0.045028847 -0.050440036 -0.046864238 -0.077282526 -0.11421313 -0.075807326
-0.10288468 -0.036720995 -0.080597445 -0.06429965 -0.04524939 0.036242068 -0.41599423 -0.1410387
-0.18495424 -0.10825616 -0.12892118 0.07379159 -0.060450546 -0.020546658 -0.028828505 -0.10797678
0.04180919 -0.11391451 -0.061199475 0.003082998 -0.03587074 0.008937586 -0.18325171 -0.045019127
-0.15841998 -0.18952174 -0.08368902 -0.030489292 -0.11001132 -0.04794461 -0.058782328 -0.10814676
-0.18517548 0.011149949 -0.062837355 -0.04559112 -0.1887856 -0.094137415 -0.011151866 0.08994201
-0.12674184 -0.10383439 -0.04957106 -0.14104874 -0.106546745 0.009595447 -0.09339607 -0.22640158
-0.038681652 -0.14463626 -0.09056689 -0.007122072 -0.10628033 -0.08618904 -0.04986992 -0.07632089
-0.13120066 -0.0684681 -0.10373245 -0.11094707 -0.042297345 -0.1023519 -0.15636891 -0.019703051
-0.11555964 -0.02822782 -0.07609257 -0.13795626 -0.14030044 -0.17787129 -0.15029652 -0.028212825
-0.093478106 -0.14335199 -0.077596396 -0.06860638 -0.044453 -0.10217679 -0.020563366 -0.06665772
-0.088711135 -0.12018955 0.00068037165 -0.08100644 -0.036324386 -0.16810113 -0.11716334 -0.047449466
0.03932123 -0.05329678 -0.05198117 -0.13957497 -0.14248483 -0.13184227 -0.045973595 -0.10142045
-0.13735801 0.0039438116 -0.06885405 -0.08926823 -0.08249119 -0.062446896 -0.12080789 -0.056209367
-0.08007019 -0.13829963 -0.08349888 -0.042731535 -0.027361702 -0.07552067 -0.15130082 -0.10405485
-0.08328602 -0.08811595 -0.05939796 -0.026591204 -0.044035263 -0.18971358 0.004667384 -0.015706208
-0.075645015 -0.106472224 -0.0059453826 -0.11434204 -0.0410542 -0.092042275 -0.07661747 -0.10235833
-0.05213947 -0.11502205 -0.105037905 -0.027750714 -0.15278684 -0.15880947 -0.06884401 -0.12041079
-0.0742022 -0.13986222 -0.112557545 -0.15972911 -0.027952205 -0.12933917 -0.14833912 -0.05214349
-0.07500954 -0.1001593 -0.16237883 -0.14567079 -0.038562413 -0.009042119 -0.02207262 -0.16618724
-0.14023013 -0.09166828 -0.15158097 -0.102407746 -0.028947156 0.023373872 -0.07455919 -0.15134259
-0.07313524 -0.2095239 -0.056227375 -0.12932225 -0.1673486 -0.06102245 0.021255665 -0.114704855
00000000: 86f3 e73c 56db fcbd d54b d0bd 1688 4cbd
00000010: c33e fbbd c9bd d7bd 19be 88bd 5cd4 d73c
00000020: 8e66 24be 8e9c 8ebc 8b13 13bd 646c 3ebd
00000030: e6c4 5a3d d18f f8bd 89ae c8bd 5cd3 7f3c
00000040: 4e52 a9bd e45f e9bc fd51 f8ba e79b aeb9
00000050: 3ae8 84bd 8001 c7bc cf06 90bd 18d5 00be
00000060: 7009 f1bd 29d6 0ebe 6280 44be 303d 9abd
00000070: 303f 83bd 5991 34be 0104 4abc 8b15 fbbd
00000080: 081d 05bd c816 57bd c537 08bd afe8 4d3d
00000090: db25 c2bd bb7e d4bc 2031 a8bd b0fa 0dbe
000000a0: 5446 a3bd 8c5f 9cbd da10 a6bd 7d7e 6abe
000000b0: 4837 11bd 6883 86bd 9df9 60bd bedf b13c
000000c0: f325 81bd c5b4 79bc 1629 19bd c7ca e3bb
000000d0: e93c 9cbd f587 173c 21c7 babd fd26 2bbd
000000e0: 8df1 7e3d fe66 9dbd 7121 bdbd fa87 ccbd
000000f0: e248 62be 0f96 ccbd 77b2 40be 9ee8 92bd
00000100: 2df9 22bd 1c24 84bd c064 66bd 3d54 febd
00000110: 5ce8 35be e113 7ebc 97f4 8d3c d7c1 49bc
00000120: 9f40 8fbc dc7b 86bd 30c4 b0bd adb6 39bd
00000130: 5a0b 1ebc a8b3 c4be 3986 1dbd 19d8 45bc
00000140: 204d 2fbe 5f4c 1ebd 2b70 38bd 369a 4ebd
00000150: b7f4 3fbd 4d46 9ebd 93e8 e9bd df40 9bbd
00000160: 34b5 d2bd c168 16bd 4610 a5bd 89af 83bd
00000170: 6d57 39bd 9072 143d 32fd d4be 736c 10be
00000180: a564 3dbe 68b5 ddbd ea03 04be 0c20 973d
00000190: fe9a 77bd 7751 a8bc c229 ecbc ee22 ddbd
000001a0: 1d40 2b3d 034c e9bd 4dac 7abd 200c 4a3b
000001b0: 32ed 12bd f46e 123c 56a6 3bbe fa65 38bd
000001c0: d938 22be fd11 42be 2665 abbd aec4 f9bc
000001d0: 9d4d e1bd 9161 44bd bdc5 70bd 0c7c ddbd
000001e0: a49e 3dbe 47ae 363c dfb0 80bd c1bd 3abd
000001f0: 0351 41be 1ecb c0bd 51b6 36bc 8433 b83d
00000200: 9dc8 01be 20a7 d4bd 060b 4bbd 156f 10be
00000210: 2e35 dabd 3936 1d3c 7046 bfbd d1d5 67be
00000220: a770 1ebd 871b 14be 227b b9bd 4560 e9bb
00000230: 80a9 d9bd e183 b0bd 6744 4cbd 204e 9cbd
00000240: 7759 06be 0139 8cbd ae71 d4bd 3838 e3bd
00000250: fb3f 2dbd df9d d1bd 2c1f 20be 4b68 a1bc
00000260: 88aa ecbd 073e e7bc 6cd6 9bbd 6844 0dbe
00000270: ebaa 0fbe e423 36be 55e7 19be 951e e7bc
00000280: 7371 bfbd ddca 12be dcea 9ebd 8081 8cbd
00000290: 5914 36bd 1142 d1bd 8174 a8bc d883 88bd
000002a0: 2fae b5bd f025 f6bd f85a 323a b4e6 a5bd
000002b0: e1c8 14bd b422 2cbe 55f3 efbd 5f5a 42bd
000002c0: 4c0f 213d b94d 5abd 35ea 54bd beec 0ebe
000002d0: 8be7 11be a901 07be cf4e 3cbd 86b5 cfbd
000002e0: 94a7 0cbe 173b 813b 5a03 8dbd 43d2 b6bd
000002f0: 24f1 a8bd 51c8 7fbd 216a f7bd cb3b 66bd
00000300: d7fb a3bd 6b9e 0dbe 7601 abbd 4307 2fbd
00000310: a625 e0bc 95aa 9abd 9aee 1abe b61a d5bd
00000320: dc91 aabd 2376 b4bd 464b 73bd ccd5 d9bc
00000330: 525e 34bd 4744 42be dbf0 983b 4eaa 80bc
00000340: c6eb 9abd 1c0e dabd 7cd1 c2bb 292c eabd
00000350: 7328 28bd a980 bcbd 9fe9 9cbd 3ea1 d1bd
00000360: 3290 55bd ae90 ebbd 1d1e d7bd 7755 e3bc
00000370: 2774 1cbe f39e 22be 17fe 8cbd ef99 f6bd
00000380: 53f7 97bd 0b38 0fbe 9284 e6bd 0790 23be
00000390: 06fc e4bc 7d71 04be 36e6 17be 6a94 55bd
000003a0: 9a9e 99bd 5220 cdbd a346 26be b92a 15be
000003b0: 9ff3 1dbd 6525 14bc a4d1 b4bc fd2c 2abe
000003c0: 7d98 0fbe 94bc bbbd 0b38 1bbe 27bb d1bd
000003d0: 9622 edbc 907a bf3c 7db2 98bd 8df9 1abe
000003e0: eec7 95bd 6f8d 56be ad4e 66bd 0d6d 04be
000003f0: 6e5d 2bbe adf2 79bd 5c20 ae3c 61ea eabd
