policy/Himloco/policy_6_6.onnx (onnx, 978188 bytes, 14 tensors)

estimator.0.weight f4 [128, 270]
00000000: 9c96 f4ba 255b 0abd b58c 6dbe 617c 913e
00000010: fae7 debb 2690 f73d d291 8f3d 714e 5c3e
00000020: 3acb 433d d65c c3be c03c 293c dd99 81be
00000030: 81f5 d7bd c0f0 e93d a645 b3bd 3a5b 1ebf
00000040: 19ee df3d 105a 6d3e 826c 4340 c859 a43e
00000050: f223 85bd 66d6 5dbd e219 8a3c 07ed f83c
00000060: 6f32 973d fe0e 93bd 1a25 303d d796 613e
00000070: 9850 863c 0d99 4bbd 0c07 b2bf 07c7 9ebe
00000080: 3042 efbd b5b0 e93c a835 d6bc 22f8 d03c
00000090: eaf5 d3bc 49a9 dc3c ccfb 7abc 1aba 02bd
000000a0: ce35 35bd e96e 683c 4d75 a5bc c7db 6a3d
000000b0: d133 aabc 09b4 333c 077b 933c ad70 4dbd
000000c0: 75ae eabe 6283 88be 7a3f 1f3e d157 7a3c
000000d0: 1be3 7f3e fd9a 833c 3ef7 abbe a760 0c3e
000000e0: 5b8d 6bbe b669 91be d586 11bc d7f6 24be
000000f0: 2ad9 853e 53bc da3c b3d4 af3d 9397 d13f
00000100: 5124 e03d 4f0a 92be 2ce4 e23d dcda 23ba
00000110: 8a69 f8bc 7da5 5f3e dc0f e6bd 678c 563c
00000120: e58d 243e f68d 5fbc 37ef b2bd 81fe bf3e
00000130: ba4d d93c d3a7 bd3d f0a3 053d ddfd 8dbc
00000140: 0b81 433d 377e 1d3d c135 963c f2cd cc3c
00000150: 3194 113d 3f9b a33c 04a4 3fbc 4610 9b3d
00000160: 33fa a23d 4ac0 ac3d b205 a53c 5fb4 12bd
00000170: 051b b5bd 9deb f9be f2cc 69be de12 403e
00000180: e9ef 3c3b d626 073e 62a5 6738 4212 183d
00000190: d774 883d 39ed febd 93ad f7bd ee91 43be
000001a0: d87d 28be 484e be3e c882 3dbe 1220 12bd
000001b0: c8cf 3ebf 69f7 04be 26aa 99be 008f d83b
000001c0: 3542 2cbd fe06 44bc 8976 013e 5d9f c9bc
000001d0: 2518 003d 9ee3 0e3c ef56 3bbd 0925 40bd
000001e0: 27eb a13f 43ec 343e 0481 333e 37bf b9bc
000001f0: 27de 853c 36ca 303d a36e 0dbc a471 8c3c
00000200: 485d b33c b4a5 8abc 6991 e93c b3b1 9dbc
00000210: d93d af3d fd8c 943d 6060 073e 4666 023c
00000220: 7a58 b3b9 01fd c1bc 696e 5ebe 2e78 073e
00000230: 7483 9b3e 3b2f 1cbd 7625 93bd 0332 8a3d
00000240: b10e a93e c2f9 5d3d 0341 e8bd d2dc 783e
00000250: 880c 35bd 1a49 f6bd 598f 1c3e d83d 92bd
00000260: b10e 40bd dbe3 f8bf 667a 04bf 9050 7bbe
00000270: 7555 533e eb0a 97bd fae7 75bd b722 593e
00000280: 547b 1dbd e54d 183d c023 513d a928 f5bc
00000290: 618f fabb 2852 6abc d1b4 59be ce00 6abd
000002a0: 7dde 05bd ed8e a5bb 329c 4d3d fe37 48bd
000002b0: a067 6f3b 5333 9e3c b30f c8bc c8be 2eb9
000002c0: 27cb c0bc 32e2 3f3c ea75 9d3c dff6 973d
000002d0: 92f4 d3bc 59f7 ccbc 1725 0cbc 7095 35bd
000002e0: d071 a93d 03e8 89bd a705 a7bd 910d 20be
000002f0: 2647 563d 1610 2c3e fcb7 1b3d de71 5cbd
00000300: 69d2 cc3e a2eb d13c 9e01 4cbd dac5 36bd
00000310: 2f07 c33d 8c2f 1f3c 21c5 c4bf 1632 ddbe
00000320: 7ffa 65bd 2d6c 3a3e 11b3 02bd 97ce 3bbd
00000330: 1413 3c3e c83b 13bd 9c41 a53c 7953 ac3c
00000340: 7b91 123d a3b8 673c 6b5f f0be 2137 51be
00000350: 6291 c0bd e0d8 eabb 4502 77bc d448 e63c
00000360: 120a febc 61b1 98bc 3621 b13c 56f5 743c
00000370: 37ad a4bc 5fcd 9bbc 12b4 a13c abd3 693b
00000380: f037 553c fc2a ed3c 118e 6ebe 12f1 f33e
00000390: e8e1 9d3d efc6 c03c 6197 a3be d725 4fbd
000003a0: 749b 58be 523e 763d 2cb8 673e 9177 8abd
000003b0: 77a2 043e dc35 aa3e 4c33 10bd af7f 2b3e
000003c0: 62fd 8abd 960d f63d 4a2e 263d b52b 41bf
000003d0: 5f4c 1fbe 698f 94bd 76d7 b4bd 2a6b e1bb
000003e0: 7be2 00bc 6c24 593d d495 063c f211 27bc
000003f0: d65a 9abb 3a87 cb3c f055 6e3a 4a0a 95be
-0.0018660608 -0.03377833 -0.23198207 0.28415206 -0.006802556 0.12088041 0.07010235 0.21514298
0.047801234 -0.38156766 0.010329425 -0.253127 -0.10544873 0.114228725 -0.08753519 -0.6185795
0.109340854 0.23178887 3.0534978 0.32099748 -0.06500997 -0.054159544 0.016858045 0.030386461
0.07382666 -0.07180594 0.043004133 0.22030197 0.016395852 -0.049706507 -1.39084 -0.3101122
-0.11682546 0.028526643 -0.026148632 0.025508944 -0.025874097 0.02693619 -0.015318822 -0.03191576
-0.044240765 0.014186599 -0.020197535 0.057338502 -0.020776661 0.010968217 0.018003 -0.050156284
-0.45836225 -0.26662737 0.15551558 0.015279726 0.24988978 0.016065115 -0.33587068 0.13708745
-0.23003142 -0.28400964 -0.008882244 -0.16109787 0.26142246 0.026701128 0.08585491 1.6374382
0.10944427 -0.2852349 0.110786766 -0.0006250569 -0.030323762 0.21840473 -0.11233494 0.013094998
0.16069753 -0.013644686 -0.08737033 0.3749886 0.02652632 0.092605256 0.032627046 -0.017332966
0.047730487 0.038450446 0.018336179 0.025000546 0.035541717 0.019971488 -0.011696819 0.07571463
0.07957878 0.08435114 0.020144317 -0.035816547 -0.08843044 -0.4881257 -0.22832087 0.18757197
0.002882952 0.13198408 5.5228717e-05 0.037126787 0.066629104 -0.124475904 -0.120936535 -0.19098637
-0.16454256 0.371691 -0.1850692 -0.035675116 -0.745358 -0.12985004 -0.30012625 0.006608844
-0.042055327 -0.011964558 0.12642874 -0.024612123 0.031273026 0.00872126 -0.045737203 -0.04691032
1.2649888 0.17668252 0.17529684 -0.022674186 0.016341282 0.043161593 -0.008632335 0.017144032
0.021895066 -0.016924717 0.02851172 -0.019249773 0.085567184 0.07253454 0.13220358 0.007958954
-0.0003420746 -0.023680212 -0.21721806 0.13229439 0.30373728 -0.03813098 -0.071848795 0.0674782
0.3301902 0.054193266 -0.11340525 0.24302986 -0.044201404 -0.12025662 0.15289058 -0.07140702
-0.04688901 -1.9444536 -0.51749265 -0.24542451 0.20638068 -0.07375129 -0.060035683 0.21204649
-0.038447693 0.03718366 0.051059484 -0.029926615 -0.0076464866 -0.014301814 -0.21260382 -0.057129674
-0.032682884 -0.0050524385 0.050197788 -0.048881523 0.0036530271 0.019311583 -0.024421548 -0.00016665005
-0.02353437 0.011711644 0.019221265 0.07420134 -0.025873456 -0.025020288 -0.008553765 -0.044331968
0.08273661 -0.06733706 -0.08155375 -0.15630175 0.052313946 0.16803011 0.038017258 -0.05381953
0.4000428 0.025625054 -0.04980623 -0.04462228 0.095228545 0.009715926 -1.5372659 -0.43202275
-0.056147095 0.18205328 -0.031909052 -0.045851316 0.18366653 -0.035945684 0.020172887 0.021035897
0.035783272 0.014143142 -0.46947798 -0.20431186 -0.094027296 -0.007166967 -0.015076225 0.028110899
-0.031010661 -0.018639268 0.021622282 0.014951071 -0.020102127 -0.019018827 0.019739185 0.0035679142
0.013013825 0.02895116 -0.23296382 0.4764486 0.07709104 0.023532359 -0.3195143 -0.050573196
-0.2115305 0.060118027 0.2262885 -0.06761087 0.129526 0.33244216 -0.03520517 0.16747926
-0.0678661 0.1201431 0.04057149 -0.75457317 -0.15556477 -0.07253916 -0.088301584 -0.00687923
-0.007866497 0.05301325 0.008214433 -0.01019715 -0.0047105355 0.024844754 0.0009091785 -0.29109412

estimator.0.bias f4 [128]
00000000: 8ae8 d5bd 7acb 04be c465 98bd 7973 5c3d
00000010: 661d 86be 471d a5bc 32d8 98bd 7077 d8bd
00000020: d9e9 70be 258b 683d 0de0 743d 5d96 0e3f
00000030: 8a34 7dbe 95d0 923b 6b1f 4b3d 06e4 11be
00000040: 3bd1 b13e 61dc 76bd 2159 e2be 1b66 1fbf
00000050: 0f7f f5bc e948 9fbe bb8c 403b 9630 4dbe
00000060: 14e6 ee3c 6953 46be 7ff5 6a3d 09df 20be
00000070: e3e0 a8bd 8da0 a73d e0d5 c13d ec6f df3d
00000080: c535 2bbd 8670 62be 50d9 a33c a625 31be
00000090: 6c44 66be f853 083f fdd6 513d db6a 8fbd
000000a0: f7e4 e23c cb09 9c3b b046 d1bd 3be7 dabe
000000b0: 9754 f3bd 85e8 e93c f8e3 93bc 4d01 31be
000000c0: c161 bbbe 1bc3 84bd 8455 eabd 971a 7b3e
000000d0: 812a 303e 982d 9cbd ec0c 35be 8c3f 803d
000000e0: 3d02 833c 2d7f 07bc 757d 0abe 55a5 45be
000000f0: d16b a03d 8531 e3bd a22e cdbe 1c12 ecbe
00000100: 03cb 07be 6443 a5bd 2dc4 673e e135 5e3d
00000110: b621 24bd 9072 0bbd 09bb 463e 73a1 273e
00000120: fc00 07bf 3d32 cd3c 286f 923d 0ac6 8c3d
00000130: 403b 553e b7a1 623d 58d0 ffbd 744f 0ebe
00000140: f89d 68be 0b75 cabd 62bd aabe 2eb2 313e
00000150: 7415 b4bd 33a3 91be 76d5 24be 7bae 17bd
00000160: 5473 33be 9577 bc3d 1c80 6a3d 0a82 8d3e
00000170: 9ee3 05be 47e1 5f38 31f4 963c dfe7 a73e
00000180: ec6e f4bd 4dfd 9f3d aee1 d5bd e0fb a73c
00000190: 6b4f 0e3e 4f2c b43d 9e8c 843d feed 2ebe
000001a0: 2848 1ebe cb13 41c0 977c 10be e9e7 55bc
000001b0: d575 06be c504 6e3e a7af a4bc bb3c 51be
000001c0: c5be 53be 6a1b 6ebd a778 cabb d301 e8bd
000001d0: 4732 60bc 4a16 ecbd 560b f03d f954 f9bd
000001e0: 6640 06bd 2a00 2dbe ae54 a5be 6b05 96be
000001f0: bde7 07bf 7515 1c3b 4165 973e 057d 53be
-0.10444744 -0.12968245 -0.07441285 0.05382106 -0.26194304 -0.020155562 -0.07463111 -0.10569656
-0.23526706 0.056773324 0.059783984 0.55698186 -0.24727073 0.0044804313 0.04959051 -0.1424714
0.34729943 -0.060268763 -0.44208625 -0.62265176 -0.029967813 -0.31110314 0.0029380757 -0.20038065
0.029162444 -0.19367756 0.05736303 -0.15710081 -0.08246019 0.081849195 0.094646215 0.10910019
-0.041799325 -0.22113237 0.020001084 -0.17299518 -0.22487038 0.53253126 0.05123042 -0.07002803
0.02769707 0.0047619096 -0.10218561 -0.4275454 -0.118813686 0.028553257 -0.01805304 -0.17285652
-0.36598018 -0.06482526 -0.11442092 0.24521862 0.17203714 -0.07625884 -0.1768071 0.062621206
0.015992278 -0.008270067 -0.1352442 -0.1930135 0.07833064 -0.110934295 -0.4007464 -0.46107566
-0.13261037 -0.08069494 0.22633429 0.0542506 -0.04007121 -0.034044802 0.19407286 0.16370182
-0.5273588 0.02504837 0.071501076 0.068737105 0.20823383 0.055330005 -0.1249091 -0.13897496
-0.2271651 -0.098856054 -0.33347613 0.17353126 -0.08793154 -0.28444824 -0.16097054 -0.037031632
-0.17524463 0.09202496 0.05725108 0.27638274 -0.1307511 5.337715e-05 0.018426986 0.3279409
-0.11935219 0.07811985 -0.104434356 0.020505846 0.13897483 0.08797514 0.06472133 -0.17082974
-0.15457213 -3.016833 -0.14110027 -0.01305578 -0.13130887 0.23244007 -0.020103289 -0.20433323
-0.20678242 -0.058131613 -0.0061789337 -0.11328473 -0.013683862 -0.11527689 0.11720912 -0.121744104
-0.03277626 -0.16894594 -0.32291168 -0.2930101 -0.5308798 0.00238165 0.29569438 -0.2065316

estimator.2.weight f4 [64, 128]
00000000: 3ac5 b4bc 347c c43d cca7 fcbe 11f7 8e3d
00000010: 6286 e93d c71f 55be fbb0 0abe bafe 04bd
00000020: 66e8 47bd cbbb 08be 423e a4bc 4f9e 743e
00000030: ecb0 853d 1836 3a3c 0cfe 883d ae78 9a3d
00000040: ec19 dbbb 74f5 393c 805c 67be ea07 c33d
00000050: 2d7d 843d bc29 0a3e b9ea 2ebe 0c87 a53e
00000060: 805d 15bb d02e 1f3e c6b3 343d 1c48 263b
00000070: a985 a8bd 063f 51be 5d0b 4b3d 51d9 5b3e
00000080: d394 a1bd df32 91ba 1b42 a0bd 0fc9 093f
00000090: 99d4 fabc 9dcd 323d 42d8 12bd bb9b 8f3e
000000a0: e938 473e 5a64 d93d 5cc4 42be 4183 683d
000000b0: 56e0 93bc 97ea b8be 44e1 573d 98f5 033d
000000c0: 9b79 043d 5bfa 05be 44db ee3e 24ec 6b3d
000000d0: a5db 253e 928d 34bd 318a afbc 99b4 e0bd
000000e0: d36f 7cbc 9f43 3c3d fde1 873c e11e 0bbd
000000f0: 04e0 8dbd 31b5 1f3e d574 933c 3e1e 84be
00000100: c623 cf3b 8341 353e 0fe0 5ebe 3a88 a43d
00000110: f916 023f 6f74 433f 70dc 633e 8cef 1e3e
00000120: d095 c4bd ea86 eebc 71a7 25be 6f19 95ba
00000130: 3444 863d d5f8 943a 9f43 d6bc 547c b73d
00000140: 83e6 72bd 3edb 36bd e5bb 573d 0b1c ee3b
00000150: 23c5 de3d fcbd b43b 8d9c c1bd c9a5 603c
00000160: 11f7 b03e 5195 563f 2003 f33d ac94 00bc
00000170: 8b1b ad3d 5ba8 013f 6f0d e83d ae6d 17bd
00000180: cc04 c53d 7230 b0bd 1d63 33bd ab9c 69bd
00000190: 3be4 0ebb 8e2e 443d 7a7e 053e 4882 b03e
000001a0: 3e89 073f b197 be3d a352 2a3f f4a5 17be
000001b0: b6ea 04bd 9d90 8bbc 81f7 653e c415 243d
000001c0: 69f5 3cbd 76ff 863d 41f8 55bc e099 5fbd
000001d0: 227d 823d ec9e 98bd f38b 4f3e 16f8 9abc
000001e0: f155 fe3b 6239 1fbc 3f6c b43c e14c b9ba
000001f0: 2a89 23be dd95 72bb da15 8ebd 7466 51be
00000200: 30ec 0f3e 1d34 04be b2b8 ab3e 1704 2c3f
00000210: 718d 043f 0c0c 50bf d495 423f bc31 e33e
00000220: 1223 66bf f69b 243f de98 60be 8138 c0bc
00000230: 8263 cabd 138f 53be 8d05 9e3b 11db 2abe
00000240: b16c a83e f63c 103f 4ba6 9d3d 280d 4f3f
00000250: ed38 52bf 63a6 423f 19ce 303f 7875 be3c
00000260: 8273 da3e 3b74 4abf ad51 dbbe d1dd 3fbd
00000270: 0434 ccbd 7768 b63d 6d9f 693e 0e18 963e
00000280: 2ea6 293d a609 af3c 405a 703d ce1d 963e
00000290: cd15 513f c3ac 7e3e f2fa 2e3d 7752 efbc
000002a0: 41c1 3fbe 9816 f63e 5625 393e 487a 523f
000002b0: 5698 a23e b5a1 57bf 22b7 ad3e 04dd 973c
000002c0: 4950 213f 6b8e cbbd 8f4f 7b3e dd58 f83e
000002d0: dd10 f83e 967d 663e a560 043f d38f acbe
000002e0: 92b9 4f3c 0959 94be f399 33be bb84 2a3d
000002f0: 83a7 443f a30e 75be b5ae 443e 38b3 e53c
00000300: f7f3 b8ba 144c 273d 91e3 dbbd 16e1 5dbf
00000310: a5c1 533d a566 d63d 87f9 0b3e 7417 fdbe
00000320: 2812 393f 1f91 363f 66ca 993d 498a 9d3e
00000330: bfb6 91bd 929c 71bd 9521 7abe 39b9 81be
00000340: d066 a1bd 69d5 12bc ce45 883e a454 143e
00000350: 629c 393f 4e47 563e df34 95be 4a02 8cbe
00000360: 4410 aebd 1f6d aebe 9965 1d3f 52fd f63c
00000370: e1b3 42bd 56c0 5ebe 9aee 863e 4377 f7bd
00000380: 9474 a73d a914 3cbd dddb 56be aa50 25bd
00000390: e12e cc3d d6e3 dc3e 6dfd a93e c757 243f
000003a0: a15b c53d b0e1 fd3e 9021 9dbd 7182 2c3f
000003b0: 5488 bcbd 3424 40bb 81af a1be e4c1 7bbd
000003c0: 9aef 78bf 0510 f13e 15e4 63bf f9b8 8fbe
000003d0: 25ff f33e b482 10bf 355d 3cbe cd27 8fbc
000003e0: ad72 0b3e 45ca 033f 164e 4abd 4c6b e0bb
000003f0: 056d 013e 2a49 023f f077 743e 709c 66be
-0.022066701 0.09594002 -0.4934677 0.06980718 0.114025846 -0.20812903 -0.13544075 -0.03246949
-0.048805617 -0.13352887 -0.020049218 0.23888515 0.06527886 0.011365436 0.066890806 0.07542549
-0.0066864397 0.0113500245 -0.2259388 0.09522994 0.06469188 0.13492483 -0.17081727 0.32329595
-0.0022791326 0.15545201 0.044116758 0.002537257 -0.08228619 -0.20434198 0.049571384 0.21469618
-0.07889714 -0.0011077783 -0.078251086 0.53822416 -0.030618953 0.04365312 -0.03585077 0.280485
0.19455303 0.10614844 -0.19020218 0.0567658 -0.018051308 -0.36116478 0.052705064 0.03221664
0.032342535 -0.13083784 0.4665166 0.057598248 0.16197069 -0.044080324 -0.0214282 -0.10971946
-0.01540752 0.045962926 0.016587252 -0.033964995 -0.06927493 0.15596463 0.018000046 -0.25804323
0.006321403 0.17700772 -0.21765159 0.08033796 0.50816303 0.7634954 0.22252059 0.15521067
-0.09598887 -0.029117066 -0.16177155 -0.0011375378 0.065559775 0.0011365662 -0.026155291 0.089592606
-0.059301864 -0.04464268 0.052669425 0.0072665266 0.108774446 0.005515812 -0.09453688 0.013711401
0.34563497 0.8382159 0.118658304 -0.007847946 0.08452519 0.50647515 0.11330687 -0.036969833
0.096200556 -0.0860299 -0.043795694 -0.057034176 -0.0021803516 0.04789596 0.13036528 0.34474397
0.5294379 0.093062766 0.66532344 -0.148094 -0.0324504 -0.01703673 0.22457696 0.04005982
-0.04613248 0.06591694 -0.013059677 -0.054590106 0.063715234 -0.07452187 0.2026823 -0.018917125
0.00776171 -0.009718271 0.022024272 -0.0014137292 -0.15970293 -0.0037015595 -0.069377616 -0.20449239
0.14054942 -0.12910505 0.3353935 0.6719374 0.5177832 -0.8126838 0.7600987 0.44373882
-0.89897263 0.6430048 -0.21933314 -0.023464443 -0.09882261 -0.20660047 0.004822439 -0.1668513
0.32895425 0.5634302 0.076977335 0.8087945 -0.8211811 0.76035136 0.6906448 0.023249373
0.4266625 -0.79083604 -0.4283575 -0.0468424 -0.09970859 0.08906644 0.22814722 0.29315227
0.041418247 0.021366905 0.05867982 0.29319614 0.8167389 0.24870591 0.04271979 -0.029214127
-0.18726064 0.48064113 0.18080649 0.82217836 0.31756848 -0.8423112 0.33928782 0.018538006
0.6301313 -0.099392734 0.24542068 0.48505297 0.48450366 0.22508845 0.5170997 -0.3370348
0.012678521 -0.28974178 -0.17539196 0.041630488 0.768181 -0.23931365 0.1920727 0.02803956
-0.0014110793 0.040844038 -0.10736764 -0.8667158 0.051698346 0.10468797 0.13669406 -0.49431956
0.7229333 0.7131519 0.075093076 0.30769566 -0.07114934 -0.058987208 -0.24426873 -0.25336626
-0.07880938 -0.008962014 0.26615757 0.14485413 0.72504246 0.20925638 -0.291419 -0.27345496
-0.08499196 -0.34067628 0.6148315 0.03015009 -0.047534827 -0.21753058 0.26353914 -0.12083294
0.081765324 -0.04591814 -0.20982309 -0.04036013 0.09969879 0.43142575 0.3320116 0.6419644
0.096366175 0.49586248 -0.07672417 0.6738654 -0.0920569 -0.0029318454 -0.3157921 -0.061464205
-0.972406 0.47082534 -0.890199 -0.2807081 0.47655597 -0.5644944 -0.1839493 -0.017475033
0.13617964 0.51480514 -0.049390875 -0.0068487283 0.12639244 0.5089289 0.23873878 -0.22520614

estimator.2.bias f4 [64]
00000000: 8b32 24bb 26d2 603d 352c aa3c 5f36 99bd
00000010: 1dbe 363b f88a a33d 3294 84bd ca31 b6bc
00000020: 80f9 fbbd 0199 623d 8e77 6fbe 4a8a 9e3c
00000030: 9472 c5be 5997 43be 37d3 f6bd 1d50 67bd
00000040: 6afb ca3d 4900 d13d fc12 e13d 4663 45bc
00000050: 3069 243e 0457 033d d03e 02bf b000 5c3c
00000060: 39b5 73be 1e94 803b 27e8 09be 6da7 1dbe
00000070: 0fcc f83b 724d 62bc d650 02be 2234 11be
00000080: e4b1 3e3e cf57 bbbc a325 213d 4dea d13c
00000090: b23f e1bd bcef 1cbc 4feb 46be 60a9 bc3d
000000a0: 611b b3bd 49a4 87bd ad9e 21be 6501 55bd
000000b0: 2a69 45bd 4675 73bd cbd0 64bd a98d 45bd
000000c0: 52df 0abd 966e 4c3b 5c22 e6bd fdc7 d3bc
000000d0: 00da f4bd 6a50 d9bd d74b c83d d30b 08be
000000e0: 780b 653c 682b c2bd 1ff2 ecbc f967 7abd
000000f0: 90ea f3bc 4e97 a63d c83d 04be 8342 a0bd
-0.002505454 0.054887913 0.020773033 -0.074810736 0.0027884312 0.079854906 -0.064735785 -0.022240538
-0.12303448 0.055321697 -0.2338545 0.01935305 -0.3856398 -0.19100703 -0.12052005 -0.056472886
0.09911235 0.102051325 0.10989949 -0.012047594 0.16055751 0.032065406 -0.50877094 0.013427898
-0.237996 0.003923907 -0.13467465 -0.15395899 0.007592685 -0.01381241 -0.12726149 -0.14180043
0.18622547 -0.022869019 0.039342534 0.025624419 -0.10998477 -0.0095786415 -0.194257 0.09211993
-0.087454565 -0.06623132 -0.15783186 -0.052003283 -0.048195995 -0.059438013 -0.055863183 -0.0482308
-0.03390438 0.0031193844 -0.11237022 -0.025852198 -0.11955643 -0.10611041 0.0978009 -0.1328576
0.013979785 -0.09480935 -0.028924046 -0.061134312 -0.029774934 0.08134328 -0.12914193 -0.07825186

estimator.4.weight f4 [19, 64]
00000000: dd88 bebd 920f 4cbf 0c22 7bbe 8f15 32be
00000010: 3f82 a2be 4a17 e13c 284c 02bf 22da fbbe
00000020: b8b8 25bd a845 1fbf 63d2 5f3d c693 133f
00000030: 1d54 dc3e cd4d bfbe 941b 053f d9e4 e23e
00000040: 44bd 8cbe cd6d 5dbe 1520 92bd 9c63 b93e
00000050: 5fd5 35bf 9eb0 41be b03a 03be 255c 10be
00000060: 2f3e 88be de22 f73c 895b c4bd 795a 833d
00000070: 4048 b83e 1e1e b9bb 1e1c 4d3f 47c5 093d
00000080: 9abb 75be 0b4d b23e d146 563f 499f 253f
00000090: 6497 bfbe ee4b 89bd dc4e bd3e 1ee7 bebe
000000a0: 6671 0e3e 9405 1d3f 5a7a 8cbc 55bb 8dbe
000000b0: 96d0 113f be30 013e da59 e23e 798e a1be
000000c0: 5c25 0cbf b2b1 55bc 5dce 513e b047 b23e
000000d0: 546d b23e 797c 2ebf eafb 45bf c338 983e
000000e0: 9b5b 7f3d ca5f 7c3e 34ac 453e 6563 ce3e
000000f0: 6db8 863e 5675 aa3c 495f 83be 2215 8ebe
00000100: 58c9 d43e f097 643d af3c 07be 8518 f53c
00000110: 8672 8abe 8e50 8dbe 8ed9 dbbe 5b8d 6b3e
00000120: 86d0 a13e 0aee 0c3d 368e 1dbf c6a8 d03e
00000130: dbbd 9fbd 1f85 b53e db47 3e3e ba70 3bbe
00000140: 8885 573e 3c8d 6b3e b6ba 8a3e 1e7b ffbc
00000150: 7467 803d 64bd a5be 8a4e 193f 721e 623c
00000160: cf29 fa3e ab0a 213e bb23 f4be d900 c8be
00000170: b6c6 0dbf 3f05 b8be d12b 81bd 5662 233f
00000180: dd85 4a3e 28c7 6dbe 366b e6bd a667 903e
00000190: a09a f53d bd2e c83c 2e32 71bd 6cf4 71be
000001a0: 997a c23e 3056 233e 9013 89be 31a2 643d
000001b0: 63d5 083e b1bd 9dbc cbee 013b 4539 58bd
000001c0: 5a4f 02be 7058 0c3e aad1 6a3c 82ac 273c
000001d0: b111 14bf 0d05 cbbe 0bf6 8abd c875 923e
000001e0: 4b66 143e ac8e b1bd e1df 193f d4a4 d4bc
000001f0: 6205 b0bc b3ab 23be f179 83be e73d 953e
00000200: 7aa0 febe 0d1c c2bd 1ce4 ebbd b0ac d6be
00000210: 8b09 04bf 9e90 a13e 9c7b b53e b7ab 40be
00000220: 4c92 cfbd 412c 56be 53b6 ebbc 019e 183b
00000230: 5de2 133c 8326 463e 6829 41be e83e 283f
00000240: ffef 703e ac7d 5dbe 46b4 7abe f131 883e
00000250: 106c 69bc b439 2d3e 1339 d7bd 5288 02bf
00000260: 4fe9 763e 1859 4fbe ccfd b93e 401c 3cbe
00000270: 40a2 093e a4c8 5cbe e43c 5d3e fb8b b0bd
00000280: 8091 e33e b68a 043e 18e1 a63d 4591 f53e
00000290: d1be fb3d e06a 3abf 6854 df3d 7cea b1bd
000002a0: 5055 5ebe 3ad4 ea3b 3150 c1bd 4adb 36bf
000002b0: 32ef 083f b729 063f 9023 85be 8e55 a4be
000002c0: 5cfc cb3d 51ee 113f ae5c 6abe d1aa 233f
000002d0: 8424 263c 3670 a53d b3cd 49bb d853 29be
000002e0: 3f45 193f b21e 25be 0bef febd fb0f b6be
000002f0: 9860 a8be 3eb1 1fbf 16d4 cb3d a002 353f
00000300: 4e2e 9fbe 7efd c7bd 231f e9be 9804 4b3d
00000310: 7e47 bdbe e168 aebe 50bf 1a3e 92fb 183e
00000320: ef9b 18bf d38d ad3e bb26 843e b07e 313e
00000330: ce6a f13e 7875 d93e 6e5f 463f 6384 d2be
00000340: 41bd a2be f73e 93be 8fbf f4be 7182 0d3b
00000350: 54f8 aabe f42e 9dbe 5d4a 2c3e 3f20 c43e
00000360: b66a b73e 3099 16bf 033e c03e e906 82be
00000370: 7b7c 7fbe c512 893e e3ba 163f 2caf 553e
00000380: e855 0cbe 94c6 3e3e 6f21 133f 599f 85be
00000390: eef0 093e afba 253f 35e6 6e3f eed0 e0bd
000003a0: 6a3b 25be f390 8e3d 91ba 14be 8544 b5bc
000003b0: bb25 84be 449c 30be 5328 523f d40e 9dbd
000003c0: 6f79 84bf 7fbc 6cbe 42ba 76be 5cac 46bf
000003d0: d36a a4be 8c0e 36bd 298e 15be 9de2 57be
000003e0: 2699 8dbd 566a 52be cda9 4c3f eaef a1be
000003f0: 7b7b f1be b92d 16bf b110 903e aad7 0ebf
-0.09303448 -0.7971126 -0.24524707 -0.17391036 -0.31739995 0.027476925 -0.50897455 -0.4918986
-0.040459365 -0.6221566 0.054644 0.5764736 0.43032923 -0.37364045 0.51995206 0.44315222
-0.27488148 -0.21623917 -0.071350254 0.36208808 -0.71028703 -0.1891503 -0.12815356 -0.1409765
-0.26609942 0.030167993 -0.095877714 0.06413741 0.35992622 -0.005649342 0.8012103 0.033635404
-0.23997346 0.34824404 0.8370181 0.64696175 -0.3742019 -0.067039356 0.36974227 -0.37285703
0.13910446 0.61336637 -0.017148186 -0.27681985 0.569589 0.1261625 0.44209176 -0.3155401
-0.54744506 -0.013042854 0.20488878 0.34820318 0.34849036 -0.6815868 -0.77337515 0.29730806
0.06234322 0.24645916 0.19303972 0.40310207 0.2631258 0.020807903 -0.25658634 -0.27750498
0.41559863 0.05580896 -0.13206743 0.029918918 -0.270405 -0.2760052 -0.4293942 0.23003142
0.31604403 0.0344067 -0.6154512 0.40753764 -0.07799884 0.35453126 0.18582098 -0.1830472
0.21047032 0.23003095 0.27095574 -0.031186637 0.06269732 -0.32371056 0.59885466 0.013801204
0.48860022 0.15726726 -0.4768351 -0.39063147 -0.55381334 -0.35941502 -0.063071854 0.63821924
0.19777627 -0.23220503 -0.112509176 0.28204077 0.11992383 0.024436349 -0.058885746 -0.23628396
0.3798416 0.15950847 -0.26772738 0.05581874 0.1336265 -0.019255491 0.001982617 -0.05278899
-0.12725583 0.13705611 0.014332214 0.010234 -0.57839495 -0.3965229 -0.0678521 0.28605485
0.14492147 -0.086697906 0.6010724 -0.025957502 -0.021486942 -0.15983467 -0.2567897 0.2914879
-0.4973181 -0.094780065 -0.11518118 -0.41928625 -0.5157706 0.31555647 0.3544587 -0.18815504
-0.10135326 -0.20915319 -0.028773462 0.0023287537 0.009026137 0.19350629 -0.18863451 0.6572099
0.23529051 -0.21629971 -0.24482831 0.26600602 -0.0142469555 0.16916543 -0.10508933 -0.5098926
0.24112438 -0.2024883 0.36326444 -0.18370152 0.134408 -0.21560913 0.21605259 -0.08620449
0.44446945 0.12943539 0.08148402 0.47962394 0.12292255 -0.7281933 0.10904771 -0.086873025
-0.21712232 0.0071664127 -0.094391234 -0.7142836 0.53489983 0.524074 -0.26003695 -0.32096523
0.09960243 0.57004267 -0.22886917 0.6393252 0.010140542 0.08078043 -0.0030792772 -0.1653589
0.59871286 -0.1612499 -0.124479376 -0.35559067 -0.32886195 -0.62379825 0.099525616 0.7070713
-0.31090015 -0.09765147 -0.45531568 0.049564928 -0.36968607 -0.3406439 0.15112042 0.14939716
-0.59612936 0.33897266 0.258108 0.17333484 0.47151798 0.42472434 0.77489364 -0.41116628
-0.31785014 -0.28758976 -0.47802398 0.0021592642 -0.33392584 -0.30699885 0.16825242 0.38305852
0.358236 -0.58827496 0.3754731 -0.25395897 -0.2494983 0.26772133 0.58878917 0.20867604
-0.13704646 0.18630439 0.5747289 -0.26098135 0.13470814 0.6473798 0.9332002 -0.1097735
-0.16135946 0.069612406 -0.14524294 -0.0221274 -0.25810036 -0.1724711 0.8209278 -0.07668844
-1.0349559 -0.2311878 -0.24094489 -0.7760675 -0.3211275 -0.044447467 -0.14605011 -0.2108254
-0.06913976 -0.20548376 0.79946595 -0.31628352 -0.4716452 -0.5866352 0.28137735 -0.5579783

estimator.4.bias f4 [19]
00000000: 6cb8 a53d c843 e9bd 51f4 293d 6d11 63bf
00000010: 8457 69bf cd5f 4ebf 9961 54bf dacc 663f
00000020: f32f 723f 8c1c 4c3f d495 603f 2283 6abf
00000030: b51a 743f e697 4bbf 8a5e 783f a7ad 633f
00000040: 241e 5ebf 1585 63bf 99d6 643f
0.08091816 -0.11389881 0.041492764 -0.88698465 -0.91149163 -0.8061493 -0.8296142 0.9015633
0.94604415 0.7973106 0.8772862 -0.9160634 0.9535325 -0.79528654 0.97019255 0.8893685
-0.8676474 -0.8887494 0.8938995

actor.0.weight f4 [512, 64]
00000000: ba6d 99bd 03bb 83bd da8c a53e 076e 823e
00000010: 8df0 283e b373 973d cd73 e33e 1a67 1fbe
00000020: 7113 a73e 7b0c d3be bd2b 8abc a1ea 433d
00000030: 43be d9be 1832 8f3d 3262 b7be 010e bd3e
00000040: 6c58 febd 25b0 9dbd 5f5b f5bd 7451 293e
00000050: 685a 84be 7ebe d3bd fb3c a6be 9f11 ac3d
00000060: 9ea1 0ebb 7e6b a73e 1f09 0d3e b153 f03c
00000070: caaf 833d 92c6 54bd 72f2 91bd 98b1 bf3d
00000080: ae65 e0bd c226 f2bc 7d68 053e 3c85 e33d
00000090: 450f 943d 1d7e 3bbd f508 493d 97be aebc
000000a0: 9fba 44bc f05c 383d 27f3 993c 4ec7 12bc
000000b0: 98c4 583d 293c f73d 71d1 8d3c 17be 253e
000000c0: c5b5 b4bd 0d39 d9bd 6fea 6d3d c6ee fdbd
000000d0: 9d66 983a 10f0 49bd 64eb 20be 3485 7bbd
000000e0: 4cd3 393e 9e41 a33d 0fcf 3abd 0508 d23c
000000f0: 9aef cabd 58b9 d73d 3c3a 32bd 76cf abbc
00000100: f34e 4ebc fc08 653d 7fa1 8fbd 90bb a33e
00000110: ec2f c2bd ae00 48bf 5484 473e d735 40bf
00000120: 69df aa3d 6999 c6be 00dc db3d dd4b 2ebe
00000130: 9f28 613e 3d39 a839 eb4e a1be 9ee4 5c3b
00000140: 7c3c 7bbe c35d 30bc bf22 263e 926f 8bbe
00000150: 8e0f 1ebd 4359 9dbe fd8d e33d aaa9 4e3c
00000160: f40b 5dbf 7ff7 a53e e8a8 debd b598 973d
00000170: 3122 7c3d 1218 a03c a531 7f3d 7ebb 65bd
00000180: a499 84be 5730 413d ad75 1f3c 206e 50bd
00000190: 3f51 203e d915 3abd c8e7 0ebd 9656 33bd
000001a0: caef bbbd 836a 2ebd c585 fa3d 01e2 d8bd
000001b0: 12f2 723c 8fc8 05be e973 ecbd 57da 10bf
000001c0: 650b 273b e203 11bd 423c 12bd 3730 7fbd
000001d0: e3a8 4f3d 5a5b 11bd 8e2a 91bd 5e63 06bd
000001e0: 52c4 213e 84f8 febc f1d1 e43d 5cb8 203d
000001f0: a123 983d f64f 293e 1962 8abc c912 b63d
00000200: 7fd4 c3bd 1fec b7be 8540 ac3f 045e 973e
00000210: 6b8e f0bd 70b0 e93e 49a2 b1be 6902 683e
00000220: 9bbc a3bd c385 3c3e d6fb a4bd 5002 283e
00000230: fb0f 81ba dd2b 07be c77d 92bd 751d bdbe
00000240: bb93 89bd eb7a a5be 3471 3d3e 93be 1dbf
00000250: cd2c 02bd cbea 12be ddab 32be 8a69 16b9
00000260: 3bc2 81be 2e0c cdbd 3984 60be 3a46 2abe
00000270: 5f06 89be 71cb d2be b09a 78bd 1ea6 173c
00000280: 9fb3 96bc 8d82 fd3d 8042 ddbc bad9 bfbc
00000290: 9c52 333d 6ef2 b0bc c50a b33d dc83 f3bc
000002a0: 966f a8b8 e543 5bbd 71b4 afbc 6ab2 093d
000002b0: 90cd 00bd 495b 03be c668 983d 8079 693e
000002c0: e366 d53c c941 1fbc a69d ab3d ceef 233d
000002d0: 2e37 08be 6770 a8bd f62a bebd c600 07bd
000002e0: 5e57 e3bc 3239 1f3d b809 bf3d 74c4 cfbd
000002f0: 4b5a 83bb ccb6 353d 718e 3bbd 3ef4 a6bc
00000300: 50c2 a83e 6bc2 eebd d168 893e 5381 e0bd
00000310: ae7d b03d fca7 e3bd d607 4c3f 754c 1e3c
00000320: 75c5 333e 17d4 ef3d 31c1 c0be d4dd dc3e
00000330: 3908 68be 4f45 56be 3fb4 16be dd6a 1c3e
00000340: 9992 2d3e cac6 833e d4e5 983e 7c58 253d
00000350: 3496 123d 19c4 d93e 8305 16be 72c9 60bc
00000360: 08fe 00bd ad98 21be 673f 9d3d b0ec 69be
00000370: f9d7 31be efa9 803e 4172 4f3e bc96 733e
00000380: d42e 32be cbb9 a2bd ce2e d63d 85ed 8bbd
00000390: c70b 2e3c b44e 25bd 871c b4bc 6dda 2abd
000003a0: 763f dbbc a2ce 093d 2e12 683d 6821 a9bb
000003b0: e593 683d 2bd1 09be cc09 2e3d 4ad6 463e
000003c0: 04f1 9a3d 3284 e93d c196 9f3d 03e7 303e
000003d0: 0c4d c6bd fb29 053d a7c3 cfbc a3e8 483d
000003e0: 887d 333d 414f 0fbd e415 3f3d d25e 8cbd
000003f0: ce7f bb38 70c9 2a3d 1580 1e3e bfd9 82bd
-0.07491632 -0.06432154 0.32334024 0.2547457 0.16498013 0.07395115 0.44424286 -0.15566674
0.3263202 -0.4122046 -0.01686656 0.04783118 -0.4252797 0.069919765 -0.35817105 0.36924747
-0.12419209 -0.076996125 -0.11980318 0.16534978 -0.25850224 -0.10339068 -0.324684 0.084017985
-0.0021763812 0.32699198 0.1377301 0.029336782 0.064300135 -0.051947184 -0.07126321 0.09360045
-0.10956894 -0.029559497 0.1302814 0.11109397 0.07229475 -0.045774568 0.049080808 -0.021331115
-0.012007385 0.045010507 0.018792702 -0.008958651 0.05292186 0.120720215 0.017311784 0.16185795
-0.08823732 -0.10606585 0.0580849 -0.12399058 0.0011627261 -0.049301207 -0.15714794 -0.06140633
0.1814701 0.079715 -0.045607623 0.02563859 -0.099089816 0.105333984 -0.043512568 -0.020972949
-0.012592065 0.05591677 -0.07013225 0.31979036 -0.094817966 -0.7812604 0.19484073 -0.75082153
0.08343393 -0.38788918 0.10735321 -0.17021127 0.21988152 0.00032086103 -0.31505522 0.0033705602
-0.24534792 -0.010764542 0.16224192 -0.2723356 -0.038589053 -0.30732164 0.111110665 0.012613693
-0.86346364 0.32415387 -0.1087206 0.074021734 0.061556045 0.019542728 0.062303204 -0.05608701
-0.25898468 0.04716524 0.009732646 -0.050886273 0.15655993 -0.04543099 -0.034889013 -0.043783747
-0.091765955 -0.042582046 0.12232546 -0.10589982 0.014828222 -0.13064788 -0.115455456 -0.5658316
0.002548897 -0.035404094 -0.035701998 -0.06230184 0.050698172 -0.03548751 -0.07088195 -0.032809608
0.15797547 -0.03112436 0.11172856 0.03923832 0.07428671 0.16534409 -0.01689248 0.08890302
-0.09562015 -0.35922334 1.345719 0.29563916 -0.11745914 0.45642424 -0.34694126 0.2265717
-0.07994958 0.18410401 -0.080558464 0.16407132 -0.0009846681 -0.13200326 -0.071528964 -0.36936536
-0.067176305 -0.3232034 0.18500215 -0.6161892 -0.031781007 -0.14347379 -0.17448373 -0.00014344431
-0.253435 -0.10012089 -0.21925439 -0.16628352 -0.26762673 -0.41170838 -0.060694396 0.009255914
-0.018396197 0.12378416 -0.027009249 -0.02341925 0.043779954 -0.021599974 0.087422885 -0.029725961
-8.031649e-05 -0.053531546 -0.021448346 0.033617415 -0.03144604 -0.12827791 0.07441859 0.22800255
0.026050037 -0.009720274 0.083796784 0.040023617 -0.133023 -0.08224564 -0.09285538 -0.032959722
-0.02775162 0.038872905 0.093280256 -0.10144892 -0.0040085665 0.04436378 -0.04579014 -0.020380136
0.3296075 -0.11658176 0.2683778 -0.10962167 0.086177215 -0.11116025 0.79699457 0.009661783
0.17555793 0.11710375 -0.37647393 0.4313799 -0.22659387 -0.20924877 -0.14717196 0.1527514
0.16950454 0.25737602 0.29862845 0.04036759 0.035787776 0.42532423 -0.1465054 -0.013719903
-0.031492263 -0.15780897 0.07678109 -0.22844195 -0.17367543 0.2512965 0.20258428 0.2378797
-0.17400676 -0.079455934 0.10458146 -0.06832413 0.010622925 -0.04035826 -0.02198626 -0.041712213
-0.026763659 0.033644326 0.056657963 -0.005161453 0.05678167 -0.13458697 0.04248981 0.19417682
0.07565501 0.114021674 0.07792426 0.17275624 -0.09682664 0.03251074 -0.025361849 0.049049985
0.043820888 -0.03498769 0.046651736 -0.06854023 8.94066e-05 0.041696012 0.15478547 -0.06389188

actor.0.bias f4 [512]
00000000: 6243 d7bd 6a1f bdbd 1032 3ebe f20a bdbd
00000010: 3abe 863d 6115 49be 4ef3 3f3d c7f0 76bd
00000020: c26a f7bc 242d abbd 50b7 a2bc d6c7 183e
00000030: 0ccf 2bbe c45f 10be e1a9 b2bd c021 d23d
00000040: 6065 39be d2ec 7cbe 140f 2d3d ffb2 e73c
00000050: 11e1 0bbd 19cc ad3c e7cc 713d deb1 e03b
00000060: 4fa4 5fbd 6f34 6cbd f89f 223d 8e68 523d
00000070: b313 a5bc 7dd1 af3d e728 2d3d 2693 a13d
00000080: 42c1 e7bb 4e3c 1dbe 1ea2 4a3e a40a ff3d
00000090: 5e78 3b3c f899 89bd 440d 9f3a b464 963c
000000a0: 887c 28be 1cec b13d 7260 31be dcdc 48be
000000b0: f3be 533c bbde 06bd a2a0 60be 2578 74be
000000c0: 9456 6cbe d1f5 32be 3ac3 0abc 9dca b2bd
000000d0: ab3d 123c 4030 5e3d b05c de3d 594c 63be
000000e0: 3801 49bd 6294 993d fb87 ecbd 9271 7dbd
000000f0: 71d1 bd3d 5f10 1abd 17f4 033d 10db 49bd
00000100: 9c59 323d 3029 563d 426a 20be 644e e5bd
00000110: 6059 f63c 4557 ff3d 7982 a43d ed02 1f3d
00000120: 785c 973d 3cb0 4fbe 6c6d ab3d 906c 17be
00000130: bc75 c93c 5b91 33bd 7b04 d3bd 6fad 5e3d
00000140: f066 04bd 324b 55be 7bb7 e23c 0cd4 573d
00000150: 2f48 34bd c403 123d 37b3 533d 900a aa3d
00000160: 57c8 fdbd 042b 35be e4c6 c53b 2c8a 24be
00000170: 1de4 ca3b 8a3f f7bd fff0 89be c78f 8c3d
00000180: a38f 2b3d fddc 743d eee4 01be 5a18 a23d
00000190: e370 58be 99d3 993b 9e17 8abd 856e c8bb
000001a0: 044f f23d 9ac3 4fbe 61ae d7bd 6413 873d
000001b0: bd7e 993d e941 ce3b eb83 8f3d c102 7f3d
000001c0: 5ce2 07bc f6b6 a83d 23b2 88be eece 16be
000001d0: b572 1bbe a6ea d43d 88c2 0dbe 0488 973b
000001e0: 09db 303e f799 663e c9f5 9e3d c81e 063e
000001f0: 7e10 90bd 6a96 16bd b602 13be 19e1 103e
00000200: 6430 e3bd dfc5 8b3d 847f 53bc c274 58bd
00000210: 6cb6 22bd 4407 433d d6d4 543e 3f46 263d
00000220: 647f a2bc 6d9f cabc 243e cebd 5022 ac3d
00000230: 8418 9c3d 6c14 883d 3862 a43c 6ea5 cc3d
00000240: 5c35 4ebe e2a1 e1bd 223e 0dbe 2dfc 6dbd
00000250: 8447 e83d 31b4 503c 316a dfbd eb2b aa3c
00000260: 1c2f 06be 92bc 2b3e 03b0 5f3d f7b5 45bd
00000270: 79fd 79be e906 14be d398 8fbc 9ab3 7c3e
00000280: 70b6 a13d bcc0 993d a612 13be 7c4d 14be
00000290: 2436 67bd 5c9e f0bd e099 6e3d dbed 9b3d
000002a0: b970 2dbd 4b2d 19bd 0ac9 b13d 3d0a aa3d
000002b0: f005 f73d 6ff0 32be c92b 94bd 87e5 a03c
000002c0: 3a0a f3bc 37a9 49be 95d9 d4bc 2955 0f3e
000002d0: caee 353d aa9e 09bd 3799 debd 02d2 3e3c
000002e0: ba8d d6bd acb3 083e 2d43 cabd c843 03be
000002f0: e54c 0a3e 63a3 523c bd75 f5bd 657e a6be
00000300: e00d 9fbd d880 133a 970e 913c f583 8e3d
00000310: 7415 00be 8195 083e 0a23 76be 7588 34bd
00000320: f083 d1bb 5b47 6fbe 789a efbd 1d2a 3dbe
00000330: 85ba 17bd 8ecd b3bd c1ce 25be 6ac2 febd
00000340: 68b8 a13c d21a 2b3d 1d24 1abe f3c2 91bc
00000350: 1b00 46be a787 80bb e84c 823d c2c2 c4bc
00000360: 3a8d 01be d87f 273e e9e5 e8bd 87cb 0e3e
00000370: ac2e 7a3c bf43 223e c11a 133e d04d 25be
00000380: 0d47 51bd 0c4e 04be 29ad c43b 76af 98bd
00000390: b025 ccbd 8814 643d a065 193e 6acd 803d
000003a0: 9a0b 46bd 191f 0cbe f1db 1fbe b845 02be
000003b0: b224 933d 45d0 5ebe 557e 993d f614 c43d
000003c0: fb01 b83d 00c7 8cbe d517 0a3e 8f4c 35be
000003d0: be96 0bbe b593 61bd 2c03 343d 1ca8 06be
000003e0: 3b27 a73d ac39 93be 4a60 2f3e 0629 1dbd
000003f0: 9411 71bc 293c 76be b462 0b3d a233 dabd
-0.10510899 -0.092345074 -0.18573785 -0.09230603 0.065792516 -0.19637062 0.046862893 -0.060288217
-0.030202273 -0.08358219 -0.0198628 0.14919981 -0.16778201 -0.14099032 -0.08723808 0.102603436
-0.18105078 -0.24699715 0.042250708 0.028283594 -0.034150187 0.021215485 0.0590333 0.006857141
-0.054600056 -0.057667192 0.03970334 0.051369242 -0.020150995 0.085848786 0.042275336 0.078893945
-0.0070725987 -0.15355036 0.19788405 0.124532014 0.011442272 -0.0671882 0.0012134691 0.018358566
-0.16453755 0.086876124 -0.17321947 -0.19615501 0.012923944 -0.032927256 -0.21936277 -0.23873957
-0.23079902 -0.17476584 -0.008469397 -0.08730052 0.008925836 0.054245234 0.108575225 -0.22197093
-0.049073428 0.07499005 -0.11549374 -0.061875887 0.092684634 -0.03761327 0.032215204 -0.04928118
0.04354249 0.052285373 -0.15665534 -0.111965925 0.030071914 0.12467817 0.08032698 0.03882115
0.07390684 -0.20282072 0.0837048 -0.14787507 0.024592273 -0.043839794 -0.10303589 0.054364618
-0.03232473 -0.20829466 0.02767538 0.052692458 -0.044014152 0.035648122 0.051684584 0.08302796
-0.123917274 -0.1769219 0.0060356725 -0.16068333 0.006191744 -0.12072666 -0.26941678 0.06863361
0.04188503 0.059781063 -0.12684986 0.07914801 -0.21136813 0.004694414 -0.06742786 -0.0061166906
0.11831477 -0.2028946 -0.10531307 0.06595495 0.074948765 0.006294478 0.07007583 0.062258486
-0.008293714 0.08238022 -0.26698408 -0.14727375 -0.15180476 0.10396318 -0.13843739 0.0046243686
0.17271055 0.2251967 0.077617235 0.1309768 -0.07034396 -0.03676454 -0.14356503 0.14148368
-0.11093214 0.0682485 -0.01290882 -0.052845724 -0.039724752 0.04761435 0.20784315 0.040594336
-0.019836135 -0.024734223 -0.10070446 0.08404982 0.076218635 0.0664452 0.020066366 0.09992491
-0.20137542 -0.11017205 -0.13793233 -0.05810182 0.113417655 0.0127382735 -0.10908926 0.020772895
-0.13103908 0.16771153 0.054611217 -0.04826924 -0.24413098 -0.14455761 -0.017528927 0.24677888
0.07896125 0.07507464 -0.14362583 -0.14482683 -0.056448117 -0.11748955 0.058252215 0.07613727
-0.04234383 -0.03739671 0.08680923 0.08302734 0.12061679 -0.1747453 -0.07234914 0.019640697
-0.029667962 -0.19693457 -0.025982657 0.1399733 0.04441718 -0.03359858 -0.10869067 0.011646749
-0.10476251 0.1334979 -0.09876094 -0.12818825 0.13505895 0.012856337 -0.119853474 -0.32518306
-0.07766318 0.0005626804 0.017707152 0.069587626 -0.12508184 0.13338281 -0.24036804 -0.044075448
-0.006393902 -0.23367064 -0.116993845 -0.18473096 -0.037043113 -0.08779441 -0.16192152 -0.12439425
0.019741252 0.041773625 -0.15052839 -0.017793154 -0.19335978 -0.003922421 0.06362325 -0.024018649
-0.1265153 0.16357362 -0.11371977 0.13944827 0.0152699165 0.15846156 0.14365675 -0.16142964
-0.05109315 -0.12920398 0.0060020876 -0.074553415 -0.09968126 0.055683643 0.14980173 0.062891796
-0.048350908 -0.13683738 -0.15611245 -0.12721908 0.071847335 -0.21759136 0.07494799 0.095743105
0.08984753 -0.27495575 0.13485654 -0.17704986 -0.13631722 -0.055072505 0.043948337 -0.13150066
0.081617795 -0.28754938 0.17126575 -0.0383692 -0.014713664 -0.24046387 0.034029678 -0.106543794

actor.2.weight f4 [256, 512]
00000000: fed6 5a3c 459b 283e 6763 b2bd a01a b43d
00000010: 3e85 60bd 611d e4bd d7ba 063e f691 4ebd
00000020: 528e 923c d8e1 0dbd e93f adbd 30dd d3bd
00000030: 1c8b d0bc ad2c 91bd 7334 59be 1195 cebd
00000040: 6b1f d8bc ac17 30be fbfb 2bbd 515a 6f3c
00000050: 4bd6 5cbc feda 323e 514d edbd 4cae 9abd
00000060: bf50 c8bb 5a06 0ebe 4f90 163d fbbb eabb
00000070: 0a0b d5bd 49a8 dcbd 3d15 183d 67b3 5abd
00000080: 2c4c a8bc b243 05be 9fd7 f5bd 9a29 45bd
00000090: 6016 1bbe 4498 8bbd 6a7f c2bd 4a4b cd3d
000000a0: 6874 b63c 8ad7 ca3b cc79 713e 9bfd 003e
000000b0: 46d3 5dbd e384 6f3d 1585 3d3c 9d3e 4abe
000000c0: c869 25bd 651e 63bd 8149 a13c 0a19 f5bc
000000d0: 50f9 4ebe 1188 96bc 4be7 b4bd 9418 c33b
000000e0: b39c 303c 6dfe 06be 49fb dcbd 2506 193c
000000f0: aee4 873d dae3 ebbc ddef 37be 1db2 3cbd
00000100: 9441 6bbd a704 c8bd b51b c2bd c857 633c
00000110: 7b01 3fbc ce07 37bd 6ef1 aa3d eb70 2d3e
00000120: d17c 413e 1429 b5bc 7934 af3d e331 523e
00000130: 023b dbbd 45d6 85be 6467 823b 54c0 d53d
00000140: fd5f b13c e3b0 d03c f476 c73d 75bd 283d
00000150: 5e0e b9bd ef66 0cbe 9561 823d 0578 09be
00000160: c61b dcbc 1f49 ac3c 4f7d d53d 1286 7fbd
00000170: 8130 d93d db5f 2a3d de45 273c a4a8 b23d
00000180: b795 fcbb d1fe 04bd f4e2 f13c d425 0b3e
00000190: 0bde 9ebd 31cd b33d 6865 a0bd d848 c0bd
000001a0: 0880 883c 95da b2bc 47bc 2ebe b950 233c
000001b0: e6ce f2bc b9c0 e0bd c19f 0dbe 15fb 99bd
000001c0: 8254 9ebd 9a17 42bd af9d bdbd 1569 8a3c
000001d0: f30d 1d3e f1ec 213e 7921 99bd 2b2a 253d
000001e0: 5f11 43be 8b5e b73c b314 cdbc 642a 21be
000001f0: 5711 4c3d 648d 6ebd cbd8 14be c0d6 45bc
00000200: 2808 fbbd 8b77 ddbd cd93 d9bd 0e2d c0bd
00000210: 2421 733e 8e7c 973d d7c6 41bc d541 b4bd
00000220: 6cf5 3dbd 0626 a23c 126a 893d 3425 843c
00000230: 3f82 1d3d ab95 643c 175b e33d 1552 12be
00000240: a833 27bd 2902 243e a8ff bb3d 1a6b 6ebe
00000250: 2cca 5f3d ee8a a0bc ae84 17bd dabc b33c
00000260: ef3e 2cbe 611d 01be bfe5 1f3d 2913 ba3c
00000270: f1d2 fd3d 9e9d 1d3d 6ce1 b8bd ef6b 20bd
00000280: 1906 e3bd 5e18 0abe 2de0 68bc ab73 f93d
00000290: c6c4 033e a142 4dbe 9384 08bd 44d4 353e
000002a0: f961 213d ac92 323c 2089 083d 761a d33c
000002b0: e6ce ad3d 50da e13d 0756 b73d 32a1 88bd
000002c0: 890a b93d 0cd2 a93d 51cd 20bd d3f8 d4bd
000002d0: 4561 813d 7a52 bebb d683 8f3d 1910 1f3d
000002e0: 26cd c0bd 29db 13bd 123d 803b 124e 7abd
000002f0: 7305 a9bd 7111 623d bf7e 093e 1ac6 afbd
00000300: 6943 2a3e 7c75 f43c fd09 2d3c 2aff 09be
00000310: 431a 1f3c 7a74 c83c 5266 803d f26f c5bd
00000320: daa3 bbbd 2778 813d e64a 3f3d 522d 1fbe
00000330: 08e6 a6bd f22e f4bc 023a 23bd 438a bebd
00000340: aded 463e aa05 323b eef0 b03d ace3 eb3d
00000350: a91c 3ebe 524e 443d c522 823a d5d9 833d
00000360: f446 8fbd dd59 41be fe9a 463d 0b86 d8bc
00000370: 1b81 4bbe 9a0d 5a3d 6858 a8bd c4d7 4bbd
00000380: c9cb 06be e51c 40bd 2099 373d 8325 8e3d
00000390: 6578 dfbc 49db d13b 3515 e8bd 9042 75bd
000003a0: a8cf a63c 6eff ee3d f1f0 24be ef17 0f3e
000003b0: ba4c f8bd b2ba a4bd d4bd 07be 762a cb3d
000003c0: 0bf0 c0bc ff65 6e3d 34e1 9ebb c284 4bbe
000003d0: 90dd 543d 7676 aa3d 8175 293e 7c4b 2ebc
000003e0: a5f8 53bb 82ae 293c b2f5 fd3d 18d8 13be
000003f0: af5b 543d 4f4d 16be a5c4 fcbd ca37 803d
0.013356922 0.1646548 -0.08710366 0.08794141 -0.05481457 -0.11138416 0.13157211 -0.050432168
0.01789013 -0.03463921 -0.084594555 -0.103449225 -0.025456958 -0.07088599 -0.21211414 -0.10087026
-0.026382169 -0.1719653 -0.041988354 0.014608935 -0.013478826 0.17466351 -0.115870126 -0.07552776
-0.0061131413 -0.1386961 0.036758717 -0.0071635223 -0.10402496 -0.10774285 0.03712963 -0.053393748
-0.020544134 -0.13014105 -0.12004017 -0.048135377 -0.15145254 -0.06816152 -0.094969586 0.10024126
0.022272304 0.006190245 0.23581618 0.12596743 -0.054156564 0.05847634 0.011567374 -0.19750448
-0.040384084 -0.05544891 0.01968837 -0.029919166 -0.20212293 -0.018375428 -0.08833178 0.0059538577
0.0107795475 -0.13182993 -0.10790116 0.009339844 0.06635414 -0.028795172 -0.17962594 -0.0460683
-0.057435587 -0.09766512 -0.09477941 0.013875909 -0.011658068 -0.044685178 0.0834683 0.16937606
0.1889527 -0.022114314 0.0855493 0.20526843 -0.10704614 -0.26140037 0.0039796103 0.10437074
0.021652216 0.025474971 0.097394854 0.041196305 -0.090359434 -0.13711141 0.063662685 -0.1342469
-0.026868712 0.02103096 0.10424291 -0.06238372 0.106049545 0.04159532 0.010209529 0.08723572
-0.007708277 -0.032469574 0.029527165 0.13588649 -0.07757195 0.087793715 -0.07831842 -0.09388894
0.016662613 -0.021832744 -0.1706401 0.009967976 -0.029639672 -0.10974259 -0.13830473 -0.07518593
-0.07730962 -0.04738579 -0.092585914 0.01689581 0.15337352 0.15813042 -0.074770875 0.040323418
-0.19049595 0.022383949 -0.025034284 -0.15738827 0.049821224 -0.05824031 -0.14535825 -0.012075126
-0.12257415 -0.10813817 -0.10623894 -0.093835935 0.23743111 0.07396804 -0.011827192 -0.08801619
-0.04637663 0.019793522 0.067096844 0.016131021 0.03845429 0.013951699 0.111013584 -0.14289124
-0.040820748 0.16016449 0.09179622 -0.23283044 0.054636165 -0.019597497 -0.036991768 0.021940637
-0.16820882 -0.12608863 0.039037462 0.022714214 0.123937495 0.038480394 -0.09027371 -0.039165433
-0.110851474 -0.13485858 -0.014213604 0.12180265 0.12868032 -0.20044948 -0.033329558 0.17756754
0.039400075 0.010899227 0.033333898 0.025769453 0.08486728 0.11027968 0.08951955 -0.066713706
0.090352125 0.082920164 -0.039258305 -0.10399022 0.06317381 -0.005808172 0.070075676 0.03883371
-0.09414129 -0.03609768 0.00391353 -0.06110961 -0.082529925 0.055192415 0.13427256 -0.08582707
0.16627277 0.029841177 0.010561463 -0.13476244 0.009710851 0.024469603 0.06269516 -0.096404925
-0.091621116 0.06321745 0.046702288 -0.15544632 -0.08149344 -0.029807542 -0.039850242 -0.09303715
0.19426604 0.002716402 0.08639704 0.11518034 -0.1856562 0.047926255 0.0009928575 0.064380325
-0.06995955 -0.18881936 0.048487656 -0.026431104 -0.19873469 0.053235628 -0.08219987 -0.049766317
-0.13163675 -0.046902556 0.044823766 0.069407485 -0.027279088 0.0064043147 -0.1133217 -0.059877932
0.02036269 0.11669813 -0.16107537 0.13973974 -0.121240094 -0.08043422 -0.13256007 0.09920208
-0.023551961 0.05820274 -0.0048486236 -0.19874862 0.05196911 0.08323376 0.1654873 -0.010638114
-0.0032344249 0.010356547 0.12400378 -0.14437902 0.05184525 -0.14677928 -0.123421945 0.06260641

actor.2.bias f4 [256]
00000000: d1d0 85bd 902b 04be b8c7 f7bd e60a 9bbd
00000010: 3c17 c6bd cf9d a0bd 8f38 aebc 083a 6c3d
00000020: 5e67 cbbd 1a45 e1bd b306 2dbe 03e1 8bbd
00000030: 4797 68bc 4b9f 61bd b416 66be 4b4d 36bd
00000040: 5da6 f5bd 58be b3bd 8f48 93bd 7f84 1f3d
00000050: 2905 00bb 0aa5 eabd 999f 0abe 9390 fcbd
00000060: 56f5 8ebd 8bf6 bdbd 43aa bdbd 5549 7bbd
00000070: 5c5c d5bd 7267 92bd b7f6 cbbb 2ad8 f2bd
00000080: 1be5 09be 0a7a 00be 2c16 babd 04b2 453d
00000090: 704d 46be ff25 19bd e755 833c 2ace c4bd
000000a0: c95a 04bd 6d85 63bd 0e1b 11be 1125 97bd
000000b0: 36ed 29be 9dcb 0fbe 69c0 a2bd 63ad 27be
000000c0: 6f2f b7bc 7e5a babd 4acf c5bd eff4 84bd
000000d0: 3fc3 86bd e50f ebbb 2599 04be 4817 f9bd
000000e0: c54d 0abe baff 12be 872a 8ebd 151d 22bc
000000f0: b860 abbd 8249 0fbe 598a edbd 9840 92bd
00000100: 867a 0fbd d502 7dbd f16f 9ebc acd1 d4bd
00000110: cd09 42be 88d1 8dbe a842 923d 48c3 abbd
00000120: ce87 25be 97ec 21be e6d8 21be c42d c9bd
00000130: 5397 fbbd d730 41be 2352 01be 2275 7cbd
00000140: e546 0ebe 175e 24be 0c1d 06be 49fe f0bd
00000150: e110 b3bd d3c1 43bd b460 28bd 4a98 0bbe
00000160: 22c5 88bd 26e6 da3b d90a babd 5f0e 73be
00000170: da42 c6bd b46b 413c cb25 bfbd 840d 51be
00000180: 7d26 0ebe 61eb 2dbd a4e4 2dbd 89a7 0cbc
00000190: 56f8 01be ffbe 46be b530 3dbd 63e7 28bd
000001a0: 5224 c5bd 5b98 2ebd 83c1 b0bc a798 24be
000001b0: cf75 80bb 5555 21be 6cd2 38be 7ce6 acbd
000001c0: d63a 5ebe 0e1a 83be 4abf b5bd 6aa5 dcbd
000001d0: 7cb7 05bc ce21 00be 2999 23be 82d2 11be
000001e0: 7ebc 32be 450d dabd 22db abbd 6968 27be
000001f0: fe93 d4bd de52 88bd 0291 6f3a 9f05 b0bc
00000200: 7542 503c 752f 4fbd a844 83bd 9d34 20be
00000210: bdbb 26be abff 1abd e9b0 50bd 49a9 7abe
00000220: f60b 05be ef66 42bd 1af5 0dbe 68bd efbc
00000230: 9dfc 2ebe 687a 1bbe 5bb2 44bd 66eb 08bd
00000240: b378 10be 8ef1 85bd 31fd 0cbe 1730 5dbd
00000250: 8ab6 fb3b 44ad c8bd dc20 81bd c2f0 28bd
00000260: 3f4f adbd f0f8 32be 720b 23be 1cf9 03bd
00000270: 5354 19be 39e8 01ba f938 eabd a76d 53bd
00000280: 29db 16be a13f 32bd 77c1 0dbe a2fb dabc
00000290: 0357 0ebe c9de ebbd 3ab8 d8bd a6ba 26be
000002a0: 4d38 79bd 41b6 e0bd ea45 8fbd 5c06 eeba
000002b0: 2bd7 2d3d a853 99bd ef20 2fbe 7056 0ebe
000002c0: 2590 0bbd 349f ccbd 02d4 38be faf5 b5bd
000002d0: 49e6 39be fc25 0bbe 5691 d93c 3480 88bd
000002e0: 2ecc 04bd c22a 7dbd 2ec7 84bd ec63 35bd
000002f0: cccd 43bd 00b9 b4bd 9cb3 c8bd 42dc 95bd
00000300: 738a 47be a932 b7bd 7a25 3fbe 57c3 cdbd
00000310: b2b8 63bd 0152 efbd 1f35 17be 3779 dfbd
00000320: bd69 abbd 5071 2cbe d14a 56bd 129c 34be
00000330: 40b7 a2bd 70a5 4ebe 8670 49bb 1632 c4bd
00000340: 6cc2 6fbd 4353 ddbc 5dee e2bd 92ab febd
00000350: 5db8 6bbd 7e3e e4bc 4be3 b9bd 3d07 49be
00000360: d4b1 dbbd 8ff1 b9bd 9fae 1ebd 4a5a 94bc
00000370: 08cb 09be 4158 3bbe 671b c1bc 068c f1bd
00000380: 28b9 2bbd 8640 69bd 80c8 bdbd d599 1ebe
00000390: 6d3f a3bc 2271 b2bd 2dd0 babd c40e 2ebd
000003a0: 348f 03be 4079 48bd 1cb7 e7bd aab4 b13c
000003b0: eb63 c2bc b300 30be 86e1 16be b923 03be
000003c0: 8ee2 f6bd d869 20be 1f46 1dbe 1ce6 dabd
000003d0: 7a5d ddbd cc75 e5bb da34 28be 13c0 0dbe
000003e0: 5653 6cbd e2d8 edbd 9b43 9dbd b6b0 9ebd
000003f0: 488b 2cbe 3973 2dbe e919 9bbd 050b bebd
-0.06533969 -0.12907243 -0.1209864 -0.07570438 -0.096724 -0.078425996 -0.021267204 0.05767253
-0.09931825 -0.10999508 -0.16897087 -0.06830027 -0.014196224 -0.055083554 -0.22469598 -0.044507306
-0.11994622 -0.087765396 -0.07191574 0.038944717 -0.0019534326 -0.1145726 -0.13537444 -0.12332263
-0.06980388 -0.0927554 -0.092609905 -0.06134923 -0.10418007 -0.07148637 -0.006224479 -0.11857636
-0.13466303 -0.12546554 -0.0908626 0.048265472 -0.19365478 -0.03738975 0.016032172 -0.09609635
-0.032313142 -0.055547167 -0.14170477 -0.07380117 -0.16594395 -0.14042516 -0.079468556 -0.16374736
-0.022361485 -0.09099291 -0.09658678 -0.0649203 -0.06580209 -0.0071735256 -0.12949045 -0.12162644
-0.13506229 -0.14355364 -0.06941705 -0.009894629 -0.08368057 -0.13992885 -0.11598653 -0.071412265
-0.035028957 -0.06177028 -0.019340487 -0.10391554 -0.18949051 -0.27698922 0.0714162 -0.08386856
-0.16165087 -0.15812908 -0.15805396 -0.09823182 -0.12284722 -0.18866287 -0.12628989 -0.061635144
-0.13894232 -0.16051517 -0.13097018 -0.11767251 -0.08743454 -0.047792267 -0.04110785 -0.13632312
-0.06678225 0.006680268 -0.090841 -0.23735951 -0.0968072 0.011805464 -0.0933338 -0.20415312
-0.1388187 -0.042460803 -0.042454377 -0.008584865 -0.12692389 -0.19408797 -0.04618903 -0.041236293
-0.09626068 -0.042625766 -0.021576649 -0.16073857 -0.003920294 -0.15755208 -0.1804902 -0.08442399
-0.21702132 -0.25605816 -0.08874376 -0.10773738 -0.008161422 -0.12512895 -0.15976395 -0.14240459
-0.17454717 -0.10647062 -0.08391406 -0.16348423 -0.1037979 -0.06656431 0.00091387343 -0.021487055
0.012711157 -0.050582368 -0.064095795 -0.1564507 -0.16282554 -0.03784148 -0.050949965 -0.2447864
-0.12992844 -0.047461446 -0.1386303 -0.02926512 -0.17088552 -0.15183413 -0.048021656 -0.03342762
-0.14108543 -0.065402135 -0.1376846 -0.05400094 0.0076816725 -0.09798673 -0.063050956 -0.04124523
-0.084623806 -0.17477775 -0.15922335 -0.03221999 -0.14973573 -0.00049555633 -0.11436648 -0.051618244
-0.1473204 -0.043517713 -0.13843332 -0.026731316 -0.1390038 -0.11517102 -0.105820134 -0.16282138
-0.06084471 -0.10972262 -0.06995757 -0.0018159854 0.04244153 -0.07486659 -0.17102407 -0.13900161
-0.034073014 -0.09991303 -0.18049625 -0.08884807 -0.18154253 -0.13588709 0.02655856 -0.06665078
-0.032421283 -0.061808355 -0.06483303 -0.044284746 -0.047803685 -0.088243484 -0.09799883 -0.073174015
-0.19486408 -0.089452095 -0.1866664 -0.10047024 -0.05559606 -0.11685563 -0.14766358 -0.10911792
-0.08369777 -0.168401 -0.052317444 -0.17637661 -0.079451084 -0.20180297 -0.0030737235 -0.09579866
-0.058535025 -0.027017241 -0.110806204 -0.12435068 -0.05754887 -0.02786183 -0.09076556 -0.19631667
-0.107272774 -0.09079277 -0.03874075 -0.01810946 -0.13456357 -0.18295385 -0.023572637 -0.117942855
-0.041924626 -0.0569463 -0.09266758 -0.1548837 -0.019927705 -0.087129846 -0.09121738 -0.04249455
-0.12847596 -0.048943758 -0.11314222 0.021692593 -0.023729285 -0.17187767 -0.14734468 -0.12806596
-0.120549306 -0.15665376 -0.1535878 -0.10688421 -0.10808845 -0.007002568 -0.16426411 -0.13842802
-0.057696663 -0.11613633 -0.0767891 -0.07748549 -0.16850007 -0.16938485 -0.07573301 -0.092794456
