policy/Himloco/policy_6_11.onnx (onnx, 978188 bytes, 14 tensors)

estimator.0.weight f4 [128, 270]
-0.032168936 -0.037104845 0.0018574656 0.15149015 0.51723003 0.3147654 0.2898734 -0.41394746
0.12413133 -0.070484094 0.07432356 -0.19701423 -0.118124574 -0.03396066 0.24438459 -0.3978966
0.3159609 0.25540125 1.4221044 0.5169522 -0.19569738 0.10136001 0.045493312 -0.03466276
-0.19038832 -0.25218004 -0.055873618 0.08833325 0.030880304 -0.017562276 -0.6136122 -0.3249201
-0.14631024 -0.009503127 -0.038369 0.010011891 -0.040560607 0.054265764 -0.050787892 0.020775115
-0.10556355 -0.036717452 -0.025827011 -0.08979409 0.04781976 0.022942297 0.009088778 0.09607675
-0.10517916 -0.6735058 -0.10607358 0.20964195 -0.17466094 0.08237816 -0.09747153 0.06624217
0.024377244 -0.61146486 -0.21404816 -0.19117378 0.64305156 0.109496005 0.24334538 0.66765475
0.48532322 -0.3551349 -0.19703467 0.07538622 0.10978385 0.15918192 -0.22781171 0.07196229
0.07219848 0.11038094 0.020106722 0.12045996 0.18829544 0.037359726 -0.010948284 0.015151001
-0.009297808 0.038906984 0.12263177 0.00040054566 -0.017617695 0.0069925413 -0.027064795 -0.020757178
0.07715752 0.12631446 0.014931886 -0.012549111 0.035806872 -0.31267187 -0.32343334 0.27212718
0.1059191 0.03255991 0.05220533 0.19244392 0.20388351 -0.061583154 -0.3938422 -0.38010332
-0.22541358 0.3247176 -0.04277312 0.05329787 -0.3638543 -0.18317275 -0.447059 0.004574076
-0.0889434 -0.0010258921 0.22637331 -0.40319583 -0.061376605 -0.04771045 -0.11792571 0.024198432
0.78935415 0.831245 0.4148215 -0.04276581 0.0104267625 0.05807152 0.025938189 0.12949416
-0.011831113 -0.02139405 0.057726197 -0.046866618 0.034668952 0.18658274 0.22009148 -0.0026191478
0.01565423 0.091641136 -0.26924643 0.39910832 0.2433682 -0.014937779 0.09596151 0.11394558
0.23178634 0.016319023 -0.12673043 0.25814977 -0.18393248 -0.027811745 -0.052624933 -0.050254848
-0.037861716 -0.9309639 -0.9185026 -0.2982744 0.3502039 0.022461781 -0.10345239 0.17238107
-0.35639238 -0.09225835 -0.072770804 -0.06468952 -0.01137086 0.19828236 -0.06373722 0.025609376
-0.01892673 -0.040226065 0.08405103 -0.008996412 0.045664195 -0.026449813 0.007439567 -0.018763592
-0.019840086 0.027883405 0.08211008 0.08676308 0.0360909 -0.05047272 0.012168646 -0.052314192
0.10263977 -0.13000369 -0.12003531 0.18910363 0.11807522 0.015561376 -0.19021468 -0.1775235
0.50454193 -0.08998777 0.20735191 -0.2534895 0.075063735 0.005723479 -0.6812965 -0.71667755
-0.18294922 0.10353264 -0.04416914 -0.018141327 0.13097137 -0.20134564 -0.032871 -0.069547705
0.08339393 0.003562908 -0.19766644 -0.23006327 -0.09998445 -0.0018483084 -0.013120346 0.020212507
-0.020589586 0.0022743272 -0.0443689 0.036255654 -0.032622863 -0.018667031 0.022306459 0.020877294
0.01275176 0.06224323 -0.10681773 -0.10461993 0.024785424 0.003501569 -0.27001756 -0.10229394
0.19271007 0.12541679 -0.034292683 -0.1993911 -0.13408954 0.5085674 -0.07399057 0.43290785
-0.1733722 0.19694239 0.06664169 -0.26000142 -0.25469768 -0.23125345 -0.11845964 -0.045288507
0.0033647353 0.10022881 0.040274102 0.017713562 -0.099677466 0.010014347 -0.019849183 -0.16003579
00000000: 93c3 03bd 40fb 17bd 3476 f33a 3c20 1b3e
00000010: 3069 043f ee28 a13e 496a 943e ecf0 d3be
00000020: 9138 fe3d f759 90bd f336 983d 19be 49be
00000030: 4ceb f1bd 551a 0bbd f43f 7a3e 1ab9 cbbe
00000040: a1c5 a13e f4c3 823e 8407 b63f fb56 043f
00000050: e564 48be d695 cf3d 3257 3a3d 8afa 0dbd
00000060: 28f5 42be be1d 81be bcdb 64bd 10e8 b43d
00000070: b1f8 fc3c c3de 8fbc b015 1dbf ed5b a6be
00000080: 5ad2 15be 01b3 1bbc d028 1dbd ea08 243c
00000090: e122 26bd c745 5e3d f706 50bd 9330 aa3c
000000a0: b431 d8bd 0a65 16bd 2b93 d3bc f7e5 b7bd
000000b0: a7de 433d 7cf1 bb3c 19e9 143c e3c3 c43d
000000c0: 2c68 d7bd e06a 2cbf 1b3d d9bd 61ac 563e
000000d0: 51da 32be e1b5 a83d 279f c7bd faa9 873d
000000e0: c9b2 c73c f688 1cbf 712f 5bbe 0fc3 43be
000000f0: 079f 243f 713f e03d 882f 793e 6ceb 2a3f
00000100: 497c f83e 3ed4 b5be 75c3 49be 1764 9a3d
00000110: 5bd6 e03d 9600 233e 7947 69be f760 933d
00000120: ccdc 933d 670f e23d dab6 a43c b6b3 f63d
00000130: 85d0 403e 8306 193d 6e60 33bc e73b 783c
00000140: d555 18bc ee5c 1f3d 5e26 fb3d 5400 d239
00000150: fc52 90bc b021 e53b fdb6 ddbc f50a aabc
00000160: c304 9e3d 9458 013e dfa4 743c c99a 4dbc
00000170: 3aaa 123d 8716 a0be 0e99 a5be 4154 8b3e
00000180: 1dec d83d 8a5d 053d 42d5 553d 0510 453e
00000190: d7c6 503e 9e3e 7cbd afa5 c9be e79c c2be
000001a0: d1d2 66be 6341 a63e de32 2fbd de4e 5a3d
000001b0: 1c4b babe a391 3bbe ebe4 e4be 21e2 953b
000001c0: f527 b6bd 3a77 86ba 68ce 673e af6f cebe
000001d0: 0966 7bbd 086c 43bd 0983 f1bd ca3b c63c
000001e0: 1d13 4a3f 79cc 543f 7c63 d43e 342b 2fbd
000001f0: 03d5 2a3c 67dc 6d3d 537c d43c 1e9a 043e
00000200: 49d7 41bc 9342 afbc 4e72 6c3d 36f7 3fbd
00000210: 0801 0e3d 8c0f 3f3e a95f 613e 02a6 2bbb
00000220: 4d3d 803c 59ae bb3d abda 89be ed57 cc3e
00000230: 8335 793e 96bd 74bc 7887 c43d 4d5c e93d
00000240: 6659 6d3e 79af 853c 9fc5 01be 352c 843e
00000250: cc58 3cbe 75d5 e3bc 3e8d 57bd 07d8 4dbd
00000260: e314 1bbd a653 6ebf fd22 6bbf 6cb7 98be
00000270: ed4d b33e c501 b83c d9de d3bd aa84 303e
00000280: 1079 b6be f2f1 bcbd dc08 95bd f07b 84bd
00000290: d84c 3abc 880a 4b3e a988 82bd c1ca d13c
000002a0: 3b0c 9bbc 16c4 24bd f222 ac3d b065 13bc
000002b0: 610a 3b3d 47ad d8bc 9cc7 f33b 1bb6 99bc
000002c0: ad87 a2bc bd6b e43c 5429 a83d d7b0 b13d
000002d0: 0dd4 133d 7cbc 4ebd 005f 473c 6847 56bd
000002e0: cd34 d23d b01f 05be 13d5 f5bd 62a4 413e
000002f0: 6cd1 f13d 24f5 7e3c a3c7 42be b8c8 35be
00000300: a929 013f 824b b8bd 0f54 543e 60c9 81be
00000310: 04bb 993d 068c bb3b 7369 2ebf 2e78 37bf
00000320: 0a57 3bbe ec08 d43d b3ea 34bd 1f9d 94bc
00000330: 5c1d 063e 8d2d 4ebe bea3 06bd 076f 8ebd
00000340: 70ca aa3d ad7f 693b 1269 4abe b595 6bbe
00000350: a6c4 ccbd f042 f2ba b8f6 56bc b394 a53c
00000360: 7eab a8bc e10c 153b 2abc 35bd cf80 143d
00000370: 8d9f 05bd 9aeb 98bc 09bc b63c dc06 ab3c
00000380: c2ec 503c c2f2 7e3d 41c3 dabd f942 d6bd
00000390: cd0a cb3c 947a 653b be3f 8abe 7c7f d1bd
000003a0: ca55 453e 426d 003e 7c76 0cbd 2e2d 4cbe
000003b0: c54e 09be 7931 023f 5e88 97bd 19a6 dd3e
000003c0: 7b88 31be 44ab 493e 707b 883d e81e 85be
000003d0: bc67 82be b4cd 6cbe f89a f2bd 7180 39bd
000003e0: e482 5c3b c344 cd3d 75f6 243d 081c 913c
000003f0: b323 ccbd 3713 243c c19a a2bc 6ce0 23be

estimator.0.bias f4 [128]
-0.16899002 -0.08703179 -0.38379708 0.059030887 -0.31411088 -0.13557741 -0.26538518 0.19870126
0.04798986 -0.22958688 0.05985569 0.12391068 0.04054039 0.035755776 -0.14002798 -0.15461048
0.20907246 0.064155236 -0.32089734 -0.0033120627 0.10302222 -0.13223302 -0.047816277 0.0054153483
0.32723147 0.13542143 -0.08716169 0.012693341 -0.22616655 0.25191897 -0.21994418 -0.49463856
-0.44814858 -0.16563587 -0.034515418 -0.07428129 0.049323533 0.23707205 0.09811014 0.09641079
0.12207815 -0.005226257 -0.059430495 -0.3346251 -0.11980576 -0.17090347 -0.1110477 -0.00057640404
-0.55478305 -0.10894293 0.31191036 -0.35232407 -0.13524109 -0.02798801 -0.17982318 -0.009262348
-0.184398 -0.15194382 -0.09638418 0.16048814 -0.14281905 -0.0396453 -0.10071071 -0.15706638
-0.17311624 -0.22496217 0.04653873 -0.18400194 -0.13709755 -0.10161181 0.047610845 -0.28773132
-0.07482185 0.08343335 -0.056855146 -1.0485312 -0.089923725 0.11844244 -0.0589325 -0.023538215
0.1340456 -0.17752121 0.037971605 -0.15418296 -5.281655 -0.04300411 -0.21506551 0.13880126
-0.01067663 0.07110875 0.18889402 0.074954264 -0.030119224 0.12196153 -0.2861681 -0.05048695
-0.089594595 0.14087032 -0.14377764 -0.009807829 0.20748058 -0.18712904 0.046558946 0.073115274
0.1757707 -0.18820298 0.14040574 0.15305567 -0.033060715 0.22344051 -0.20644832 -0.12194987
-0.43865004 -0.053970195 -0.113358654 -0.11568134 -0.33706263 -0.11189569 -0.33389655 0.12804699
0.14149763 -0.35370487 0.01633851 0.017825868 -0.19670996 0.090377115 0.0476848 -0.019196123
00000000: b80b 2dbe b93d b2bd 0d81 c4be 5fca 713d
00000010: 24d3 a0be ced4 0abe 91e0 87be 5878 4b3e
00000020: 0491 443d d318 6bbe 3d2b 753d e2c4 fd3d
00000030: ae0d 263d a674 123d 7f63 0fbe 3652 1ebe
00000040: 1717 563e d263 833d a84c a4be 310f 59bb
00000050: 50fd d23d 1868 07be 00db 43bd 3c73 b13b
00000060: e28a a73e eaab 0a3e d481 b2bd bbf7 4f3c
00000070: 3498 67be 86fb 803e 0c39 61be 4441 fdbe
00000080: bb73 e5be 739c 29be 0a60 0dbd ca20 98bd
00000090: 7907 4a3d 04c3 723e f8ed c83d 0573 c53d
000000a0: 1c04 fa3d 0541 abbb 646d 73bd fb53 abbe
000000b0: b95c f5bd 5201 2fbe fa6c e3bd d219 17ba
000000c0: 4306 0ebf 791d dfbd b7b2 9f3e d263 b4be
000000d0: a47c 0abe 1c47 e5bc 9123 38be 1ac1 17bc
000000e0: d4d2 3cbe 2997 1bbe 1265 c5bd 0157 243e
000000f0: 283f 12be 1c63 22bd 6b41 cebd 02d6 20be
00000100: 6245 31be 7c5c 66be 659f 3e3d 016b 3cbe
00000110: 4d63 0cbe da19 d0bd 9703 433d 8551 93be
00000120: 333c 99bd 1bdf aa3d f1e0 68bd 4536 86bf
00000130: ee29 b8bd f391 f23d 3563 71bd 37d3 c0bc
00000140: 4043 093e 1fc8 35be 1d88 1b3d 23e2 1dbe
00000150: 5103 a9c0 1425 30bd 223a 5cbe eb21 0e3e
00000160: 08ed 2ebc 77a1 913d 6f6d 413e 9f81 993d
00000170: 97bc f6bc f7c6 f93d a084 92be 67cb 4ebd
00000180: 5f7d b7bd 4f40 103e 723a 13be 04b1 20bc
00000190: ca75 543e c19e 3fbe 98b4 3e3d 76bd 953d
000001a0: 3cfd 333e 48b8 40be 86c6 0f3e a0ba 1c3e
000001b0: ac6a 07bd 97cd 643e 3067 53be dac0 f9bd
000001c0: bd96 e0be da0f 5dbd 9528 e8bd 57ea ecbd
000001d0: 7993 acbe 9129 e5bd 7df4 aabe c01e 033e
000001e0: c1e4 103e ce18 b5be 57d8 853c 8e07 923c
000001f0: 566e 49be a317 b93d 2351 433d 3041 9dbc

estimator.2.weight f4 [64, 128]
0.031619094 0.11953387 -0.1961989 0.2817526 -0.12947993 -0.035794016 -0.06634181 -0.027258897
-0.46566686 -0.08562444 -0.18188868 0.29366705 -0.07506786 0.13573219 0.06390194 -0.011242581
-0.002803006 0.029169101 -0.12742217 0.053540774 -0.030642945 -0.0966289 0.08922038 -0.12828612
-0.28719082 0.07596072 -0.008635108 0.10603101 -0.31408894 0.41473258 0.09329825 -0.06036075
-0.009887809 -0.2144352 0.12551838 0.17024894 0.028503139 0.014783545 0.009374687 0.009866411
0.11961891 0.046160128 -0.06853259 0.051436096 -0.15056033 0.5339825 -0.11047699 -0.095444374
0.0034050113 -0.10000736 0.14466979 0.3072307 -0.068750486 0.029822744 -0.15509914 0.01687208
-0.0098177465 -0.45899147 0.005357747 -0.0009560511 -0.042048227 0.22289123 0.03021556 -0.0017889773
-0.058573678 -0.18746294 0.13704766 -0.06055525 -0.10013571 0.03501426 0.19023253 -0.068058886
-0.09218297 0.107924975 -0.04649445 0.11822787 -0.063252844 0.44766325 -0.08392555 0.15186161
-0.090942726 -0.06320491 -0.07709548 -0.028802572 0.104462124 0.10437335 -0.036118783 0.16021132
0.62213916 0.13009879 -0.11034907 -0.13443612 0.02459282 -0.19392137 0.9187733 0.28465995
-0.040787566 -0.029054753 0.03618748 0.022014767 0.38289502 -0.047020882 -0.10156103 0.078522004
-0.042625252 0.05221856 -0.01040902 0.2636672 -0.24923658 -0.034559812 -0.10378704 0.5015654
-0.08360016 0.068572134 -0.21362287 -0.007839091 -0.046024054 -0.023148835 -0.044390656 -0.23777723
0.19616765 -0.12164623 0.09212361 0.16444464 -0.023293752 0.0942396 -0.002111773 -0.115564115
-0.10630234 0.25638342 -0.058574818 0.20404454 -0.1268329 -0.19046909 0.13792586 -0.42131612
-0.20882967 -0.019802628 -0.19342509 -0.0028134345 -0.069130585 -0.028662998 0.026683846 0.27593574
-0.088998586 -0.3701352 0.3739983 -0.08065348 -0.10734301 0.27856776 0.07690353 -0.38093776
-0.10177534 0.13594434 -0.33791205 -0.24530074 -0.106800005 0.39128798 0.1640384 -0.21889077
-0.20033903 0.1744171 0.17321716 -0.16122033 -0.03801455 -0.0034347754 -0.034717254 -0.120182596
-0.062649414 0.28461197 0.2026168 0.4115651 0.06122606 -0.041763663 0.44294336 -0.021141713
0.22472335 0.4115123 0.010135613 -0.038390197 0.35405964 0.04383839 0.12162889 -0.071911916
0.1725616 -0.13761073 0.38994977 0.27048385 0.06581972 0.089021295 -0.052280307 0.27101752
0.09073355 0.12367284 -0.2930303 -0.24195147 0.13612488 -0.037943847 -0.0208921 0.049679514
0.09233504 0.005649878 0.43252212 -0.0031190861 -0.04236762 -0.017901309 0.018486932 -0.080131166
0.12413561 -0.0132809 0.23438898 0.027829992 -0.24701078 0.09542641 -0.0010996539 -0.15656246
-0.06743416 0.24876808 -0.064960524 -0.18574144 -0.09552548 -0.02911669 0.018200552 0.10434215
0.093005374 -0.022420673 0.022333883 -0.016294913 0.55183655 -0.20779084 -0.27296564 -0.059234634
-0.006109936 0.17142929 -0.053918634 0.11519519 -0.21261613 0.45904806 -0.042057317 -0.03896573
0.4238367 -0.01741935 0.071291454 0.01125616 -0.00925541 0.018474262 0.042698648 0.19495268
0.18475147 0.17582348 0.07756405 0.21903849 -0.003787993 0.44758257 0.20168462 -0.086941496
00000000: 0683 013d 2cce f43d 5de8 48be e041 903e
00000010: 6396 04be bf9c 12bd 37de 87bd 0d4e dfbc
00000020: e36b eebe de5b afbd 0741 3abe 875b 963e
00000030: 2ebd 99bd 61fd 0a3e 05df 823d cd32 38bc
00000040: a3b2 37bb 0af4 ee3c f57a 02be 924d 5b3d
00000050: ea06 fbbc 5fe5 c5bd 2db9 b63d 705d 03be
00000060: ad0a 93be 4b91 9b3d 457a 0dbc c926 d93d
00000070: 44d0 a0be d457 d43e 2713 bf3d d53c 77bd
00000080: 7a00 22bc e794 5bbe e487 003e bd55 2e3e
00000090: 6a7f e93c af36 723c 4a98 193c baa6 213c
000000a0: c2fa f43d 6712 3d3d d15a 8cbd a8ae 523d
000000b0: 7d2c 1abe 14b3 083f c341 e2bd 5778 c3bd
000000c0: 9c26 5f3b a9d0 ccbd 5124 143e 584d 9d3e
000000d0: 0ecd 8cbd d44e f43c 4fd2 1ebe 5137 8a3c
000000e0: 9dda 20bc ee00 ebbe 0a90 af3b 819f 7aba
000000f0: c33a 2cbd 993d 643e 9f86 f73c 1e7c eaba
00000100: f4ea 6fbd 49f6 3fbe 3956 0c3e c808 78bd
00000110: f313 cdbd 1d6b 0f3d 51cc 423e 7562 8bbd
00000120: 6dca bcbd c507 dd3d f770 3ebd 7421 f23d
00000130: b58a 81bd 1e34 e53e 29e1 abbd 9c81 1b3e
00000140: 2e40 babd 9371 81bd 3ce4 9dbd 5ff3 ebbc
00000150: 3df0 d53d b2c1 d53d 4af1 13bd 700e 243e
00000160: 8344 1f3f 9e38 053e b1fe e1bd 9fa9 09be
00000170: e276 c93c 5393 46be ba34 6b3f f3be 913e
00000180: dd10 27bd 3c04 eebc 5339 143d 5058 b43c
00000190: d10a c43e f898 40bd 3bff cfbd 25d0 a03d
000001a0: d197 2ebd 21e3 553d 988a 2abc 63ff 863e
000001b0: e037 7fbe 978e 0dbd 4d8e d4bd 9766 003f
000001c0: 9036 abbd 8c6f 8c3d f4bf 5abe 886f 00bc
000001d0: b883 3cbd a0a2 bdbc fad2 35bd e07b 73be
000001e0: 2ce0 483e a921 f9bd 4eab bc3d 2d64 283e
000001f0: 8ad2 bebc b100 c13d ac65 0abb e1ac ecbd
00000200: 0bb5 d9bd b044 833e 26ec 6fbd 0df1 503e
00000210: 7ce0 01be 540a 43be 703c 0d3e bfb6 d7be
00000220: 72d7 55be 1f39 a2bc 3a11 46be 9961 38bb
00000230: 5694 8dbd aace eabc 1598 da3c 7347 8d3e
00000240: e444 b6bd 5c82 bdbe b57c bf3e a72d a5bd
00000250: a7d6 dbbd 6fa0 8e3e 997f 9d3d 460a c3be
00000260: 976f d0bd fe34 0b3e cf02 adbe 1e30 7bbe
00000270: f6b9 dabd e656 c83e aff9 273e e724 60be
00000280: ad25 4dbe 659a 323e d75f 313e f116 25be
00000290: 25b5 1bbd f819 61bb ae33 0ebd 4b22 f6bd
000002a0: 564e 80bd a9b8 913e c77a 4f3e a9b8 d23e
000002b0: 2dc8 7a3d 6010 2bbd 79c9 e23e 6331 adbc
000002c0: e11d 663e bdb1 d23e d80f 263c 0a3f 1dbd
000002d0: 4e47 b53e e28f 333d 9118 f93d 8e46 93bd
000002e0: fdb3 303e d4e9 0cbe 7fa7 c73e dc7c 8a3e
000002f0: 7dcc 863d cc50 b63d e023 56bd cfc2 8a3e
00000300: 83d2 b93d 3048 fd3d 1108 96be 20c2 77be
00000310: 5264 0b3e 026b 1bbd e925 abbc bf7c 4b3d
00000320: 271a bd3d 9d22 b93b 8a73 dd3e 9569 4cbb
00000330: ab89 2dbd c4a5 92bc e871 973c cf1b a4bd
00000340: d03a fe3d 2298 59bc aa03 703e b9fb e33c
00000350: 65f0 7cbe ec6e c33d 4322 90ba e951 20be
00000360: ec1a 8abd 0fbd 7e3e 060a 85bd 0133 3ebe
00000370: dda2 c3bd 2086 eebc 5319 953c 56b1 d53d
00000380: 9a79 be3d 8fab b7bc 8cf5 b63c e97c 85bc
00000390: 2945 0d3f 1fc7 54be 27c2 8bbe 04a0 72bd
000003a0: dc35 c8bb 298b 2f3e c9d9 5cbd 75eb eb3d
000003b0: 0bb8 59be 5908 eb3e 4b44 2cbd 889a 1fbd
000003c0: 2001 d93e 06b3 8ebc 4101 923d c26b 383c
000003d0: 01a4 17bc 5657 973c c7e4 2e3d ada1 473e
000003e0: 7d2f 3d3e 120b 343e e7d9 9e3d a04b 603e
000003f0: fa3f 78bb 8b29 e53e 6a86 4e3e 620e b2bd

estimator.2.bias f4 [64]
-0.020402497 -0.37142125 -0.09020747 -0.15060692 -0.24171811 0.025800034 0.01787991 -0.0545362
-0.0814307 -0.03273083 -0.1954049 -0.013380218 -0.1272925 0.0034090856 -0.21445197 0.027968876
0.0951979 -0.100827664 0.1800695 0.034815192 -0.49863225 -0.010781739 -0.32663864 -0.040264964
-0.15955116 0.081541054 -0.017765194 -0.3231078 -0.11039093 -0.14173056 -0.19169131 0.066386394
-0.004719008 -0.06375053 0.075245515 0.076878555 -0.12398522 -0.13078609 -0.12828192 -0.067400604
-0.10048815 -0.066156946 -0.15895884 0.022233859 0.03920976 0.026090123 0.07204137 -0.12284178
-0.087794594 0.0800406 -0.08046813 0.08031888 0.06171313 -0.06084946 -0.07793642 -0.1843158
0.04496423 -0.052917223 -0.0037509482 -0.08784657 -0.012931418 -0.09720521 -0.13842127 -0.888506
00000000: 2323 a7bc ed2a bebe b2be b8bd b338 1abe
00000010: f484 77be 985a d33c e478 923c 5a61 5fbd
00000020: 24c5 a6bd c310 06bd 3918 48be b438 5bbc
00000030: f758 02be f76a 5f3b 4c99 5bbe fc1e e53c
00000040: 1ef7 c23d bc7e cebd 2464 383e 609a 0e3d
00000050: ba4c ffbe e4a5 30bc 2e3d a7be e0ec 24bd
00000060: 6161 23be fffe a63d 5088 91bc 636e a5be
00000070: a414 e2bd d121 11be ba4a 44be 97f5 873d
00000080: e9a1 9abb a38f 82bd 521a 9a3d 8172 9d3d
00000090: f7eb fdbd caec 05be 565c 03be 5409 8abd
000000a0: bbcc cdbd 4b7d 87bd 1bc6 22be c823 b63c
000000b0: 6a9a 203d f4ba d53c 6d8a 933d 7994 fbbd
000000c0: a7cd b3bd 53ec a33d 7acc a4bd 3a7e a43d
000000d0: e8c6 7c3d 493d 79bd 219d 9fbd 48bd 3cbe
000000e0: 6a2c 383d bbbf 58bd 78d2 75bb e7e8 b3bd
000000f0: 4cde 53bc 8613 c7bd 4ebe 0dbe 2175 63bf

estimator.4.weight f4 [19, 64]
-0.25489074 -0.6157651 -0.27740294 -0.20908684 0.5914932 0.373648 -0.11783263 -0.78713274
-0.04857941 -0.53642684 0.019757353 0.6274399 0.06672408 -0.6889315 0.46918264 0.2753994
-0.23745266 0.09051732 -0.23020524 0.19877319 -0.12960759 -0.27871108 -0.046354257 -0.25336727
-0.13095061 -0.42042348 0.0048593925 0.38447517 -0.46914044 -0.14304641 0.6057229 -0.046158753
-0.43783337 0.21614529 0.23127815 0.36561617 -0.1237783 -0.28453636 0.16189381 -0.25347015
0.5686059 0.2874087 0.21023038 0.3883045 0.29638898 0.64358264 0.27269962 -0.11021377
-0.52102417 -0.021089153 0.42378736 0.12971742 0.5033391 -0.6420707 0.31604218 0.27400917
-0.5879683 0.27715534 -0.11418184 0.15155476 0.3742122 0.02476641 -0.48841947 -0.032954525
0.11377595 -0.0181591 -0.08075214 -0.064577684 -0.018395659 -0.001659169 0.39332497 0.28049615
0.33480832 -0.11959158 -0.3271132 0.21516599 -0.59116435 0.048863582 0.30924723 -0.16580366
0.25504267 -0.62751865 0.21159504 -0.22291574 -0.08452196 -0.18325014 0.31578904 -0.15638535
0.3984773 -0.01662645 -0.12803346 0.015034914 -0.12416756 -0.38283014 0.13301164 0.5398171
0.38075748 -0.63948435 0.1704995 0.24256288 0.055682078 0.32204452 -0.38144726 -0.3011572
0.29477954 0.19026008 -0.70333695 0.48832616 0.1268363 0.00037056085 0.045759317 -0.35371572
-0.12963016 0.089741126 0.06795684 0.07398079 -0.35932648 -0.12132513 -0.06204084 0.20592137
0.35591736 -0.032691866 0.47867426 -0.51160324 -0.27289253 -0.12857291 -0.20612131 -0.19320375
-0.2019055 -0.034458105 -0.2737181 -0.42184338 -0.020514661 0.39946544 0.36395228 -0.12281694
-0.27769166 0.003896875 -0.6352137 -0.40746248 0.14545017 0.08439768 -0.173472 0.19122453
0.2554165 -0.053912915 0.15734681 0.26884463 -0.44129363 0.1447203 0.0071016178 -0.27154073
0.3421232 -0.5128595 0.332132 -0.7134182 -0.12850918 0.04347899 0.02724257 -0.20404051
0.32186148 0.16989237 -0.25545743 0.0301032 -0.40354437 -0.06515432 -0.15071552 0.025801132
0.03239448 -0.16845752 0.05783247 -0.29659262 -0.045062087 0.104451984 0.16746622 0.33269998
-0.19567539 0.43164212 -0.46192893 0.71509635 0.27670965 -0.19873576 0.40953645 0.50435835
-0.36988002 -0.15589128 -0.04742547 -0.25805998 0.3670127 -0.4399443 0.013255757 0.5483338
-0.4050836 -0.29259792 -0.16156565 -0.21062778 -0.0052597364 -0.18466488 -0.6908545 0.48259258
-0.30646303 0.2850899 -0.03183787 -0.4384298 -0.51665664 1.4787078 0.32200673 -0.5728178
-0.024611311 0.50899273 -0.21342412 -0.40137467 0.22891545 -0.04764294 0.26184455 -0.14310133
0.3489696 -0.7136646 0.25584328 0.29912233 -0.21104513 -0.70211303 0.27911195 -0.29103425
0.5116543 0.3168014 -1.2938957 -0.39657137 0.39906412 -0.12821141 -0.15988493 -0.19119523
-0.6384315 -0.49110615 -0.41760415 -0.24516867 -0.20249997 0.08059929 -0.66829497 0.11489876
0.04961808 -0.21028967 -0.6948837 -0.38549677 -0.48038825 0.18127184 -0.034455653 0.43643332
-0.8927221 -0.6320079 -0.00246069 -0.1987095 0.36245003 0.15943444 -0.08980403 -0.033850256
00000000: 0a81 82be c8a2 1dbf c207 8ebe dc1a 56be
00000010: 196c 173f ca4e bf3e 3c52 f1bd 8881 49bf
00000020: 34fb 46bd 4553 09bf 2cda a13c e79f 203f
00000030: a2a6 883d d15d 30bf b538 f03e 2601 8d3e
00000040: ca26 73be 2561 b93d ecba 6bbe 338b 4b3e
00000050: dab7 04be 38b3 8ebe f6dd 3dbd 5bb9 81be
00000060: eb17 06be bf41 d7be 8a3b 9f3b eed9 c43e
00000070: 2d33 f0be c27a 12be a810 1b3f f610 3dbd
00000080: b22b e0be 3155 5d3e 2ed4 6c3e 0b32 bb3e
00000090: 7a7f fdbd c0ae 91be 7ec7 253e d7c6 81be
000000a0: 2890 113f 3c27 933e a246 573e d9cf c63e
000000b0: 4cc0 973e d5c1 243f 499f 8b3e c2b7 e1bd
000000c0: d761 05bf 29c3 acbc a8fa d83e a5d4 043e
000000d0: d5da 003f bf5e 24bf 48d0 a13e ee4a 8c3e
000000e0: 1785 16bf 4ee7 8d3e 2bd8 e9bd 2c31 1b3e
000000f0: be98 bf3e ede2 ca3c 1e12 fabe 53fb 06bd
00000100: 5e03 e93d 65c2 94bc 6161 a5bd 4e41 84bd
00000110: 7eb2 96bc 7978 d9ba e461 c93e 319d 8f3e
00000120: ff6b ab3e 6eec f4bd 627b a7be 7954 5c3e
00000130: 8c56 17bf 2e25 483d a755 9e3e 6fc8 29be
00000140: f494 823e 10a5 20bf 5fac 583e 0644 64be
00000150: d919 adbd eda5 3bbe 1aaf a13e 7b23 20be
00000160: 3705 cc3e 3134 88bc 341b 03be 0055 763c
00000170: 904b febd 5002 c4be 3434 083e 7431 0a3f
00000180: a5f2 c23e 3fb5 23bf 6c97 2e3e 6762 783e
00000190: e412 643d 05e3 a43e 0e4d c3be 4731 9abe
000001a0: 58ed 963e 8ad3 423e e40d 34bf e305 fa3e
000001b0: 60e1 013e d647 c239 1f6e 3b3d 3a1a b5be
000001c0: c5bd 04be 32ca b73d f52c 8b3d 3e83 973d
000001d0: a4f9 b7be 4f79 f8bd 891e 7ebd 0ddd 523e
000001e0: cd3a b63e e8e7 05bd cb14 f53e 6ef8 02bf
000001f0: 92b8 8bbe 9ea8 03be 7711 53be 34d7 45be
00000200: 51c0 4ebe f123 0dbd c724 8cbe dbfb d7be
00000210: 5d0e a8bc bc86 cc3e f457 ba3e 7387 fbbd
00000220: 9a2d 8ebe b762 7f3b 5d9d 22bf ec9e d0be
00000230: e4f0 143e b1d8 ac3d a5a2 31be 5dd0 433e
00000240: f4c5 823e cad3 5cbd 861f 213e 01a6 893e
00000250: 3df1 e1be 8f31 143e b0b4 e83b 6307 8bbe
00000260: c62a af3e c34a 03bf 350d aa3e 93a2 36bf
00000270: e997 03be 0717 323d cf2b df3c ffef 50be
00000280: 07cb a43e 44f8 2d3e 51cb 82be fc9a f63c
00000290: 5e9d cebe a16f 85bd 2b55 1abe e55c d33c
000002a0: 13b0 043d 2180 2cbe bde1 6c3d fdda 97be
000002b0: 0693 38bd ecea d53d 447c 2b3e a757 aa3e
000002c0: 215f 48be 3200 dd3e f381 ecbe 8e10 373f
000002d0: e3ac 8d3e 6381 4bbe c3ae d13e a11d 013f
000002e0: ea60 bdbe f7a1 1fbe 3641 42bd 7020 84be
000002f0: 17e9 bb3e 6140 e1be ad2e 593c 9b5f 0c3f
00000300: 1e67 cfbe 65cf 95be 7771 25be cfae 57be
00000310: de59 acbb ca18 3dbe d7db 30bf 6016 f73e
00000320: b9e8 9cbe 4ef7 913e 6d68 02bd df79 e0be
00000330: 9c43 04bf 4c46 bd3f 11de a43e 30a4 12bf
00000340: a99d c9bc 594d 023f da8b 5abe fb80 cdbe
00000350: d068 6a3e 3e25 43bd 7d10 863e 2889 12be
00000360: 25ac b23e b9b2 36bf e4fd 823e 9026 993e
00000370: 371c 58be aebd 33bf c3e7 8e3e 7102 95be
00000380: c7fb 023f cb33 a23e 609e a5bf 670b cbbe
00000390: 2252 cc3e da49 03be e0b8 23be afc8 43be
000003a0: 3f70 23bf 4472 fbbe 36d0 d5be 7f0d 7bbe
000003b0: 275c 4fbe 3e11 a53d 6115 2bbf 0b50 eb3d
000003c0: 543c 4b3d 2d56 57be e6e3 31bf d55f c5be
000003d0: 73f5 f5be 539f 393e 5f21 0dbd 3074 df3e
000003e0: 6f89 64bf 45cb 21bf 8743 21bb 817a 4bbe
000003f0: 0d93 b93e c842 233e 2deb b7bd 91a6 0abd

estimator.4.bias f4 [19]
0.09393218 0.039367527 0.1068542 -0.72518396 -0.72891104 -0.64064074 0.8051403 0.7861519
0.77555496 0.64414865 0.77494264 -0.74176383 0.8273826 0.8238248 -0.62288535 0.7085174
-0.74883336 -0.7975852 0.76451343
00000000: 845f c03d d83f 213d 60d6 da3d a8a5 39bf
00000010: ea99 3abf 0801 24bf ad1d 4e3f 4041 493f
00000020: c58a 463f ede6 243f a462 463f 3ce4 3dbf
00000030: 59cf 533f 2fe6 523f 6a75 1fbf 6561 353f
00000040: 8bb3 3fbf 8b2e 4cbf 27b7 433f

actor.0.weight f4 [512, 64]
-0.15036352 -0.059035297 0.3899828 0.08631357 -0.13037573 -0.08008336 0.3434169 -0.35401744
0.07858127 -0.41788298 0.2279732 0.17217076 0.019420724 0.3211198 0.004987079 -0.053241387
-0.2914419 0.057873964 -0.3755305 -0.13444245 -0.021917814 -0.56592 -0.03737874 0.0803329
-0.02681461 0.21712855 0.11684955 -0.13262114 -0.011143195 0.0060172114 0.022532629 -0.009324496
0.0015654584 0.09658141 -0.068251655 -0.038285963 -0.030645069 -0.085248165 0.034410156 0.042269163
0.04458026 -0.07321885 0.009611251 0.02090645 -0.027358703 0.19535045 0.06533613 -0.15501086
-0.19587791 -0.1413715 0.010955438 -0.089617826 -0.0901722 -0.033544086 -0.16385727 -0.026259938
-0.0232549 0.071391895 2.4963038e-05 0.112791374 0.010207181 -0.06913469 -0.014174973 0.0024042763
0.01612407 0.029027188 -0.41808712 -0.061763056 -0.12790926 -0.06296477 0.04472036 -0.14596437
0.26856798 -0.4506532 -0.020422103 -0.16150554 0.3749817 -0.15166004 -0.3049985 -0.27819058
0.036047608 0.047713593 -0.042337306 -0.08119973 -0.052351367 -0.3699011 0.23811464 0.14498232
-0.5749968 0.062006526 -0.15351379 0.31668758 0.1910211 -0.0574797 0.1390441 -0.22162879
-0.023626918 -0.10017235 -0.07032021 -0.027628958 0.19297892 0.0021628758 0.003693518 -0.11951736
-0.031185461 -0.0072666793 0.05854691 -0.0069603566 0.08295289 -0.029132498 0.10999919 -0.110216916
0.00904776 -0.007865695 -0.012291409 -0.09853474 0.049531948 -0.061319012 -0.09516703 -0.03891786
0.12379301 -0.04274486 0.021714462 0.11385132 0.06523421 0.14550547 0.014960354 0.007110948
-0.054553304 0.0038483862 0.117540516 0.14944799 0.27766642 -0.33532077 -0.061737686 0.21385957
-0.04271105 0.32569966 0.07962758 0.1983334 -0.32415882 -0.12763146 -0.044082996 0.064928465
0.20459624 -0.62566084 -0.03944627 -0.34072652 0.0889293 0.008466807 -0.14412916 -0.033237662
-0.22753738 0.0059121163 -0.104632445 -0.27422693 -0.1100926 -0.1165832 -0.04478801 -0.05667272
0.11469486 -0.027123572 -0.010989773 -0.008062235 0.05513623 0.050186917 0.040196747 0.06506536
-0.092556216 0.07152789 0.04689894 0.08623645 -0.019998774 0.03486395 0.035569794 0.09195251
0.052300997 -0.09795558 -0.010894968 0.014686858 -0.07543164 -0.02769165 -0.029818991 0.04667289
-0.08081672 0.09878366 0.05849982 -0.041318245 0.08362884 -0.08002989 -0.046567883 -0.07626192
0.030353447 -0.061755255 0.6878814 -0.31488943 -0.12933084 -0.3754756 0.29343554 0.30200917
0.17987342 0.084582224 -0.083548404 0.4977986 -0.11688702 0.050418735 -0.057103373 0.3079025
0.27707902 0.38055265 -0.05100287 0.24908711 0.04409517 0.018641101 0.03637706 -0.03724211
0.20559269 0.100152284 0.10441072 0.110270545 0.099617675 -0.09112006 0.28239477 0.09106334
-0.0105301505 -0.038915716 -0.00430672 -0.043600086 0.034102302 -0.066501886 0.017464945 -0.0036661131
-0.05038013 -0.018349519 0.007625837 -0.07672297 0.010591806 -0.061912555 0.08392943 -0.17698993
0.10482554 0.10572 0.154164 0.07689819 -0.1231792 0.003924541 -0.10658868 -0.009300438
-0.0011999098 -0.050445646 -0.033584964 0.114925995 -0.065842465 0.15367211 0.16728133 -0.009713609
00000000: e5f8 19be ffce 71bd d3ab c73e 2bc5 b03d
00000010: 3781 05be bf02 a4bd 57d4 af3e c641 b5be
00000020: 38ef a03d c2f4 d5be ce71 693e 884d 303e
00000030: 3618 9f3c d069 a43e a76a a33b a413 5abd
00000040: df37 95be 400d 6d3d 8945 c0be 48ab 09be
00000050: fd8c b3bc 22e0 10bf 731a 19bd 9385 a43d
00000060: 50aa dbbc f256 5e3e d14e ef3d d6cd 07be
00000070: f391 36bc 072c c53b 5996 b83c c5c5 18bc
00000080: 1130 cd3a 79cc c53d 86c7 8bbd bed1 1cbd
00000090: 5e0b fbbc 9796 aebd aaf1 0c3d 6e22 2d3d
000000a0: ca99 363d c4f3 95bd 8278 1d3c 0144 ab3c
000000b0: 5c1f e0bc f309 483e f3ce 853d 2bbb 1ebe
000000c0: 3894 48be b1c3 10be 707e 333c 8d89 b7bd
000000d0: 34ac b8bd 8665 09bd 33ca 27be 151f d7bc
000000e0: 0f81 bebc ea35 923d b767 d137 2aff e63d
000000f0: 053c 273c 7d96 8dbd 253e 68bc 1091 1d3b
00000100: a016 843c 6dca ed3c 840f d6be 42fb 7cbd
00000110: a5fa 02be acf3 80bd b22c 373d af77 15be
00000120: be81 893e 04bc e6be 414c a7bc b561 25be
00000130: 9afd bf3e c54c 1bbe c328 9cbe ff6e 8ebe
00000140: a8a6 133d 546f 433d e269 2dbd 0b4c a6bd
00000150: 636e 56bd ad63 bdbe 53d4 733e 3f76 143e
00000160: fe32 13bf 8efa 7d3d b832 1dbe e024 a23e
00000170: 099b 433e d56f 6bbd 9461 0e3e a8f2 62be
00000180: 3d8d c1bc 2927 cdbd 0b04 90bd 2056 e2bc
00000190: 449c 453e 09bf 0d3b f30e 723b 85c5 f4bd
000001a0: a778 ffbc 531d eebb e2ce 6f3d b413 e4bb
000001b0: 34e3 a93d 47a7 eebc 4147 e13d 68b9 e1bd
000001c0: 0e3d 143c 1edf 00bc e861 49bc 95cc c9bd
000001d0: 03e2 4a3d a529 7bbd efe6 c2bd 5568 1fbd
000001e0: 3187 fd3d 3c15 2fbd 87e2 b13c e22a e93d
000001f0: 8399 853d 63ff 143e 461c 753c f502 e93b
00000200: 4973 5fbd 3535 7c3b 15b9 f03d e508 193e
00000210: 4b2a 8e3e 2aaf abbe a8e0 7cbd 01fe 5a3e
00000220: c8f1 2ebd 1bc2 a63e c913 a33d e917 4b3e
00000230: 25f8 a5be d2b1 02be 5f90 34bd 37f9 843d
00000240: ad81 513e 4f2b 20bf 6992 21bd b573 aebe
00000250: 9120 b63d 5db8 0a3c 9896 13be 3724 08bd
00000260: 8fff 68be 6dba c13b 8949 d6bd 7967 8cbe
00000270: 3b78 e1bd 2cc3 eebd a273 37bd a721 68bd
00000280: 24e5 ea3d 4132 debc 730e 34bc 7717 04bc
00000290: 87d6 613d cc90 4d3d 58a5 243d fd40 853d
000002a0: 1d8e bdbd 377d 923d 1a19 403d bc9c b03d
000002b0: 78d4 a3bc 80cd 0e3d a2b1 113d 9951 bc3d
000002c0: 9239 563d ef9c c8bd cf80 32bc 26a1 703c
000002d0: e77b 9abd 99d9 e2bc f546 f4bc 132c 3f3d
000002e0: 3d83 a5bd 164f ca3d 829d 6f3d 523d 29bd
000002f0: 9945 ab3d b6e6 a3bd f7bd 3ebd 362f 9cbd
00000300: cba7 f83c 14f3 7cbd ff18 303f 3039 a1be
00000310: 4e6f 04be 563e c0be 2f3d 963e f2a0 9a3e
00000320: bd30 383e 7239 ad3d 6d1b abbd 75df fe3e
00000330: 7662 efbd e083 4e3d 3ae5 69bd 65a5 9d3e
00000340: 4ddd 8d3e ccd7 c23e 63e8 50bd b110 7f3e
00000350: 239d 343d 39b5 983c 1d00 153d 2f8b 18bd
00000360: e486 523e a41c cd3d 4ad5 d53d 86d5 e13d
00000370: 5a04 cc3d 279d babd 0c96 903e 6b7f ba3d
00000380: a786 2cbc 1666 1fbd 631f 8dbb 0196 32bd
00000390: dbae 0b3d 2432 88bd a512 8f3c 2c43 70bb
000003a0: 655b 4ebd bb51 96bc 28e2 f93b ef20 9dbd
000003b0: 4189 2d3c 0598 7dbd 31e3 ab3d d93c 35be
000003c0: c6ae d63d ba83 d83d 2bdd 1d3e cc7c 9d3d
000003d0: 6045 fcbd 7099 803b 2a4b dabd dd60 18bc
000003e0: 4b46 9dba 18a0 4ebd 6390 09bd 525e eb3d
000003f0: 6ad8 86bd 395c 1d3e cc4b 2b3e d425 1fbc

actor.0.bias f4 [512]
-0.016626881 -0.078760736 -0.15889646 -0.07666633 0.08646612 -0.22179201 0.07243777 -0.032259997
-0.05913579 -0.033173256 0.08863023 0.14848255 -0.10953714 -0.19530669 -0.105315275 0.047827873
-0.2384727 -0.265308 -0.08756891 -0.041733924 0.013739885 0.07678809 0.06297876 0.011391629
-0.0991956 -0.0044867545 0.010471778 -0.013583651 -0.08587669 -0.0059641977 0.06700196 0.06651037
0.052577436 -0.16879618 0.17073645 0.095857695 0.07742454 -0.079838865 -0.036198553 0.076576784
-0.16374981 0.11920203 -0.15015581 -0.08207359 0.028679011 0.048916887 -0.2181867 -0.17852165
-0.11563971 -0.123351455 -0.03435704 -0.12278969 -0.029353967 0.013257215 -0.0091948 -0.18028343
-0.1464225 0.13645525 -0.11304222 -0.1253829 0.03530585 0.046457402 -0.009236542 -0.18143706
0.0739528 0.030846609 -0.10505183 -0.1377787 0.02212784 0.159317 0.1661593 0.03463176
0.037334092 -0.12012018 0.103812434 -0.13456103 0.13917144 -0.056092665 -0.053779725 0.05184441
0.00061434356 -0.22055207 0.103101864 -0.01798277 -0.13021562 0.022733204 0.014248793 -0.07916728
-0.19465911 -0.026571102 0.027239256 -0.13926591 0.0541864 -0.21069114 -0.32548746 0.050822273
0.10974857 0.0159488 -0.05399438 0.0646304 -0.20796236 -0.003548226 -0.0008648809 -0.009926339
0.10654162 -0.07512407 -0.13072942 0.056662418 0.16355342 0.13379033 0.011340398 0.11508407
0.0033920698 0.106447354 -0.22803319 -0.15667365 -0.17517754 0.08640021 0.021691201 0.033107944
0.15395418 0.21792518 0.10535473 0.19962919 -0.068493664 0.03636456 -0.109710686 0.15458085
-0.15624171 -0.07249863 0.04055006 0.0139083415 0.062752806 -0.004107691 0.19658129 0.089625075
-0.05820536 0.009842387 -0.17351751 0.012050188 -0.008820719 0.07062827 -0.047736153 0.15263265
-0.17674068 -0.10849062 -0.14248475 -0.17838906 0.10047016 0.02582198 -0.16899933 0.0089902235
-0.12082558 0.18466213 0.107860394 -0.033997938 -0.26263916 -0.17852949 -0.05414007 0.21402934
0.00076237496 0.009259582 -0.20550184 -0.06676806 -0.049603295 -0.058959786 0.096985884 0.08078449
-0.061498903 -0.08634351 0.10275486 0.052306704 0.10704642 -0.1528861 -0.066418536 0.11139452
0.0247638 -0.1823237 -0.056636322 0.2159007 -0.05971843 -0.06837927 -0.064360045 0.027962625
-0.1171915 0.06440907 -0.17021798 -0.23582768 0.09170364 -0.010158277 -0.06918777 -0.28546256
-0.053625662 0.012828092 -0.06243931 0.08835659 -0.22277062 0.12949757 -0.19706836 -0.040836275
0.0029719847 -0.28479502 -0.049876597 -0.29943016 0.011769806 -0.113555 -0.13273412 -0.08807181
0.0066465368 0.09366103 -0.1605403 -0.088233754 -0.15150882 -0.042829372 0.021228313 -0.10910546
-0.07801522 0.1625717 -0.20853564 0.07986702 0.1872139 0.1504247 0.0039794603 -0.1917508
0.00045365488 -0.17094195 0.027219303 -0.07243613 -0.16489741 -0.104392596 0.1261473 0.11048792
-0.07571464 -0.021055415 -0.16484459 -0.20155579 0.011606202 -0.2794179 0.041677568 0.03668728
0.023651833 -0.27833778 0.07777347 -0.12561812 -0.1260392 0.05024663 0.058531113 -0.17526184
0.07201779 -0.16464728 0.16350023 -0.01786292 0.033937197 -0.21244048 0.022722058 -0.17626452
00000000: 1935 88bc 4f4d a1bd c1b5 22be 3d03 9dbd
00000010: 2615 b13d 721d 63be 415a 943d 0f23 04bd
00000020: 5f38 72bd aee0 07bd c483 b53d cf0b 183e
00000030: 0255 e0bd 7afe 47be 89af d7bd 29e7 433d
00000040: 3032 74be 73d6 87be 5457 b3bd 31f1 2abd
00000050: 411d 613c 1343 9d3d 02fb 803d f5a3 3a3c
00000060: 1027 cbbd a005 93bb d291 2b3c f68d 5ebc
00000070: 1ee0 afbd 516f c3bb 5338 893d 9736 883d
00000080: 705b 573d e8d8 2cbe 89d5 2e3e 0a51 c43d
00000090: c290 9e3d 8f82 a3bd ef44 14bd 4ad4 9c3d
000000a0: 08ae 27be 3220 f43d 72c2 19be 3316 a8bd
000000b0: 3ff0 ea3c 135d 483d 566c 5fbe 61ce 36be
000000c0: 83d4 ecbd b09f fcbd f8b9 0cbd 2979 fbbd
000000d0: bb77 f0bc ca34 593c c9a5 16bc 389c 38be
000000e0: c8ef 15be edba 0b3e ae82 e7bd 6064 00be
000000f0: de9c 103d 1e4a 3e3d dd54 17bc a3ca 39be
00000100: 9174 973d 07b2 fc3c 6a25 d7bd dc15 0dbe
00000110: 7245 b53c ff23 233e aa25 2a3e 08da 0d3d
00000120: a2eb 183d 9201 f6bd 9d9b d43d 5eca 09be
00000130: f582 0e3e 6cc1 65bd 2148 5cbd ce5a 543d
00000140: e60b 213a 67d8 61be 1227 d33d 9a50 93bc
00000150: 3e57 05be fc3a ba3c c573 693c 7422 a2bd
00000160: b854 47be a4ab d9bc dc24 df3c b99b 0ebe
00000170: 8ff2 5d3d 6bbf 57be 4ba6 a6be 042b 503d
00000180: dcc3 e03d 0fa7 823c 3629 5dbd f15c 843d
00000190: 16f4 54be 5b89 68bb 2db9 62ba 15a2 22bc
000001a0: 7e32 da3d a6da 99bd efdd 05be da16 683d
000001b0: 8c7a 273e 5500 093e 14cd 393c 32b1 eb3d
000001c0: 7d4d 5e3b 1201 da3d 8881 69be 0f6f 20be
000001d0: be61 33be 98f2 b03d bfb1 b13c 329c 073d
000001e0: 2aa6 1d3e c727 5f3e 38c4 d73d 986b 4c3e
000001f0: 6846 8cbd 01f3 143d ffaf e0bd 714a 1e3e
00000200: d4fd 1fbe 297a 94bd d217 263d d0df 633c
00000210: 8b84 803d cf99 86bb 9b4c 493e 5a8d b73d
00000220: be68 6ebd f741 213c 93ae 31be 276e 453c
00000230: c784 10bc 8ea5 903d fc86 43bd bc4b 1c3e
00000240: 82fb 34be 5530 debd 86e7 11be 9fab 36be
00000250: 4dc3 cd3d 9e88 d33c 290e 2dbe bb4b 133c
00000260: 6773 f7bd 1218 3d3e e9e5 dc3d 6c41 0bbd
00000270: a478 86be 6fd0 36be fac1 5dbd 822a 5b3e
00000280: 1eda 473a 80b5 173c 136f 52be b1bd 88bd
00000290: d32c 4bbd d17f 71bd 89a0 c63d 5772 a53d
000002a0: 46e6 7bbd ded4 b0bd 2471 d23d 8e3f 563d
000002b0: 273b db3d 2c8e 1cbe 7106 88bd cf22 e43d
000002c0: 74dd ca3c 10b3 3abe 7dfb 67bd 1315 5d3e
000002d0: 509b 74bd 6e0a 8cbd 33cf 83bd e011 e53c
000002e0: 1902 f0bd e7e8 833d 9f4d 2ebe d07c 71be
000002f0: 1ecf bb3d e76e 26bc 51b2 8dbd 2628 92be
00000300: 95a6 5bbd eb2c 523c 5dc0 7fbd 4df4 b43d
00000310: fb1d 64be 039b 043e 4acc 49be f043 27bd
00000320: a1c5 423b a7d0 91be 674b 4cbd e94e 99be
00000330: 25d6 403c 868f e8bd 74eb 07be fe5e b4bd
00000340: 31cb d93b 5bd1 bf3d ad64 24be e6b3 b4bd
00000350: 2125 1bbe da6d 2fbd 00e7 ad3c af72 dfbd
00000360: 72c6 9fbd 3279 263e 5e8a 55be 5291 a33d
00000370: 00b5 3f3e ef08 1a3e 2266 823b 525a 44be
00000380: 87d8 ed39 680b 2fbe 04fb de3c 6559 94bd
00000390: deda 28be c9cb d5bd c22c 013e 7e47 e23d
000003a0: 4710 9bbd 687c acbc 05cd 28be a464 4ebe
000003b0: f127 3e3c dd0f 8fbe 19b6 2a3d 6745 163d
000003c0: 7dc1 c13c 4a82 8ebe b247 9f3d 09a2 00be
000003d0: 6c10 01be 69cf 4d3d 52be 6f3d d777 33be
000003e0: 107e 933d 4c99 28be 9b6c 273e 4255 92bc
000003f0: bb01 0b3d ff89 59be 9c23 ba3c b07e 34be

actor.2.weight f4 [256, 512]
-0.30271333 0.17631598 -0.05330492 -0.031361613 -0.26461563 -0.23668619 -0.1210364 -0.1672631
-0.05992795 -0.19565465 -0.017718503 -0.1883201 -0.074402645 0.05037017 -0.11220508 -0.025940424
0.030734133 0.23832224 0.15489496 0.06674664 -0.30382958 -0.04927519 0.15227789 -0.15421516
0.10976904 -0.077403754 -0.1318917 0.31210488 0.19640559 -0.06284843 0.20471345 -0.11467577
-0.3201097 -0.03083604 -0.21875015 0.031872917 0.09727771 -0.08432818 0.065987624 -0.04444339
0.2685875 -0.21910433 0.052619305 0.013959906 0.15591086 0.16226742 0.2917368 0.064591914
0.25362605 -0.14813903 0.1733378 -0.038616035 -0.02668679 -0.10466591 -0.23730968 -0.028656118
-0.00033586565 -0.03468731 0.1679301 0.063727275 0.109286465 0.059657738 -0.0027041887 -0.24402809
-0.12877822 0.060468804 0.0135922795 -0.21349187 -0.09331064 -0.117653176 -0.13447894 0.21390654
-0.056938525 0.06313581 0.011160324 0.37340018 -0.143322 0.12808472 -0.17856525 0.06131874
-0.052893884 0.27761826 0.118944824 0.15368938 -0.15168035 -0.11652202 0.17167895 0.41363475
0.069420695 -0.4223783 -0.15567961 -0.08616242 -0.11834917 0.20519601 -0.0099938465 -0.022359626
-0.078674644 0.059233204 -0.17604968 -0.11079263 -0.0038568447 0.09377992 -0.023519812 0.31334147
-0.11917873 0.106466815 0.08774594 -0.12110131 -0.23785235 -0.1475422 -0.029439785 -0.16437392
-0.22606659 0.007862448 0.04882676 0.34164226 0.39986423 -0.100564964 -0.13187534 -0.1041037
-0.3007476 -0.16201416 0.15348598 -0.13216072 -0.24373299 0.019321112 -0.15022366 -0.023592025
-0.09022381 0.008430373 -0.19504744 -0.021163989 -0.18565379 0.18123122 0.014081086 0.0639686
-0.11329637 -0.010987164 0.2905476 0.27975428 0.088838086 -0.1788939 0.04121027 -0.07106723
-0.05005953 -0.2073468 0.29286924 0.13847075 0.203939 0.30060706 0.21127863 0.059420902
-0.11891602 0.121377744 -0.022467963 -0.07905699 0.16417778 -0.024566706 -0.16924226 -0.1319217
0.081905454 -0.039033256 0.12560672 0.15532063 0.15629739 0.05385152 -0.20862764 -0.026560336
0.080172 -0.037838 -0.1341976 -0.037570942 -0.1935752 -0.0043745483 0.12839434 -0.025167463
-0.17249085 0.1390453 0.08460388 0.07380179 0.027870517 0.15609683 0.118061535 -0.014337366
-0.046609104 0.14705893 0.23848349 0.18339892 -0.27724436 -0.1717434 0.18775605 0.2801598
-0.15428062 0.13310681 -0.02908508 0.09149441 0.05231762 -0.06377485 -0.3890514 -0.01606757
0.1059725 0.013003361 -0.20155337 0.15119047 0.08968192 -0.10796668 -0.40066388 -0.016313823
0.04056881 -0.35309184 0.10984166 0.28694072 -0.0017598112 0.09663506 -0.177639 0.10045837
-0.015015808 -0.57925296 0.09999931 -0.18987142 -0.035707183 0.048847783 0.0019989822 0.10109824
-0.22322339 0.17403482 -0.20172662 0.24259101 0.080782145 -0.0012460939 -0.027817046 -0.042733915
-0.19795807 -0.16230766 -0.12860563 0.08356849 0.11111622 -0.040739734 -0.2835445 -0.15562823
-0.083347 0.036561765 0.03847533 -0.0491129 0.12541865 -0.12617493 -0.049568668 0.028608056
-0.04346603 0.122266695 -0.039549354 0.10993981 0.0062237172 -0.14668104 0.03787589 -0.15588422
00000000: 3efd 9abe 2d8c 343e 4356 5abd 0975 00bd
00000010: b37b 87be dd5d 72be efe1 f7bd 0547 2bbe
00000020: 0377 75bd b159 48be 6526 91bc fcd6 40be
00000030: 6a60 98bd f450 4e3d c7cb e5bd 0381 d4bc
00000040: 26c6 fb3c bf0a 743e c99c 1e3e 76b2 883d
00000050: 8d8f 9bbe c8d4 49bd bcee 1b3e 94ea 1dbe
00000060: 97ce e03d dc85 9ebd 9e0e 07be 36cc 9f3e
00000070: 8c1e 493e adb6 80bd 67a0 513e 21db eabd
00000080: 6be5 a3be dd9b fcbc 0a00 60be 2d8d 023d
00000090: 8939 c73d 41b4 acbd 8524 873d 460a 36bd
000000a0: 4d84 893e e35c 60be 5787 573d 17b8 643c
000000b0: 19a7 1f3e 6e29 263e 875e 953e c448 843d
000000c0: 46db 813e c2b1 17be 777f 313e d92b 1ebd
000000d0: 419e dabc 155b d6bd 4f01 73be 3cc0 eabc
000000e0: 2017 b0b9 4814 0ebd def5 2b3e 7283 823d
000000f0: 95d1 df3d ac5b 743d c238 31bb 80e2 79be
00000100: 70de 03be 23ae 773d 27b2 5e3c 9d9d 5abe
00000110: a619 bfbd 26f4 f0bd d9b4 09be 510a 5b3e
00000120: 5f38 69bd 594d 813d cbd9 363c 4f2e bf3e
00000130: 01c3 12be a428 033e cfd9 36be 5c29 7b3d
00000140: 42a7 58bd fb23 8e3e 5899 f33d c060 1d3e
00000150: 1852 1bbe 19a3 eebd 9bcc 2f3e efc7 d33e
00000160: 702c 8e3d f841 d8be 7a6a 1fbe ec75 b0bd
00000170: 0d61 f2bd e71e 523e 3bbd 23bc 892b b7bc
00000180: 2c20 a1bd 849e 723d 5e46 34be 3fe7 e2bd
00000190: 1ec3 7cbb b00f c03d 9fac c0bc 4b6e a03e
000001a0: fa13 f4bd 460b da3d 25b4 b33d f703 f8bd
000001b0: 918f 73be 4d15 17be b42b f1bc a351 28be
000001c0: 007e 67be 7fd1 003c 92fe 473d bceb ae3e
000001d0: 01bb cc3e 01f5 cdbd 540a 07be 5234 d5bd
000001e0: 97fb 99be 0ae7 25be 6e2b 1d3e 2455 07be
000001f0: 2495 79be 4f47 9e3c 3bd4 19be 1044 c1bc
00000200: 43c7 b8bd 8c1f 0a3c 84ba 47be 1a60 adbc
00000210: 071c 3ebe ad94 393e 5bb4 663c f801 833d
00000220: ed07 e8bd 8203 34bc a8c2 943e f43b 8f3e
00000230: bef0 b53d f62f 37be 1acc 283d b28b 91bd
00000240: 390b 4dbd b852 54be f5f2 953e 47cb 0d3e
00000250: 63d5 503e 2be9 993e 6d59 583e 5563 733d
00000260: 3e8a f3bd e594 f83d bc0e b8bc a2e8 a1bd
00000270: 381e 283e 1e40 c9bc d84d 2dbe 7b16 07be
00000280: 0cbe a73d 56e1 1fbd 0c9f 003e 5f0c 1f3e
00000290: 6c0c 203e 6993 5c3d 7ca2 55be 1095 d9bc
000002a0: 3831 a43d 05fc 1abd 186b 09be fde3 19bd
000002b0: 9438 46be 5f58 8fbb ce79 033e ff2b cebc
000002c0: 71a1 30be e461 0e3e cd44 ad3d 6525 973d
000002d0: b650 e43c d9d7 1f3e 3fca f13d 46e7 6abc
000002e0: 30e9 3ebd 9e96 163e 0435 743e edcc 3b3e
000002f0: f9f2 8dbe 80dd 2fbe 1f43 403e 1b71 8f3e
00000300: bdfb 1dbe 274d 083e d543 eebc 6c61 bb3d
00000310: 004b 563d 639c 82bd bf31 c7be 23a0 83bc
00000320: 1c08 d93d 0d0c 553c 0264 4ebe add1 1a3e
00000330: 28ab b73d a21d ddbd d123 cdbe 91a4 85bc
00000340: 7b2b 263d 74c8 b4be aaf4 e03d e5e9 923e
00000350: 77a9 e6ba 9ae8 c53d ffe6 35be 1ebd cd3d
00000360: dd04 76bc ec49 14bf 70cc cc3d a76d 42be
00000370: b241 12bd 9d14 483d 5b01 033b 980c cf3d
00000380: ac94 64be 2f36 323e 6c91 4ebe c769 783e
00000390: 1c71 a53d f953 a3ba 93e0 e3bc c209 2fbd
000003a0: 85b5 4abe fb33 26be 32b1 03be f525 ab3d
000003b0: e790 e33d b5de 26bd bf2c 91be 025d 1fbe
000003c0: d5b1 aabd cac1 153d 4f98 1d3d 9c2a 49bd
000003d0: bf6d 003e 0034 01be 8408 4bbd 715b ea3c
000003e0: 7009 32bd f666 fa3d 81fe 21bd 2028 e13d
000003f0: 53f0 cb3b 8e33 16be c023 1b3d 1da0 1fbe

actor.2.bias f4 [256]
-0.21696836 -0.12993722 -0.077263154 -0.053162403 -0.0565315 -0.17282072 -0.09387428 -0.040678013
-0.17515741 -0.04508163 -0.11589137 -0.22829963 -0.24026155 -0.14032951 -0.021240523 -0.10428017
-0.17798476 -0.046015743 -0.14116482 -0.086289674 -0.0115409605 -0.14481083 -0.15659155 -0.15767485
-0.06682769 -0.059838366 -0.117084 -0.06937769 -0.064203314 -0.06261813 -0.14246948 -0.076061465
-0.06513807 -0.011122432 -0.18715212 -0.1867559 -0.20124869 -0.022247655 -0.044745266 -0.17607829
-0.008575405 -0.10400671 -0.08608669 -0.20709401 -0.11007262 -0.06823296 -0.1745364 -0.06396052
-0.092118405 -0.098646104 -0.049574472 -0.1537721 -0.04257319 0.015496751 -0.09869068 -0.016936399
-0.09138605 -0.16899467 -0.027901724 0.078559935 -0.12124478 -0.057992656 -0.24376363 -0.045309532
-0.1304066 -0.28811952 -0.05568404 -0.095964186 -0.09411003 -0.14310254 0.045468275 -0.014564329
-0.05772076 -0.09210495 -0.092926785 -0.20413896 -0.16269766 -0.096322134 -0.06546662 -0.089391924
-0.11155137 -0.08741036 0.024702828 -0.15334968 -0.012370946 -0.06328046 -0.121431656 -0.055216644
-0.16756362 -0.022747658 -0.15776064 -0.08640191 -0.06962445 -0.022859719 -0.13336441 -0.36764175
-0.29382825 -0.029429225 -0.003704362 -0.038854618 -0.057389665 -0.17984049 -0.099764764 -0.023727736
0.04225814 -0.15492561 -0.11163682 -0.11877788 -0.05013121 -0.083557904 -0.19355483 -0.49542135
-0.07913875 -0.12353451 -0.10611322 -0.105578676 0.037273977 -0.053515553 -0.15967402 -0.22646703
-0.10920112 -0.062628 -0.06992076 -0.06344826 -0.26239556 0.009224037 -0.021000598 -0.09934035
-0.021256935 -0.040544115 -0.04305803 -0.49159977 -0.07811278 -0.09422927 -0.080359414 -0.028880037
-0.18459812 -0.12328709 -0.1409394 -0.24400999 -0.09456955 -0.21828271 -0.07387017 -0.09402027
-0.09651794 -0.053469393 -0.16895774 -0.11773842 -0.024435168 0.026937544 -0.16254126 -0.014140068
-0.11606563 -0.19049264 -0.08224722 -0.012004213 -0.13846108 -0.090072244 -0.10137325 -0.08000422
-0.06527598 -0.22262597 -0.124926545 -0.13524294 -0.19264835 -0.17119122 -0.08275628 -0.31987035
-0.011283111 -0.15197894 -0.062477365 -0.014152845 -0.023400381 -0.1369701 -0.15089582 -0.14091033
-0.058268927 -0.11348854 -0.107215114 -0.078606635 -0.16288148 -0.08896104 0.021879561 -0.19507104
-0.11131132 0.009265902 -0.035412833 -0.16848236 -0.16512224 -0.068300664 -0.09814645 0.0029651115
-0.23212333 -0.05078344 -0.17468752 -0.063205585 -0.11659007 -0.13910842 -0.23694514 -0.114344865
0.0033942251 -0.10031889 -0.057915036 -0.12989847 -0.054060012 -0.08640255 0.023427412 -0.13115665
-0.050784506 -0.05571906 -0.12428047 -0.16916303 -0.1545903 -0.018839892 -0.15681517 -0.16759996
-0.071282424 -0.09179956 -0.033504386 -0.052321568 -0.2118174 -0.07548395 -0.15214425 -0.09780922
-0.09079756 -0.039909452 -0.2202531 -0.0941849 -0.04461362 -0.13825023 -0.08448872 -0.18610801
-0.08702849 -0.017268334 -0.21267273 -0.096831426 0.026108572 -0.10283363 -0.16216971 -0.13821234
-0.18645681 -0.07513696 -0.072624326 -0.07196931 -0.11482314 -0.06446828 -0.119154975 -0.1168182
-0.083828434 -0.21531144 -0.1328016 -0.096232586 -0.13328494 0.012401531 -0.058852613 -0.06532262
00000000: f42c 5ebe 430e 05be 253c 9ebd d2c0 59bd
00000010: 938d 67bd eaf7 30be 2941 c0bd fd9d 26bd
00000020: 775c 33be 84a7 38bd 7458 edbd 61c7 69be
00000030: 2007 76be 8ab2 0fbe 9b00 aebc d790 d5bd
00000040: a341 36be 017b 3cbd 838d 10be a4b8 b0bd
00000050: 4c16 3dbc 4a49 14be 8959 20be 8475 21be
00000060: f5dc 88bd 1319 75bd bcc9 efbd e415 8ebd
00000070: 077d 83bd ef3d 80bd 85e3 11be 1dc6 9bbd
00000080: 1c67 85bd dc3a 36bc cea4 3fbe f03c 3fbe
00000090: 2314 4ebe b740 b6bc d046 37bd de4d 34be
000000a0: db7f 0cbc 7801 d5bd 384e b0bd 7410 54be
000000b0: c16d e1bd b9bd 8bbd acb9 32be bcfd 82bd
000000c0: 93a8 bcbd f806 cabd 9a0e 4bbd 6f76 1dbe
000000d0: 3a61 2ebd 16e6 7d3c 571e cabd 34be 8abc
000000e0: 9c28 bbbd f00c 2dbe 2892 e4bc 08e4 a03d
000000f0: 2f4f f8bd b589 6dbd 2c9d 79be 7d96 39bd
00000100: 4f89 05be 6784 93be f314 64bd df88 c4bd
00000110: c2bc c0bd 7989 12be f13c 3a3d 399f 6ebc
00000120: 9b6c 6cbd 85a1 bcbd 6650 bebd ce09 51be
00000130: 379a 26be 8a44 c5bd 5d13 86bd 1d13 b7bd
00000140: 0b75 e4bd 3404 b3bd 965d ca3c b307 1dbe
00000150: 82af 4abc 3099 81bd 29b1 f8bd d92a 62bd
00000160: cc95 2bbe 4c59 babc 018c 21be 7cf3 b0bd
00000170: 4397 8ebd 4e44 bbbc ae90 08be 8a3b bcbe
00000180: a870 96be 8f15 f1bc e2c4 72bb 0526 1fbd
00000190: 6d11 6bbd 1b28 38be 7851 ccbd ab60 c2bc
000001a0: df16 2d3d d2a4 1ebe d8a1 e4bd d141 f3bd
000001b0: 6256 4dbd 6820 abbd 3d33 46be dea7 fdbe
000001c0: 7f13 a2bd a9ff fcbd e351 d9bd a239 d8bd
000001d0: 99ac 183d 2033 5bbd 9681 23be f9e6 67be
000001e0: d6a4 dfbd 1c43 80bd 9e32 8fbd 29f1 81bd
000001f0: b658 86be 6a20 173c 7209 acbc f472 cbbd
00000200: 0623 aebc 9611 26bd 9e5d 30bd f7b2 fbbe
00000210: 98f9 9fbd 47fb c0bd 7a93 a4bd d495 ecbc
00000220: 4a07 3dbe f17d fcbd 6b52 10be c1dd 79be
00000230: aead c1bd 8185 5fbe 3e49 97bd b38d c0bd
00000240: 33ab c5bd b902 5bbd 4203 2dbe d720 f1bd
00000250: 432c c8bc 20ac dc3c 3771 26be beab 67bc
00000260: d1b3 edbd 8110 43be 3b71 a8bd 52ad 44bc
00000270: bec8 0dbe cc77 b8bd c79c cfbd 41d9 a3bd
00000280: 6aaf 85bd 10f8 63be 7dd9 ffbd 207d 0abe
00000290: 9c45 45be c04c 2fbe 207c a9bd 0cc6 a3be
000002a0: ccdc 38bc 5ea0 1bbe 44e8 7fbd 56e1 67bc
000002b0: 28b2 bfbc e441 0cbe 6f84 1abe cc4a 10be
000002c0: 66ab 6ebd ae6c e8bd 9993 dbbd 84fc a0bd
000002d0: 67ca 26be 3531 b6bd c43c b33c b4c0 47be
000002e0: 30f7 e3bd 03d0 173c 0c0d 11bd a486 2cbe
000002f0: ce15 29be 38e1 8bbd 0201 c9bd 5152 423b
00000300: bdb1 6dbe 4c02 50bd 49e1 32be ee71 81bd
00000310: c6c6 eebd 7072 0ebe bfa1 72be a42d eabd
00000320: a671 5e3b fd73 cdbd 5138 6dbd 1b04 05be
00000330: 086e 5dbd d2f3 b0bd d8ea bf3c ee4d 06be
00000340: 6a03 50bd ab39 64bd c286 febd 1339 2dbe
00000350: eb4c 1ebe 1e56 9abc 2894 20be 539f 2bbe
00000360: 85fc 91bd 6801 bcbd e53b 09bd 244f 56bd
00000370: a9e6 58be 5497 9abd b4cb 1bbe 3350 c8bd
00000380: 12f4 b9bd 1878 23bd 078a 61be 03e4 c0bd
00000390: c5bc 36bd 7891 0dbe 6c08 adbd 1993 3ebe
000003a0: fe3b b2bd 5276 8dbc e1c6 59be 8e4f c6bd
000003b0: a5e1 d53c 709a d2bd d10f 26be 8987 0dbe
000003c0: 89ee 3ebe 68e1 99bd 10bc 94bd a564 93bd
000003d0: 6528 ebbd f207 84bd 8607 f4bd 613e efbd
000003e0: 3eae abbd 9a7a 5cbe 25fd 07be 9715 c5bd
000003f0: d97b 08be cb2f 4b3c 700f 71bd dec7 85bd
