policy/Himloco/policy_6_12.onnx (onnx, 978188 bytes, 14 tensors)

estimator.0.weight f4 [128, 270]
00000000: 3e72 943c 5bf4 bbbc 2905 86bd bf2e e53d
00000010: cdfc 88be d582 cc3d 32d8 9f3d 3a16 883d
00000020: 2df1 90bc 0577 9b3e ee99 0abd d572 a7bd
00000030: a8d8 373e 4b5d 1e3e c2c7 073e 2845 e9be
00000040: 3d09 bdbe 6b86 073f 08b4 b43f c036 cebe
00000050: 47f6 65bf 8338 29be f2ca 0f3e 7b18 793d
00000060: b7b2 b2bd 2d36 583c ca7e 2fbc 57e4 b23c
00000070: d393 80bc 7e57 b0bd 95b2 6fbd d0c2 2f3e
00000080: 8164 193d 2918 053c db49 9fbc 51bd 8e3c
00000090: 1c90 a1bc 3723 033c 0912 cbbc 7e86 653b
000000a0: 3ded 103d b5ae a5bc f3b8 c3bc 35da 9c3d
000000b0: 1f4a 7c3c 8b64 77bc fe0c a93c 3dd7 af3c
000000c0: 593e 59be 88aa 2ebe 0a9a f0bc 8265 6fbd
000000d0: aab2 1a3d 18a8 a6bb f0d8 b03c 4c31 ef3d
000000e0: fb31 d6bd ff31 7e3e 9a75 263d 184b 193e
000000f0: cd00 c83d ec75 08be 2395 853e fcac 013f
00000100: cac3 00bf 535a e7be ce7d f63c 0ccf 493b
00000110: 1191 a4bc 794b c03d af68 23be c038 af3c
00000120: b336 073e 57ad 05bd 7d83 1fbd 69f3 e23e
00000130: 253c a4bf 5eb7 7ebf 5d45 59bd ff87 e5bc
00000140: be5d 9e3d 3b65 b3bc 96ff 043d ebc4 1ebd
00000150: 7bb6 993c 8a40 a03d ee81 9bbd 1ac8 9d3d
00000160: 0383 67bd bdb2 7a3e c76c 353d 16bb c23c
00000170: bd22 073d b488 26be 023f 983e e986 2bbe
00000180: 8bf3 cebd 335a cdbb 4ee3 c7bc 03df 053e
00000190: 317a 1e3e b2d4 95bd fd10 e03c 0100 e1bc
000001a0: 9f45 a3bd 1d37 633e e902 00bd 9f4b 9ebd
000001b0: 4316 bbbe 6376 ab3d c6d6 5d3d f432 903e
000001c0: cfd7 9bbc 9e5e 9ebd df35 b83c eb82 10be
000001d0: ccb9 9ebc f7b6 c13d f344 13be df1b f1bc
000001e0: 483c 0f3d 19db 90be 97fd 34be 8839 c1bd
000001f0: 8916 053c 4f36 8c3d 7e7c 61bd 1591 263d
00000200: ebe7 12bb bfe7 f0bb 6ee3 613d 6740 3abd
00000210: 9d72 57bc c2cd 653b 2514 113e 7764 dc3b
00000220: 9a3d 153d 26c6 db3d b845 5abd c62e 2b3e
00000230: 44be fdbd 9115 fabd a25d 24bd 720c 773d
00000240: 07a4 473e 9fcd bcbc d97b dbbd 35e2 c1bc
00000250: 9645 a9bd f8f7 e6bd adb1 623e 7ca3 373d
00000260: b205 21be b654 21bf 0836 213e 97cc 193e
00000270: fe6f 4f3e e302 5abb ecde 24bd 5256 1b3d
00000280: 5344 f9bd fe47 2ebd 9b1f af3d 8cb8 85bd
00000290: 72e3 77bc 8310 76be e1d0 d23e 6c7c 493e
000002a0: 16a5 6ebd ee47 5e3c 8f71 b13c 5d2a 0bbc
000002b0: aabd 93bc 60eb bb3c aeb0 57bc ffa4 913b
000002c0: de40 75bc 6458 40bd 68d1 073d a84a 2ebc
000002d0: 1597 a6bc 281b c0bc 1bbd 7b3d 4f88 0f3c
000002e0: 8613 773a aaf9 96bd 54c9 5cbd 097f 8cbc
000002f0: 22ea 8c3d 981f 313d 1629 2cbd d062 d2bd
00000300: c9fe 103d e21d f4bd 4ecc e9bc 3672 0d3e
00000310: 59db 953c c45d 23bd 32fd b1be 1933 c63d
00000320: e909 8b3d e1b5 8f3c 239b ab3c ae84 d33b
00000330: 85f7 9c3d 2e19 8cbd dd6c e2bb bc0e 963c
00000340: 30ee c7bb fd4a 68ba 5ac9 dcbd 64a1 0c3e
00000350: 3f80 3e3d bbc1 e2bc a1b9 043c 87f1 cbbb
00000360: 0c74 b73a 969d 93bc 3691 03bc a5ff 0cbc
00000370: 5ec9 bebb b39f f83a c325 89bc 25fb 033c
00000380: 2eac 9abc f2e9 00be d797 02be 429e 2e3e
00000390: 0aee 7cbc 5c96 f03c 6e21 9dbd 3c20 013d
000003a0: 7789 0a3d f865 b13d b0d7 fe3d 88e7 aebd
000003b0: ac25 723d f37f 883d 1332 07be fe52 e53d
000003c0: 1626 9a3d 5889 c7bd c778 aa3d ca69 a3bd
000003d0: ce5d 503e 59e0 bebd 4b8c 1fbc f787 003d
000003e0: 27b7 f4b9 1782 eb3c ad2f c8bb ce03 2fbc
000003f0: fc17 0bbd 6800 1fbb 71f2 2dbc a3d9 1e3c
0.018120881 -0.022943666 -0.06543953 0.11190557 -0.26755372 0.09985892 0.07804908 0.066448644
-0.017693127 0.30364242 -0.033838205 -0.08176199 0.17953742 0.15465276 0.13259795 -0.45560575
-0.3692111 0.5293948 1.4117441 -0.40276146 -0.89828914 -0.16525464 0.14042261 0.060814362
-0.087254934 0.01319651 -0.010711381 0.021837397 -0.015695488 -0.08610438 -0.05851992 0.17164159
0.037449364 0.008123436 -0.019444397 0.017424257 -0.019722037 0.008004001 -0.024788873 0.003502279
0.035382498 -0.020224908 -0.023891902 0.07658807 0.015398531 -0.015099655 0.020636078 0.021464938
-0.2121519 -0.1705724 -0.029370327 -0.058446415 0.037768044 -0.0050859563 0.021587819 0.116793245
-0.10458752 0.2482376 0.040639497 0.14970052 0.09765778 -0.13326234 0.26090345 0.5065458
-0.5029875 -0.451861 0.030089285 0.0030793576 -0.020088704 0.09389395 -0.15957902 0.021389365
0.1320446 -0.032636013 -0.038943756 0.44326332 -1.2830855 -0.99498546 -0.053044666 -0.02801895
0.07732724 -0.021898856 0.03247031 -0.038762014 0.018763771 0.0782481 -0.075931415 0.07704182
-0.056521427 0.24482246 0.04429319 0.02377085 0.032992113 -0.16263086 0.2973557 -0.16750683
-0.10105046 -0.006266856 -0.02440038 0.13073353 0.154763 -0.07315959 0.02735185 -0.027465822
-0.079722635 0.22188993 -0.031252775 -0.07729267 -0.36540422 0.0837219 0.054159902 0.28163874
-0.019023804 -0.077328905 0.022486625 -0.14112441 -0.019375704 0.09458726 -0.14381771 -0.029432235
0.034969598 -0.28292158 -0.17674862 -0.09434801 0.008123049 0.06846296 -0.055050366 0.040665705
-0.0022416066 -0.007351845 0.055148534 -0.045471575 -0.0131498845 0.0035065268 0.14167841 0.0067258435
0.0364357 0.10731153 -0.053289145 0.16717061 -0.12389806 -0.12211145 -0.040128358 0.060314603
0.19496165 -0.023047267 -0.107169814 -0.023667434 -0.082652256 -0.11277765 0.2213809 0.044833645
-0.15724829 -0.63019884 0.15743268 0.15019451 0.20257565 -0.003326588 -0.040251657 0.03792412
-0.12171235 -0.042549126 0.0855095 -0.0652934 -0.015129911 -0.24029736 0.41174987 0.1967637
-0.058262907 0.013566954 0.021660594 -0.008493987 -0.018034775 0.022939384 -0.013164682 0.004444718
-0.014969079 -0.046959296 0.03315869 -0.010637917 -0.020335713 -0.02345045 0.061459642 0.008760526
0.00094252115 -0.073718384 -0.05390294 -0.017150419 0.06880595 0.04324302 -0.04203137 -0.10272753
0.035399232 -0.11919762 -0.028539803 0.138131 0.01829307 -0.039884344 -0.34763485 0.09677715
0.067889996 0.017542781 0.020947998 0.0064550256 0.07664398 -0.0684074 -0.00690995 0.018317573
-0.006101392 -0.0008861272 -0.10780592 0.1373344 0.046509024 -0.027680269 0.008100898 -0.0062238607
0.0013996377 -0.018019479 -0.008030226 -0.008605872 -0.0058223447 0.0018968493 -0.016741639 0.008055483
-0.01888093 -0.12589243 -0.12753235 0.17052558 -0.015437612 0.029368572 -0.07672392 0.03152488
0.033822503 0.08662027 0.12443483 -0.08540255 0.059117958 0.066650294 -0.13202696 0.1119747
0.075267956 -0.09742993 0.08323818 -0.07979162 0.20348284 -0.09320135 -0.009738038 0.031379666
-0.00046675766 0.028748555 -0.006109199 -0.010682059 -0.03395842 -0.0024261717 -0.010616885 0.009695443

estimator.0.bias f4 [128]
00000000: 5df9 023b 02f1 aabd 0faf a6bd cc33 50be
00000010: 92c5 86be 39fe d3bd dcb6 9ebd 84c5 d93d
00000020: 6b1a 67bb 31fa ea3d 0d66 f73c 0f60 79bd
00000030: e078 33bd 4f85 a53d aee3 83bd a2b1 3dbe
00000040: e301 0d3e e173 2e3d 697f ea3d 3c0e acbe
00000050: b73a 11bc e84c 603c e680 f03d ef1c 303d
00000060: 43d0 80be 6659 09be d75f 273d 962c 34bd
00000070: 6472 bdbd faa6 8b3d 08ba 043e 82ce 12be
00000080: 8e6b 0abe 4c9b 95be 3557 bf3c 9ddc cabd
00000090: f391 02be 290d 533e 9ac7 14be 5f9f 0dbe
000000a0: dcde 61bd fb3d 703c f652 4e3d ecc5 13bf
000000b0: 321a 16be 49b7 d6bd a873 493d 6f8a 46bd
000000c0: 751a 2fbe 1acf 26bd 332b c3bc 66b1 083d
000000d0: f517 de3d 46f0 90bd 626b 19bd 88b6 e0bd
000000e0: 7a18 cf3b 909e 3dbe abb9 c3bd 8e46 7ebd
000000f0: cf6b 733d 3d0c 5ebe 1b7a de3d 6d1d 91be
00000100: ad26 1abe 14f0 0eb8 d205 e6bb a69d 45be
00000110: 3220 18be ed80 dc3d 8ac3 f73d 286c 283d
00000120: 83f4 9ebd d6b2 ebbd d1f2 1abd 9ec2 01be
00000130: c14c b2bd 936a 5a3e ce28 3eb9 84b4 bfbd
00000140: d018 be3c 79f6 a2bd 51a2 eb3c 357d 5d3d
00000150: 4b83 083e 7a18 ddbd 31ba c5bc 520b 50be
00000160: 887a cdbe 4361 243c 7c77 cfbc 4fe8 a83e
00000170: 485f 1bbe baa7 08bc 21b7 15be 3d77 033e
00000180: a352 2dbe 8548 273d 678a c23d 033b 14bd
00000190: ab60 f0bc 82d1 8cbc cfb7 173e 8986 f13c
000001a0: c52b fbbd bbd1 34be a3c8 87bd bb84 63bd
000001b0: 2a4e 0bbd 1ef7 783d 9bfb a33c 93e5 f6bc
000001c0: b595 92be b0eb 48be 9a7d 1d3d 59c3 2dbe
000001d0: 8594 33bb d23e 643c 4e62 f43c 92a7 633d
000001e0: 0630 b4bd 0a9e 1bbe 1910 f03d 4496 acbe
000001f0: f31d 7dbe 4789 6fbd 9a03 bb3d 7cdc fbbd
0.0019985058 -0.0834675 -0.081388585 -0.20332259 -0.2632261 -0.103512235 -0.077497214 0.10633376
-0.003526355 0.114735015 0.030200029 -0.060882624 -0.043816447 0.08082067 -0.06439911 -0.18524793
0.13770251 0.04259098 0.11450083 -0.3360461 -0.008864096 0.013690211 0.117433354 0.042996343
-0.2515889 -0.13413009 0.040862884 -0.043987833 -0.09250334 0.068189576 0.1296159 -0.14336589
-0.13517591 -0.29220045 0.023357013 -0.0990536 -0.12750988 0.20610489 -0.14529267 -0.13830326
-0.055144176 0.014663215 0.050372086 -0.5772388 -0.1465843 -0.104841776 0.049182564 -0.048471864
-0.17099936 -0.04072485 -0.02382431 0.033372305 0.10844413 -0.070770785 -0.037455924 -0.10972315
0.0063200565 -0.18517518 -0.09556898 -0.062079005 0.059428986 -0.21684356 0.108631335 -0.28342763
-0.15053816 -3.407903e-05 -0.007019737 -0.1929842 -0.14856032 0.10766778 0.12097843 0.04111877
-0.07761481 -0.115087196 -0.037829224 -0.12671897 -0.08706046 0.21329717 -0.00018135013 -0.093606025
0.02320519 -0.07957167 0.028763922 0.054074485 0.13331334 -0.10795684 -0.024136635 -0.20316818
-0.40132546 0.010032955 -0.02532553 0.32989737 -0.15173066 -0.00834077 -0.1462064 0.12838455
-0.16926055 0.040840644 0.094990544 -0.03618909 -0.02934297 -0.017189745 0.14816211 0.029483097
-0.12264208 -0.17658131 -0.06630065 -0.055546504 -0.03401009 0.060782544 0.020017436 -0.030138766
-0.28629842 -0.19621158 0.03844986 -0.1696905 -0.0027401757 0.013930993 0.029832032 0.05557973
-0.08798222 -0.15197006 0.117218204 -0.33708394 -0.24718456 -0.058480527 0.09131546 -0.122979134

estimator.2.weight f4 [64, 128]
00000000: ad76 45be c405 603e a5a7 89bb d303 d33d
00000010: 48ad 1b3e 9bf6 c8bb 7c2f ebbd e7dc ef3c
00000020: 5cea 54be 94de 54bd 8108 21be 9c22 f0bd
00000030: 7d82 8b3e 8540 b63d 8680 27bc c3a7 9abd
00000040: 9db3 b0bd 84e9 51be 975e 5bbc fa8f c6bd
00000050: d1c3 313e 26db 2abe 5c80 eabd 2a24 3c3c
00000060: 654b 22be e70f 4dbe d467 c33d 0a6b 3cbd
00000070: 828d 09be 81b7 86be 52e2 15be 3b17 11be
00000080: 8247 443c 787c b5bd 7c4a a03d d101 823c
00000090: e2a1 f7bc 76fd 43be 907b 1b3e d770 31bd
000000a0: 8cb7 0d3e 59e2 1abe 5fe0 5f3a fd22 ef3a
000000b0: 9cee dfbd 954b c63c e856 773c 23a9 83bd
000000c0: c215 293d 16fe 7bbd 2fe0 a5bc d3d6 d6bc
000000d0: 21ba 74bd 89c2 0f3e c426 11bd fab5 f73d
000000e0: 7e8f 73bd 69aa fabd e45f 97bd 0df0 61be
000000f0: 4214 d03d e2ab 083e 4463 bbbc dc93 9cbd
00000100: 40ee 90bd c2dc a53d c497 dabd af23 543d
00000110: 5d94 103e d8db 323d e8a4 64be 71ab f93d
00000120: c7fa 333e b95c 463d 834b 7f3d 58f3 ef3c
00000130: c2b8 a73d d8e2 7a3d eff2 063e e0ee b53d
00000140: f98c 783c 318e da3d f076 3f3e 7ba6 dbbc
00000150: 2643 6f3e 6c0d 203e 2f95 fbbd 5c69 4abc
00000160: 4894 413e a64e 37bc 53b7 50bd 59a9 793d
00000170: 4652 3d3e 204d 6fbd 03a4 5abe 1e43 bcbd
00000180: 1c87 253d 064f a23c 81ad 9e3c bf9f 8d3c
00000190: a01c 233c cfc5 10bd dace 06bd 89d9 86bd
000001a0: d8d7 42bb 77e2 9fbd 2c42 2e3d c926 a6be
000001b0: 8b1a 72be 8b21 85be ef8f 573d 8938 f63d
000001c0: 8e35 19bd 5d89 a53d a853 de3b 956f 133d
000001d0: 688c b0bd 3f77 0f3e a6cc 8fbd 1ebf 88bd
000001e0: 69e3 4fbd 0468 adbd 8da0 d63d cf10 203d
000001f0: f634 09be 0b7d 1dbe 75c0 30bd af37 02be
00000200: 29b4 0a3e 5d34 04be 5e18 963e e608 64be
00000210: 8fd3 913e b9f9 94bd eb01 9b3e f139 ba3e
00000220: 1e12 86be 48f9 fdbe 9edd 553e d724 f13c
00000230: 3220 62bf 60a0 303f ad45 babe 9bbc a63e
00000240: 6b3f 183f 02c6 2ebd 5aff 8abe 6a72 1a3f
00000250: 52c9 a2be 3e4d 3c3e 49a3 543f 9194 f6be
00000260: ce48 463f a28e 603e 8fc7 873e da98 b33d
00000270: d525 313d 8c73 bc3d 1165 9b3e 4012 14bd
00000280: 78c0 18bf 6ccd 1b3f 4ce8 8cbd 8d2b 12be
00000290: 9e57 76bd 7304 bb3d b6f0 f7be 89bf 0cbe
000002a0: 0b64 b33c c4dd 1f3f fc91 e7be 4cef eb3e
000002b0: c5ca a43d fbb3 8ebe b011 1a3f 12a8 7cbe
000002c0: fbf8 d23e 54b5 9b3e 28d3 553e bd5f 4cbf
000002d0: cb4d 083f f8e8 42be 9c62 963e dd71 15bf
000002e0: 14bf 8a3e e522 f6be 43f5 323e 1c4e 1f3d
000002f0: 659c 003e 412b 19be 23cb 363d 0366 053f
00000300: e889 1d3f 2f9c dd3e 9fa2 d9be 72f2 b5be
00000310: b224 b93d ffab 3f3e c4e7 2a3e a4fc eebe
00000320: 2908 ba3e d186 373e ab01 ddbe 82d9 45bf
00000330: 065b 6dbf b38a 133d 78c6 bbbe ac84 a4bd
00000340: a7ec 383f 0880 acbe 295f 05bf e73b 523f
00000350: 10db 093f 03e8 95be 52af 4bbe 188c 1e3c
00000360: bf5d 8dbe 1161 3ebf b8aa ea3e 95d4 c13d
00000370: 4ec3 8ebd 45de 23be 9c43 d13e ed2c 143e
00000380: 8fe3 bdbc cab4 603d 1aa5 b4be 5dfa 6bbe
00000390: 6ff9 04be e16b 2fbe 004b 453f 3403 213f
000003a0: afec 04bc 8845 783e 9509 1b3e 1ffa 003f
000003b0: cf2e 6fbe a76a 89bd 401f 9cbe 0fb3 8dbe
000003c0: 3031 dc3b 1292 e43e c9fe b5be 75f6 34be
000003d0: 3bff 513f f99d 6cbe 1ad3 c1be d93a dc3e
000003e0: 1208 8b3d 72cd 613f 887b b23e 9886 60bd
000003f0: d93b ab3e f05f 593e 9fc8 5ebe f9d8 5bbd
-0.19283552 0.218772 -0.004200893 0.10303464 0.1520282 -0.0061329133 -0.11483666 0.02928014
-0.20792526 -0.05197008 -0.157259 -0.11725351 0.27247992 0.08899025 -0.0102235135 -0.07551529
-0.086280085 -0.20499235 -0.013389251 -0.0969543 0.17359854 -0.16685161 -0.11450264 0.011483232
-0.15849073 -0.20025598 0.09541288 -0.046000518 -0.13432887 -0.26311877 -0.14637116 -0.14169018
0.011979939 -0.08861631 0.07826707 0.015870007 -0.030228559 -0.19139656 0.15183854 -0.043320503
0.13839549 -0.15125407 0.0008540209 0.001824468 -0.10934183 0.024205962 0.015096404 -0.06428745
0.041280515 -0.061521612 -0.0202485 -0.026225483 -0.05974782 0.14039053 -0.03543736 0.12095256
-0.059463017 -0.122395344 -0.073913366 -0.22064228 0.10160114 0.13346818 -0.022874482 -0.076453894
-0.070766926 0.08098747 -0.10673478 0.051791843 0.14119096 0.04366669 -0.22328532 0.12190903
0.17576133 0.04842827 0.062327873 0.02929084 0.08189537 0.06125149 0.1317861 0.088834524
0.015170329 0.10671652 0.18697715 -0.026812783 0.23365459 0.1563012 -0.12284314 -0.012354221
0.18904221 -0.011188185 -0.05095608 0.060952518 0.18488416 -0.05842316 -0.21351628 -0.09192489
0.040412053 0.019813072 0.019369842 0.017288087 0.009955555 -0.035344895 -0.032912113 -0.0658446
-0.0029730704 -0.078068666 0.042543575 -0.32451466 -0.23642938 -0.26002154 0.0526275 0.12022502
-0.03740459 0.080828406 0.006784875 0.035995085 -0.0862053 0.14010333 -0.070214555 -0.06677078
-0.050753985 -0.08467105 0.104798414 0.03907853 -0.13399109 -0.15379731 -0.04315229 -0.12716554
0.13545288 -0.129106 0.29315466 -0.2226902 0.2848172 -0.07274193 0.302749 0.3637233
-0.26185697 -0.4960425 0.20885321 0.029436512 -0.88330376 0.6899471 -0.36381283 0.3256577
0.5947177 -0.042669304 -0.27147943 0.6033083 -0.3179422 0.1838884 0.83061653 -0.48160222
0.7745484 0.2192941 0.2651944 0.087693885 0.04324897 0.09201726 0.30350545 -0.036150217
-0.59668684 0.60860324 -0.068802446 -0.14274426 -0.060142152 0.09131708 -0.48425835 -0.1374494
0.02189829 0.6244776 -0.45228565 0.46081007 0.08046488 -0.2787169 0.6018324 -0.24673489
0.41205582 0.3041178 0.20881331 -0.79833585 0.532437 -0.19034183 0.29372108 -0.58376867
0.27098906 -0.48073497 0.17476372 0.03889285 0.1255966 -0.14957906 0.04462732 0.5210878
0.61538553 0.4328322 -0.42506883 -0.35536534 0.09040202 0.18717955 0.16689974 -0.46677125
0.3633435 0.17922522 -0.43165335 -0.77285016 -0.92717016 0.036020946 -0.36674857 -0.08033118
0.722361 -0.3369143 -0.5209833 0.82122654 0.5384989 -0.29278573 -0.19891098 0.009676956
-0.27610585 -0.7436686 0.45833373 0.09464375 -0.06970845 -0.16002758 0.40871894 0.14470263
-0.023179797 0.054859914 -0.35282212 -0.23044725 -0.12985776 -0.17130996 0.77067566 0.6289551
-0.00811307 0.24245274 0.15140374 0.50381655 -0.233577 -0.067097954 -0.30492592 -0.27675673
0.006719731 0.44642693 -0.35545948 -0.17672141 0.82030076 -0.23107137 -0.3785637 0.43013647
0.06788649 0.8820411 0.34859872 -0.05481586 0.33444098 0.21228004 -0.21756218 -0.053673718

estimator.2.bias f4 [64]
00000000: 9290 b9bd 220d bebe 1478 ab3c e46d 113d
00000010: b36f cc3c 0b74 b9bd 7876 393d 510f f0bd
00000020: 5592 0ebd b81a 1fbd 50cd b4bc 5618 2fbd
00000030: 91da 00be 06b5 9dbd 274e 683d 71c4 a4bd
00000040: 2d13 2a3d 9cf8 bbbd 1522 123d 0336 d23c
00000050: 37f3 8f3d b08d 363c 293c 66bb 063c 15bd
00000060: bb68 31be 7d90 133d b625 49be 82e8 0cbe
00000070: 3e39 3ebc f1af cfbd 8736 04bd eeb1 4bbb
00000080: 888a 563c eaa2 96bd 611f 633c 79b9 c0bc
00000090: fc9a a4bd 06ac 98bc 42ab b8bd 2857 883c
000000a0: c3ba b9bc e507 07bd 2cea bb3c 51fd edbd
000000b0: d224 f1bd 84cb bbbd 0ea0 923d 582d b7bd
000000c0: 80f8 1dbd 3ed7 ff3d a5a7 91bd 388e a03d
000000d0: 652e bd3b 4941 d1bc 90cd 9dbb 3893 d2bd
000000e0: d518 613c 533c 40bd 54cf 743d 0964 f23c
000000f0: e21b d2bc a82c e03b fc5a 33bd 12b0 f6bc
-0.09060778 -0.37119395 0.020931281 0.03550519 0.024955606 -0.090553366 0.045278996 -0.117216714
-0.03480752 -0.03884384 -0.022070557 -0.042747818 -0.12583376 -0.07700543 0.056715157 -0.08045281
0.041522194 -0.09178278 0.035677034 0.02566052 0.070288114 0.011142179 -0.0035131073 -0.036434196
-0.17325108 0.036026467 -0.19643292 -0.1376057 -0.011610327 -0.1014098 -0.032278564 -0.0031081396
0.013094552 -0.07355292 0.013862462 -0.02352594 -0.080373734 -0.018636715 -0.0901704 0.016643122
-0.022672063 -0.032966513 0.02293881 -0.11620582 -0.11774601 -0.09169677 0.07159434 -0.089441955
-0.038567066 0.12492226 -0.07112054 0.07839626 0.005773353 -0.025543826 -0.0048157647 -0.10281986
0.013738831 -0.04693253 0.059768036 0.029588716 -0.025648061 0.006841261 -0.04378794 -0.030113254

estimator.4.weight f4 [19, 64]
00000000: 70a1 20be b04c debe a8df 4dbe ed1b 123e
00000010: 4ea9 b33e d6c1 0abe 93b0 f7be 6963 6f3b
00000020: 8cf9 0bbd 0312 07bf a2ce 653e 5f21 c13d
00000030: ad07 c03e 4d15 c8be 7c2e 213f 7987 873e
00000040: bc79 7cbe 0e7c 91be 4b5f 1bbe 9b70 7b3e
00000050: 0a3e 0fbf f504 6dbe 52fa 693d 30fb 36be
00000060: 740a 8dbd 0938 98be 284b ab3d 6fd7 953e
00000070: 33ae d1be 5c22 5e3e a98e b83e 7e16 96bd
00000080: 7edb 7cbe 4b81 233e 9f16 003f d36e eb3e
00000090: 667a 22bf 2461 40bd 2c23 e43e 9e87 54be
000000a0: 3a07 1b3d 8f7a 0d3f 2556 803b a99b eb3d
000000b0: c036 883e 589f 8d3e 0dfb e53e 83d5 0abf
000000c0: 6fc5 35bf 22cb 5ebe fe58 be3e 6763 3c3e
000000d0: bb19 8e3e fb32 49bf 4558 b1be 4291 9e3e
000000e0: 1022 b3bd 6e01 993e 2398 5f3e 352a 203e
000000f0: 1d33 f43e 2812 23bc a69f 0abe 0da5 0e3f
00000100: e51b 3c3e 7452 5b3d 98bc 40be d9af 0d3d
00000110: 320d a63d b3c4 3bbf 92bb 303d 1ed0 e83e
00000120: 0b31 893e 0ec1 b1bd 26fd d3be 1684 123f
00000130: 4e78 f8bc e8bf 923d 134b 8d3d 3fa4 85bd
00000140: 5eec d93d 5a73 ad3d 6d2c cc3e f05d c6bd
00000150: f66a 0cbe b454 86be d1a5 813d 73a0 c7bd
00000160: 5bd8 3f3e e8a9 a9be 05b4 c5bd 8e16 12be
00000170: 7ad6 1ebe b420 9bbe b4f2 6d3d 2816 0f3f
00000180: 2028 4e3e 4d62 efbe e5a0 abbe 8ded cf3d
00000190: d792 d13e 05d4 f43e dd89 17be 5c22 7ebe
000001a0: 2788 0c3e 9b9a 563e 7fca 36be 851e ca3e
000001b0: 86ba b93d aa9c 473d b166 843d 6d6f 0abe
000001c0: 1c2e 80be 89cb f83d 91d3 bebd 01f2 9c3d
000001d0: 9429 d9be 53e5 97be 5946 f53e aa66 593e
000001e0: 5e22 fc3e 1417 c73d e033 b63e e576 69be
000001f0: 3e00 1bbd 0547 a7bd 36f5 dcbe 5c3b 0bbe
00000200: 462f afbe fd46 0a3e 8117 34be 4498 02bf
00000210: c0d8 4cbe 41d6 453e 0e59 adbe 2ff3 00be
00000220: e68b 5fbe fcb4 9cbd 4208 e7be b231 533d
00000230: 714e aa3e d26b 82be a2a0 593e 6399 c53e
00000240: f082 2a3e 07ff 1cbf 5f00 823d 2edd 9b3e
00000250: 70cd 1bbe 32cf 82bb 7c0d 913e 8dd2 b3be
00000260: 1d0e e43e 8bb0 3cbe ca7b d23e 8ba7 65be
00000270: 4387 243e 2f11 ca3c 925b 0a3e a260 9ebe
00000280: dacb db3d 371d 4f3c ac0e 97bd 5dd1 2dbe
00000290: b667 95bd 8254 8bbe c9be 8abd 87ed fdbd
000002a0: 0236 06bf 2f77 e33e a806 973e 4bd5 4ebe
000002b0: b86f 05be 7f27 c13e 8495 c43d 7e93 62be
000002c0: b2a6 34bd 6525 8c3e 6f4f 023d 244e 1c3f
000002d0: 72aa 20be dd2d 383d 5e51 c6bd 74ee b9bd
000002e0: ae3f 17be 8e4d 00be 62dc 323f b2c1 f3bd
000002f0: 5662 503d 63e2 adbe fe40 1d3e bde6 023f
00000300: 8004 9ebe 6fcf aebe 9150 12bd ed2e b7be
00000310: 3d9c 9cbe e8af 87bd 25e2 c5bd 79ed 4f3f
00000320: 6b48 c9bd 8c40 af3e d8ee 4cbe 2a1d c03e
00000330: 278b f83e 3934 9a3e f034 823e 3418 0fbf
00000340: 7fb9 803e 73b4 a8be 3a7f 88bd db72 e2be
00000350: 682c 3bbe 4cc8 4fbd 9efa 98be a554 9b3e
00000360: f6ff afbd e521 ef3d d7c1 bf3d 329e 823d
00000370: cb2e e7be 62b9 f7be ae6e d73d e0cf d9bd
00000380: fa93 0c3d 0942 e1bd 4f06 1c3e c6c1 b5be
00000390: 68b5 88bc 0df7 4dbf 7201 a4be fff7 933d
000003a0: a66d 963e 89b2 163e 1651 4abe 5053 debe
000003b0: 729e a6be 5896 c2be 5b20 8fbd 5f50 433d
000003c0: cbc7 eebd 6ff0 51be 0557 62bd bf14 c63d
000003d0: b874 81be 6fa2 30be 7848 88be cc88 e63d
000003e0: 3730 e7be 9abb fbbd 2876 32bf db60 ffbe
000003f0: 6f90 3c3d 12d6 aebd 2586 40bd 98c9 06be
-0.15686584 -0.43417883 -0.2010485 0.14268465 0.35090107 -0.13550505 -0.48376903 0.003652776
-0.034173533 -0.5276186 0.22442105 0.09430193 0.37505856 -0.3907875 0.62961555 0.26470545
-0.24655813 -0.2841496 -0.1517307 0.24554674 -0.5595404 -0.23146422 0.05712349 -0.17869258
-0.068867594 -0.2973025 0.08363944 0.29265925 -0.40953216 0.21692795 0.3604634 -0.07328509
-0.24693105 0.1596729 0.5003452 0.4598299 -0.63468015 -0.04696764 0.44558084 -0.20754859
0.03784869 0.55265135 0.003916519 0.11504299 0.2660427 0.27660632 0.449181 -0.54232043
-0.71004385 -0.21757177 0.3717727 0.18397294 0.27754006 -0.78593415 -0.34637657 0.30970198
-0.08746731 0.29883903 0.2183538 0.156411 0.47695246 -0.009953059 -0.13537464 0.557206
0.18370016 0.05354543 -0.18821943 0.03459153 0.081079856 -0.73347014 0.04314763 0.4547128
0.2679523 -0.086794004 -0.41404074 0.572328 -0.030330803 0.071655095 0.06899085 -0.06525468
0.106407866 0.08469267 0.39877644 -0.09685886 -0.13712677 -0.26236498 0.06330455 -0.097474
0.18734877 -0.3313744 -0.096534766 -0.14266416 -0.15511504 -0.30298388 0.058092788 0.5589318
0.20132494 -0.46754685 -0.3352119 0.10152731 0.40932342 0.47818008 -0.14798684 -0.24817795
0.13723813 0.20957415 -0.17850684 0.3947641 0.0906878 0.04873339 0.06464899 -0.13519068
-0.2503518 0.12148196 -0.09317697 0.07663346 -0.42414534 -0.29667148 0.47905234 0.2123057
0.4924497 0.09721199 0.35586452 -0.22799261 -0.037842028 -0.08167843 -0.4315583 -0.13596863
-0.34215754 0.13503642 -0.17587091 -0.5101359 -0.20004559 0.19320013 -0.33857006 -0.12592767
-0.21830711 -0.076517075 -0.45123488 0.051561065 0.3326297 -0.25472885 0.21252683 0.38593587
0.16651511 -0.6132664 0.06347727 0.30442184 -0.15215087 -0.0039919848 0.283306 -0.35121575
0.44542018 -0.18426721 0.4111007 -0.22427194 0.16067223 0.024666397 0.13511494 -0.309331
0.10732241 0.012641243 -0.07375845 -0.16974397 -0.07295172 -0.27212912 -0.06774671 -0.1239882
-0.5242616 0.44426867 0.29497266 -0.20198552 -0.13030899 0.37725446 0.0959883 -0.22126576
-0.044104286 0.2737228 0.031814035 0.61056733 -0.1569002 0.044965614 -0.09683488 -0.090786844
-0.14770386 -0.12529585 0.6986753 -0.11902179 0.05087503 -0.33961782 0.15356824 0.5113333
-0.30862808 -0.34142634 -0.035721365 -0.3577799 -0.3058795 -0.06625348 -0.09662274 0.8122173
-0.09828266 0.34228933 -0.20012987 0.3752225 0.48543665 0.30117968 0.25431013 -0.55896306
0.25141522 -0.32950172 -0.066648915 -0.44228253 -0.18278658 -0.050728127 -0.29878706 0.30338016
-0.085937425 0.11676387 0.09363144 0.063778296 -0.45152888 -0.48383623 0.10519157 -0.10635352
0.03432081 -0.10998923 0.15236782 -0.354994 -0.016688064 -0.80455095 -0.32032353 0.07225036
0.2938053 0.14716543 -0.19757494 -0.43422937 -0.3254276 -0.38005328 -0.06988593 0.04768407
-0.11659201 -0.20501874 -0.05525877 0.09671926 -0.25284362 -0.17249463 -0.2661779 0.11256561
-0.45153973 -0.122916415 -0.6971154 -0.49878582 0.04603618 -0.085369244 -0.04700293 -0.1316284

estimator.4.bias f4 [19]
00000000: c16a e23d f567 84bd 5041 813d 0d11 9cbe
00000010: 9617 0bbf ad2c 98be 520c a9be 2eee b13e
00000020: a036 e83e 2ae9 843e 7c5f ec3e 8020 ffbe
00000030: bc65 033f d792 9cbe 846c f73e f3c3 e83e
00000040: 105b e1be 16c8 c4be 4a4f c33e
0.11055518 -0.06465141 0.063112855 -0.3048176 -0.54332864 -0.29721585 -0.33017212 0.3475203
0.45354176 0.2595914 0.461666 -0.49829483 0.5132711 -0.3058078 0.48324978 0.45461997
-0.44014788 -0.38433903 0.3814643

actor.0.weight f4 [512, 64]
00000000: e629 2d3d e63c 443e 0327 aa3d c897 9abd
00000010: 8734 b3bd eb2b 283e 7ad5 063f 8b1d ec3d
00000020: de2c dc3d 32ef 3cbe e356 00bf a412 cb3e
00000030: cbba 4abe 0485 ec3d bede 48be 54b8 ea3d
00000040: 5f98 9fbe 4cf8 0d3e 3dcd 5ebd 7782 c03d
00000050: e15c ebbd 1d69 43be 7cf8 0a3c fb73 ab3c
00000060: bd57 583e aaf5 543e 3bd6 953d a60e 343e
00000070: 37b3 70bd b699 833d cb89 febd c083 7fbc
00000080: 2e5a 8abc b673 e93d 086e 013e b2a6 98bc
00000090: 8268 d23d 6c23 4cbd 9916 9d38 ee65 be3a
000000a0: 7031 403d e6e1 7abd c75b fa3c 072d fabc
000000b0: 25a5 bdb9 c796 05bd b6e0 10be 01ce 673d
000000c0: 0a9f a23c d8a4 c2bc 7fc3 32bc fd15 aabd
000000d0: d952 6f3d 0533 07bc d8f2 8abd a0e0 93bd
000000e0: c446 503e 27d6 953d ba66 113c d510 533d
000000f0: bd6f 123d 5029 a9bd c9e0 90bd 5b1b 8d3d
00000100: 1556 0f3e f6ca 5b3e 10eb 82be 1912 f2bc
00000110: ef9c 363d d6fa c63d 2a51 1cbe d00c 97be
00000120: 460e 453d 3aad adbe 80cc 633e 8f62 f3bd
00000130: 1004 a43e 3a07 a23c df7f 1cbe a570 8ebd
00000140: 9a52 81be dd9d 20be 861c e03c 0f1d 7ebe
00000150: 2a9b 2fbe 0396 93be deae 213e fa31 853b
00000160: e8d4 353e b766 923e 6204 4b3e 8278 323e
00000170: 6474 fc3d 2dc6 6a3d f378 43be a76c 23be
00000180: b247 19bd da9d 86bd 6e81 973c 1e2b 1dbd
00000190: f7bd b93d 65c2 6e3c 3020 06be f6b2 a0bc
000001a0: dd14 23bd b007 f63b a9b9 ddbd 3ba9 0fbc
000001b0: a838 f9bc 20a8 0e3d dd72 ec3d 4f9e 79be
000001c0: adea 2b3d 1d95 62bd 4585 61bd 91ac 3bbd
000001d0: 978d cb3d 70bb 4cbb 84c1 5cba 3baf 043d
000001e0: d7de ad3d b0b3 d63b c5f5 973d 1cc1 753d
000001f0: cba2 093e d689 db3d b017 aabc 65fa a93d
00000200: f705 39bd 9f98 95bd 7ce4 a03d 0be8 b03d
00000210: 5a3b 4a3e b5cb b33d 841f b8be c2ff e53d
00000220: 89e4 98bd 8fe3 ea3d aa18 383e d78b b53e
00000230: dac2 20be d5fe c5be 6996 443e 8ebf 803d
00000240: dafb c63d d4ae adbe 5219 80be e878 10be
00000250: 3511 35be f2fc 2fbd e7e6 4bbe 0902 703d
00000260: 6723 15be cefe d3be 43be 36be 42f8 09bd
00000270: 565f 88be 2c71 4fbe b193 32be ad25 babb
00000280: 4f21 943d b94a c4bd 2534 71bd c993 2dbc
00000290: 5fc9 1c3e 828f bf3d 38e9 073d 1c8b a1bc
000002a0: 0c5e 27bd 1e04 a83b 23fc 6c3d 9523 b43d
000002b0: 9aa0 d0bb 9a4d 17bc a15f 0e3d 7391 b03e
000002c0: 956a cdbc da8f 9abc d5ae a2bc 89c4 a93c
000002d0: 18d5 50bd 7478 f4bc 7c3f 86bd b462 fbbb
000002e0: 51f5 9abd 55cb b53d 2abc 463d 9657 bebd
000002f0: 757f d43c 601f 84bd 94bd d4bd 4d5b c3bd
00000300: 62a0 063e 23b9 393e b069 033f 343c 91be
00000310: 9b25 873d d75f aebe 0657 833e d2e9 99bd
00000320: 6cca 603d e24a 4c3e b71c bdbe fc52 ab3e
00000330: 442d 423e feae 94bd 027d 1dbe 3000 673e
00000340: d053 d13d de73 aa3d 9787 803e 25ef 5fbd
00000350: 164b 4abd e35f 9f3e 83ff 0abe ce92 06be
00000360: 77a3 34be bcac c13d 966c c83d 2028 81be
00000370: 6fcb bf3d 84cf 09bd ea91 ce3e 444d e3ba
00000380: 0ab8 26be 28cc bb3c a737 a03b b86f 1d3c
00000390: c484 863d 9818 ccbd 109a 1bbe e235 483c
000003a0: 2660 ce3d 922d 97bc 907b 713d 8b0f fdbb
000003b0: bdb7 923c 2b59 40be 007c cabd ad2a b3ba
000003c0: 5c16 913d 9764 a13d 3c48 983d ea43 de3d
000003d0: 5610 c1bd 8065 8c3d 36ab e3bc 376f 5a3d
000003e0: ee1f 41bc d08a 933c 72ca 88bb cde2 053d
000003f0: aec8 333c 1fca a33b e9ef a33d 1f3a da3c
0.042276286 0.19163856 0.08308222 -0.07548481 -0.08750253 0.16423003 0.5266949 0.115290724
0.10750745 -0.18450621 -0.5013258 0.3966266 -0.19797818 0.11548808 -0.1961622 0.11460939
-0.31170937 0.13864249 -0.05439495 0.09399884 -0.114923246 -0.19083066 0.008482095 0.020929327
0.2112722 0.20796838 0.07316252 0.17583713 -0.058764663 0.064258024 -0.12428626 -0.0155953765
-0.016888704 0.11399023 0.1263963 -0.018634174 0.102738395 -0.04983847 7.4905525e-05 0.0014526227
0.046922147 -0.06125059 0.030561341 -0.030539049 -0.0003617193 -0.032614496 -0.1414822 0.056592945
0.019851226 -0.023760244 -0.010910868 -0.08304975 0.05842862 -0.00825191 -0.067846 -0.07220578
0.20339495 0.07316237 0.00887459 0.051529724 0.035751093 -0.08259833 -0.07074124 0.06889983
0.13997681 0.21464142 -0.25569963 -0.029549645 0.044583257 0.09715812 -0.15265337 -0.29501963
0.048109315 -0.33921224 0.2224598 -0.11884033 0.3203435 0.019778837 -0.15283154 -0.06955079
-0.25258332 -0.1568522 0.027357351 -0.24815772 -0.17149034 -0.28825387 0.15789363 0.0040647956
0.17756999 0.2859399 0.1982589 0.17428783 0.12326887 0.0573179 -0.19089107 -0.15959416
-0.03742189 -0.065730765 0.018494334 -0.038371198 0.09069436 0.014572714 -0.13098216 -0.019616585
-0.03981482 0.0075082406 -0.108264275 -0.008768375 -0.030422524 0.034828305 0.11545346 -0.24376796
0.04197185 -0.055317987 -0.055058736 -0.04581887 0.099391155 -0.003123965 -0.000842117 0.032393675
0.08489769 0.006552182 0.07419924 0.059998617 0.13441007 0.107196495 -0.020763248 0.08299712
-0.045171704 -0.07304501 0.0785608 0.08638009 0.19749203 0.087790884 -0.35961545 0.112304226
-0.074654646 0.114691846 0.17978159 0.35458252 -0.1569933 -0.38670984 0.19198002 0.06286536
0.097160056 -0.33922446 -0.25019318 -0.14108622 -0.17682345 -0.042965837 -0.19912301 0.05859569
-0.14564286 -0.41405338 -0.17846017 -0.033684023 -0.26635236 -0.20258015 -0.17439152 -0.005680761
0.072329156 -0.09584565 -0.05888762 -0.010594317 0.15311192 0.09353544 0.0331814 -0.019719653
-0.040861174 0.005127444 0.057857644 0.08795849 -0.0063668014 -0.00923481 0.034759168 0.3448597
-0.025075236 -0.018867422 -0.019858757 0.020723598 -0.050984472 -0.029842593 -0.065550774 -0.0076716784
-0.07566322 0.08876673 0.04851929 -0.092940494 0.025939682 -0.06451297 -0.10387722 -0.095388986
0.13147119 0.1813703 0.5133314 -0.28366244 0.065989695 -0.34057495 0.2565233 -0.07515301
0.054880545 0.1995044 -0.3693597 0.3346175 0.1896258 -0.072599396 -0.15379718 0.22558665
0.10221064 0.08322881 0.25103447 -0.054671425 -0.049388014 0.31127843 -0.13574032 -0.13141939
-0.17640482 0.094567746 0.09786336 -0.25225925 0.09364974 -0.033645168 0.403457 -0.0017341753
-0.16281143 0.022924498 0.004889447 0.009609155 0.06568292 -0.099656284 -0.15195489 0.012219878
0.100769326 -0.018454347 0.05895573 -0.0077228 0.017909879 -0.18784015 -0.098869324 -0.0013669335
0.07084343 0.07880514 0.074356526 0.10852797 -0.09426944 0.06855297 -0.0277916 0.05332872
-0.011787398 0.018010527 -0.004174524 0.032686997 0.010973139 0.00499846 0.080047436 0.026639042

actor.0.bias f4 [512]
00000000: 051d f03c 52fa 1fbd a207 13be c73d afbc
00000010: 26ea 6a3d 4eb4 11be 7420 2d3d fbb5 e03d
00000020: 0ff4 0d3c 3c32 a4bd 2e74 893c 61ef 053e
00000030: 0fbf 00be 4dca 42be d9a4 483d e9ad e83d
00000040: e731 f5bd f7fe e9bd 664e fd3c a603 44bc
00000050: 979d 98bc 06a8 d1bc 578b c13c 174b aa3d
00000060: 7656 0c3d 7222 09be c642 d93c 4822 983d
00000070: b389 183b 34f5 d13c 958f 413d 83ea 473d
00000080: 537d e43c 5fc8 1bbe fac1 173e e2f4 c43d
00000090: 3325 1a3e 6ea7 a7bc 0446 e13d 9f7e fa3b
000000a0: bf4d 20be 4445 de3d 963a 8dbd 6ecc a4bd
000000b0: fe82 4d3d b50f f03d 124c 32be baf0 7abe
000000c0: bac4 d0bd 7059 20be 3879 723c 1bde 05be
000000d0: 6906 623d a4e2 253d f8a9 ad3d 2a76 18be
000000e0: cfbe 13be 57e5 d93d 4b95 8bbd d109 f9bd
000000f0: e42c 383c 54df d23c eb8e e9bc 37ef 7cbd
00000100: 09d5 153c 6315 a83d 7d6b a4bd de43 30bd
00000110: 764d 50bd 7d55 c63d 034e 2a3e 4aac b4bd
00000120: 53b8 b83d 684f b7bd b8d9 dc3d 4b7e f63c
00000130: e4e7 e73d 9e69 9a3c ac68 133d 12d1 fb3c
00000140: 417c f8bc ba24 55be f4fd c43d a73c 7b3d
00000150: c0d9 cdbd 5cc4 0c3c 404a c63d dbdd 253d
00000160: a0e1 23be c6ab d53c 9980 2ebd 8495 0bbe
00000170: 3d54 e13d a084 f7bd 82f0 47be a541 9a3c
00000180: 757a ba3d a35a a53d 0f56 abbd de1f 203d
00000190: af29 03be d1e8 bcbc f240 ac3d 35bc 773d
000001a0: a980 0c3e 8b05 26be 4f09 30be e959 ba3c
000001b0: 3c48 023e 01bb 423d 9ca7 d83c 6475 043e
000001c0: 9df3 7fbc 08a2 da3d def8 5bbe a5db 0fbe
000001d0: d1a2 33be 2a35 e03d bab5 7fb9 8067 a23d
000001e0: e965 ef3d 2601 363e 6ed4 873d e480 073e
000001f0: 99bf fcbd 7b4d 673d d396 23be 07a5 013e
00000200: af34 c7bd 44d7 3b3d e7ff 1cbd e502 4abd
00000210: 01a1 4fbd be6d eb3c b825 8c3e c903 d13d
00000220: 4b08 2a3c 8559 fcbd 0341 8bbd af98 443d
00000230: e23b a33d 6ce2 a13d e9b8 94bd c0b4 373e
00000240: 12c9 0ebe a059 e6bd 7711 8bbd 6ad3 f8bd
00000250: bb6b 0c3e fcd4 dcbd c3d7 4abc adae 26bd
00000260: 369e e9bd 2e97 143e 82dc 9c3d 9fc2 62bd
00000270: cc3f 5fbe 7cea 0abe 2976 5ebd 1dca 573e
00000280: bee2 d83c 640a 043e 79a4 7ebe 3d19 f6bd
00000290: 104f 63bd 708e 7abd 1926 363e 4a6d c23d
000002a0: 58a5 30bd 116d 17bd 527c bdbb 7562 013e
000002b0: 6420 1a3d ed06 2abe 4b1e 18be 8084 9c3d
000002c0: 1717 ac3d dfe0 3bbe abb2 583d 1755 233e
000002d0: 0173 9f3d e38b 5fbc 46c8 1bbd 644f 353d
000002e0: a6eb 12be 84e7 0a3e 1a0d 09be 5591 03be
000002f0: e56b ab3d a0cc 773d 2fd1 5fbd 0666 8bbe
00000300: a9a8 d1bd af65 653d 52a6 243d 1e41 513e
00000310: 4afa a9bd 9b69 fb3d 2d82 4cbe a007 38bd
00000320: a52c 9e3d 8f02 39be ebfb c6bd e5e3 1bbe
00000330: 2cf1 98bd f3a6 afbd 361a f2bd 66d7 8bbd
00000340: 37ed 93bd 8a99 4f3e 2340 10be 4966 e2bc
00000350: 819b b9bd f08c c73c 3ac0 2f3d c95b 953c
00000360: 103d 3bbc e4da 593e 8610 a2bd e28e 043e
00000370: 0cfa 263e 0d00 343e f128 843c 53d3 4dbe
00000380: 8530 10bd bc76 f8bd a04b 003d b55f 7cbd
00000390: 771c 4cbd 8c26 52bd 48de 043e ea4f 223e
000003a0: 60a4 2cbe f67b 213d ffb0 4abd 83a8 61be
000003b0: bd8c 7cbd 7ea8 15be 254e ad3d fc7d c6bc
000003c0: b290 293a 87d0 59be d6ea 573e fb1d 7fba
000003d0: 05f4 94bb 5a3d b83c eeaa b03d 1203 e5bd
000003e0: a820 c33c b3e7 1bbe 7b7a db3d f495 c5bc
000003f0: 3c78 c8bd eaf1 69be a8fd bd3d 29c6 85bc
0.029310713 -0.039057083 -0.1435838 -0.021391762 0.057352208 -0.14228937 0.042267278 0.1097221
0.008664145 -0.08017394 0.016779032 0.13079597 -0.12572883 -0.19022484 0.048985336 0.11361296
-0.11972409 -0.11425584 0.030921172 -0.0119637605 -0.018629832 -0.025592815 0.023626013 0.083151035
0.034262143 -0.13392046 0.026521098 0.07428414 0.0023275435 0.025629617 0.04725607 0.048807632
0.02789179 -0.15213154 0.1482009 0.0961702 0.15053253 -0.020465579 0.109996825 0.007644489
-0.15654658 0.10853055 -0.0689594 -0.08046804 0.050173752 0.11721746 -0.17411831 -0.24505892
-0.101937726 -0.15659118 0.014799409 -0.13073008 0.055181894 0.040499344 0.084796846 -0.14888826
-0.14428256 0.10639446 -0.06815585 -0.121600755 0.0112411715 0.025741257 -0.028510531 -0.06175157
0.00914503 0.08207204 -0.08028314 -0.043033473 -0.050855123 0.09684274 0.16631322 -0.08821924
0.09019532 -0.089506924 0.10783714 0.030089518 0.113235265 0.01884919 0.035988495 0.03073934
-0.030332686 -0.20814791 0.0961875 0.06133714 -0.10051298 0.008591738 0.09682131 0.04049478
-0.16004038 0.026082885 -0.04260311 -0.13631254 0.11002395 -0.12085843 -0.1952534 0.01883013
0.09105388 0.08073928 -0.08366024 0.03909289 -0.1280887 -0.023060234 0.08410825 0.060482223
0.13720955 -0.16213052 -0.17191051 0.02274795 0.12722868 0.047541622 0.02644711 0.12935406
-0.015622047 0.10675436 -0.21481654 -0.14048631 -0.17542578 0.1094764 -0.00024386393 0.07929897
0.1168936 0.17773876 0.066323146 0.13232762 -0.12341232 0.056470376 -0.15975504 0.12660609
-0.097268455 0.04585959 -0.038329985 -0.049319167 -0.050690655 0.028738853 0.27372527 0.102058
0.010377954 -0.12321762 -0.067995094 0.047997173 0.07970406 0.07904515 -0.07261831 0.17940044
-0.1394389 -0.11247563 -0.067904405 -0.12149699 0.13712971 -0.10782811 -0.012380543 -0.040693928
-0.114071295 0.14510795 0.07659246 -0.055361386 -0.2180168 -0.13566011 -0.054311905 0.21073194
0.026475307 0.12894589 -0.24867429 -0.120165326 -0.05549532 -0.061170995 0.1778797 0.094935015
-0.043126434 -0.03696925 -0.0057826424 0.12635215 0.037628546 -0.16604204 -0.14855306 0.0764246
0.084028415 -0.183475 0.052904766 0.15950428 0.07785607 -0.013644191 -0.038032793 0.044265166
-0.14347705 0.13564879 -0.13383904 -0.12848409 0.083701886 0.06049788 -0.054642852 -0.27226275
-0.102372475 0.056005176 0.040197678 0.20434996 -0.08299692 0.12276002 -0.19971533 -0.044929147
0.07723359 -0.18067382 -0.09716018 -0.15223654 -0.07467875 -0.08576765 -0.118214056 -0.06828193
-0.072229795 0.20273414 -0.14086966 -0.027636664 -0.09062863 0.024359196 0.04290793 0.018232243
-0.011428133 0.21274906 -0.07913308 0.1294513 0.16306323 0.17578144 0.016132804 -0.20100145
-0.03520252 -0.12132022 0.03132212 -0.06161471 -0.049831834 -0.051306292 0.12975419 0.15850797
-0.16859579 0.03942486 -0.049485203 -0.22036938 -0.061657656 -0.14615056 0.084621705 -0.024229996
0.00064683997 -0.21270953 0.21085677 -0.00097319455 -0.004545691 0.022490192 0.08626352 -0.11182226
0.023819283 -0.15225105 0.10716721 -0.024119355 -0.09788558 -0.22846189 0.09276897 -0.016329842

actor.2.weight f4 [256, 512]
00000000: 7780 d8bb 6e3c ca3c a597 8a3e 5ed7 903d
00000010: 152c 733c ab1b 70bc e29a c23d ba00 03bd
00000020: 940c c9bc a442 5a3d 2bc7 a23d 61ec 10be
00000030: e2f0 c33d 2037 203d 913e 59bc 495a 473e
00000040: 0362 92bd fb0d 7d3d d865 3b3d ce99 a6bb
00000050: 7c16 113d 7a80 243c d94b eebc 1e71 d6bd
00000060: 29bd 05bd 7a2b a93b 85c0 9dbd aa71 83bd
00000070: 5b93 a83c 847c 96bc d5c2 8fbd bc06 fdbc
00000080: f65e ba3d 5b97 33bd 466b 9ebc 801d c53c
00000090: a46b 64be 1882 ccbd 6898 5e3c ccf3 d6bd
000000a0: 5fb0 34bd af98 c03c 8a50 d4bd 4257 da3c
000000b0: e7f5 5ebd 4197 e13c 7dd3 e2bc 04b3 16bd
000000c0: 4d4a d83c 7dfd 16bd 9fcc 5fbd 866c 1c3e
000000d0: b46f 30bd c2cc 133d 8c04 513d fa00 4bbe
000000e0: ad7e 333e 43e6 4e3d 7ef9 ab3b ade7 823d
000000f0: 457b d93d 0588 6cbd 1d16 9e3d 265f 983d
00000100: f8af 343d e651 1abe a31a e43d 408c 3b3d
00000110: 9e18 563d d40e eabd a262 a3bc 0e71 0e3b
00000120: 9b97 0c3d f593 df3d 1742 93bb 0723 233d
00000130: 66bf 883c f77c 1c3d 8371 03be 6b8e 5b3e
00000140: 09a8 1b3e 7d8d 643e 2311 9d3c c76a a6bc
00000150: 2dc5 583d 9b38 a6bd 52e9 29bc 0256 b73d
00000160: 16ce de3c 65ff dc3d ec5a f7bc 2aeb ac3d
00000170: 472e 89bb 9ff7 933d 2c71 cc3c c3ea 303e
00000180: 8bf1 91bd c966 0b3d 35c9 5ebd 5724 263e
00000190: 8c0e d6bd 21b2 103d e700 2cbe 31b4 bb3c
000001a0: 2f17 37bd 800d 163a 3cb2 d73b b28e ce3d
000001b0: 9a52 3f3e 56a5 cfbd cbf5 7e3c 8d78 80bd
000001c0: 06d3 0ebd 7b13 303d 9262 363d abcf 863c
000001d0: d958 2b3d adb8 33bd 2182 3d3c 663a 0ebd
000001e0: d85d bb3d 2f96 edbd 780b 063d 82e8 aebe
000001f0: 2641 833b c57b c1bd ef2d bfbb 5146 5f3d
00000200: 4bc8 23bb 03ff d43c 639a caba 3806 febd
00000210: 1bc6 42bd 5a7c 86bd 2066 89bd e1b5 31be
00000220: 824d 31bc fa90 b13d 6f8e 2f3e 8478 b3bd
00000230: 2416 98be dbd1 90bd 9237 afbd 5424 66be
00000240: 0579 0c3d 29b8 11be 24ec 233c f3db 233e
00000250: e495 6ebe bcdf 02be 9acf 6a3c 51bc 22bd
00000260: 943d b4bc 3ee1 8bbd 04fb 7dbc 1612 14be
00000270: 601c 47bd 5ae1 f53c a8fd f2bc 059d 7dbd
00000280: ebae eebd 468c 2a3e 4262 a13d 71cd 19bd
00000290: 38b3 5dbd 37ea 583d 46e5 b9bd 52ab 9ebc
000002a0: e4c6 03bd 7fbf e23d 60b5 6e3d cedd a93d
000002b0: ede8 253c 43cc 343d bbf9 5ebd ee78 cc3d
000002c0: 636b 62bd 748a f13d bd9a 10be 85c9 ac3c
000002d0: 49dd 34be 581c fc3d b40a 3b3d bc59 303c
000002e0: 1217 9ebc e51d 23be c6f6 b0bd 29ab 253e
000002f0: 5ccb 29bd a800 413d 75cc 023e 6565 563e
00000300: 1228 cd3c 9c60 443c b13e 99bd e445 5c3d
00000310: c75e 0c3e 96a3 8a3d 27f0 9d3d d5a0 0c3d
00000320: 4ec8 c5bd 2b65 44bc 5773 d73d d5ed a63d
00000330: 2af4 253d c4ad a23d e27b 0d3e 799c 0a3e
00000340: c699 eb3c 6778 f43d 20f9 c03d 6894 1a3e
00000350: 5515 143d 4938 8a3d 1ef8 00bd 3710 37bc
00000360: 96f3 363d f53d c0bc 0008 6cbb cbb7 783d
00000370: 2485 0a3d 52cf bbbd 3c29 2a3e 8484 d0bd
00000380: 07b3 4b3c 967a 203c c954 22bd 12b6 293b
00000390: 928f 35be e1a5 d33b e65f 5dbb 6ee1 1abd
000003a0: 8598 b5b9 6372 b93d 5542 77bc ee4d ee3c
000003b0: 6ba1 f5bd d82f 81bd 9c6c 1f3e 607c 443d
000003c0: e9d3 823a 404c 64bd ae6e 26bd 74e8 0ebe
000003d0: d6bd 6fbd 0bc4 433c 04e3 093e c332 1e3d
000003e0: 720d 763d a8d8 0d3e 278e 7bbd 2717 283d
000003f0: c152 223d aa67 ab3b 8f4b 8cbd 0d1d b33d
-0.006607111 0.024687018 0.2706882 0.07072328 0.014842053 -0.014655034 0.09502198 -0.031983115
-0.02454213 0.05328621 0.079481445 -0.14152671 0.09567429 0.03911507 -0.013259546 0.19468035
-0.071476005 0.06178091 0.045751423 -0.005084253 0.035421833 0.010040397 -0.029088901 -0.10470794
-0.0326511 0.0051626535 -0.07702736 -0.06418164 0.020578077 -0.01836992 -0.07019583 -0.030887
0.091001436 -0.043845516 -0.019338261 0.024061918 -0.22306687 -0.09985751 0.013586141 -0.10495719
-0.044113513 0.023510305 -0.10366924 0.026652936 -0.05443373 0.027537944 -0.027688736 -0.036791816
0.026402617 -0.03686284 -0.0546385 0.15275773 -0.04307528 0.036083944 0.051029727 -0.19824591
0.17528792 0.050512563 0.0052482476 0.06391845 0.10619215 -0.057746906 0.077190615 0.07440023
0.04411313 -0.15070304 0.11137893 0.04578805 0.05226957 -0.114286095 -0.019944493 0.0021734866
0.03432427 0.109168924 -0.0044939625 0.039828327 0.016692828 0.038205113 -0.1283627 0.21441047
0.15200819 0.22319598 0.01917321 -0.020314587 0.052922416 -0.081162654 -0.010370569 0.089519516
0.027197879 0.107909 -0.030194722 0.084432915 -0.004186425 0.07224964 0.024956308 0.17277054
-0.07126149 0.03403357 -0.054391105 0.162248 -0.10451993 0.035326127 -0.16797219 0.02291307
-0.044699844 0.00057240576 0.0065825265 0.10085811 0.18683854 -0.10138957 0.015561531 -0.06272993
-0.034869216 0.042987328 0.044527598 0.016456446 0.04183278 -0.043877292 0.01156667 -0.03472366
0.09148759 -0.11600911 0.03272578 -0.34161764 0.004005569 -0.09447435 -0.005834333 0.05451042
-0.002499121 0.026000505 -0.0015457388 -0.1240353 -0.04755221 -0.06566687 -0.06708932 -0.17354538
-0.010821702 0.0867023 0.17144178 -0.08763221 -0.29704392 -0.07071277 -0.08555521 -0.22474796
0.0342951 -0.14230408 0.010005031 0.16001873 -0.23299366 -0.1278066 0.014331723 -0.039730374
-0.022002019 -0.06830071 -0.015501741 -0.14460024 -0.048611045 0.030014683 -0.029661968 -0.061917324
-0.11654457 0.16655073 0.07880069 -0.03754944 -0.054125994 0.05295774 -0.090769336 -0.019368801
-0.0321721 0.11071681 0.05827844 0.08294259 0.010126335 0.04414011 -0.05443738 0.09984003
-0.055278193 0.11793986 -0.14121528 0.021092186 -0.17662539 0.12310094 0.045664504 0.010763582
-0.01929811 -0.15929373 -0.08640818 0.16178574 -0.041453704 0.047119766 0.12773307 0.20937116
0.025043521 0.011985924 -0.074826606 0.05377759 0.1370803 0.06769483 0.07711821 0.03433307
-0.09657346 -0.011987011 0.10520046 0.081508316 0.040516056 0.079432994 0.13816789 0.13536252
0.028759848 0.119370274 0.09422517 0.15095675 0.036153156 0.06749017 -0.031486623 -0.0111732995
0.044665895 -0.023467043 -0.003601551 0.060722154 0.03381838 -0.091704026 0.16617292 -0.10181525
0.01243282 0.009794852 -0.03963164 0.0025895876 -0.17730549 0.0064589833 -0.0033779084 -0.037812643
-0.00034636646 0.09055021 -0.015091498 0.029089894 -0.11993679 -0.063079536 0.15568775 0.047970176
0.0009981367 -0.05573678 -0.040632896 -0.13955861 -0.05853065 0.011948596 0.13465506 0.03862263
0.060071416 0.13852179 -0.061414864 0.041037705 0.0396297 0.0052308636 -0.06850349 0.08745775

actor.2.bias f4 [256]
00000000: 3e9f a7bd 82a8 c1bd 3c14 abbd c51a 173d
00000010: 8e38 02be a87d bdbd b62b a93c c036 95bc
00000020: e730 dcbd 5ca5 90bd 9f01 8abd f38f a739
00000030: bfd2 a3bc c51d 46bd d639 54bc 18b2 02bd
00000040: f1e0 19be d4b0 e6bd 5ebf 68bd c34e 3dbd
00000050: fbb4 a3bc 4a4f 12bd 18a0 eebd 728a 7fbe
00000060: a4f7 46bd 368e bbbd f010 ffbd 9c7b 08bd
00000070: 3d36 35bd 4db4 1bbe c7e9 143d ea0a 59bd
00000080: 68af 32bc 4ad0 81bd d94e dcbd 149f 3abd
00000090: d236 14be 4746 4a3d 74b1 9ebd b015 8dbd
000000a0: f430 2ebe 2495 80bd d232 20bd 5401 f0bd
000000b0: ef31 9fbd 5167 cdbd 4550 1fbd 4a45 eabd
000000c0: ec1d 9fbb 3fe9 b9bc 4048 97bd 5bc2 a4bd
000000d0: f602 b1bd 5117 bcbd 2901 e2bd 963d 6cbc
000000e0: 074c fdbd 5aa7 1abe b6e9 bbbd 1af3 1dbd
000000f0: ac0c 11be c9c0 12bd dd2b febd fdec b0bd
00000100: de22 b73b 52a6 44bd 78dc f9bc e87f 50bc
00000110: 8e79 35be f51f 9abd 1282 d43c 3a4a 083c
00000120: 684b f8bc bdb3 ffbc f7e9 d3bd 8551 2fbd
00000130: ab4f 21be e050 b5bd b874 c6bd 8597 8cbd
00000140: c7cf 2ebe c745 e43b 37ec e5bb 5a93 10be
00000150: 3a45 93bd 60fd 06be 194b c1bd 7c7a 19bd
00000160: b7f9 d7bd e7d7 1dbe 3a5a 27bd 8314 7cbd
00000170: a5a6 43bd 579b fbbc 3467 89bd c479 1ebe
00000180: 7882 0bbe dd7e 8dbd 7b02 56bd 73d5 ccbc
00000190: 2433 0dbd dfec 0cbd 41ae 9bbd 58a1 f4bd
000001a0: b253 5fbd b267 34bd c7f7 1bbd 75be 77be
000001b0: 9ab4 9ebd 713f da3c c1c5 45be 6131 b2bd
000001c0: 8e14 35be 9f39 0dbe 3280 bfbb 8453 4dbd
000001d0: 21d8 8ebc 684d d9bd bcde 09be 4afc afbd
000001e0: 87b0 edbd 9eef 80bd 2da2 babd aca2 34bd
000001f0: e0c8 cebd dd61 89bb 7112 9abd 692e 77bb
00000200: f561 6abd 8dc6 ebbc 3b2e 42bd 2b90 17be
00000210: 7960 1fbe 7fb9 4ebd 92fc a9bd e64c 97bb
00000220: 1611 ddbd d934 f2bd 5154 efbd 8e69 eebb
00000230: ad96 65bd 04f3 d1bd ef00 64be bd24 0bbe
00000240: 6645 a2bd a231 b7bc 7b2b 18bd 8c5f 4e3a
00000250: f4b8 80bc eef2 babc 4581 7ebd 874a 03bd
00000260: e0ac 6ebd 1267 acbd 4ab6 4dbd 64da c4bc
00000270: 5cc6 04be de22 7fbd 602e 02be c4ea 83bd
00000280: 9ddd 3ebd 37fb 2e3c 232e a3bc 57e5 acbd
00000290: 2898 83bd bf42 0cbe 1f1d 9cbd c5d1 d7bc
000002a0: 9697 26bd 83fc 8ebd 8d98 f6bd 66df fdbc
000002b0: d21e 82bd 0f89 a2bd 2c25 e8bd 9334 17be
000002c0: 121d 48bd fee5 f2bd d57f 14bd 66eb 1bbe
000002d0: 6aa5 2dbe a167 bbbd 8407 bfbc c741 6cbd
000002e0: 3bbd 73bd db59 8bbd f05c 66bd 3502 8abd
000002f0: 5570 92bd 40ff 23bd 407e 08be 27e5 3c3d
00000300: 9cbd 05be fbad 87bd d69d 1abd d7c1 c4bd
00000310: a3b6 8b3c 8fed babd f186 30be f526 98bd
00000320: a560 b93c c20e 76bd e477 95bc 6a33 e9bd
00000330: 4645 c0bd eef3 0cbe 777e 24bd 12cf 69be
00000340: 3642 83bd 1ca5 1cbe c313 c9bd 04e2 c4bb
00000350: d20e 72bd 74f9 7fbd 461c 4dbd ab82 6fbd
00000360: 3f30 1ebe 0459 5bbe f355 80bd fb43 9b3c
00000370: 229e 0ebe ea84 f0bd fd88 cfbd 54bd 1cbd
00000380: 85ab 39bd c089 77bd 57b8 01be effc 44be
00000390: e42e 01bc 686f 103b e912 bebb 24b2 d0bd
000003a0: 96ef 91bd 2491 d2bd 1815 2bbe 64ed 8bbc
000003b0: 6d18 12be 4c23 06be 5645 d5bd fe9c 67bd
000003c0: ecd7 12be 54ec f9bd bb37 14be 2870 40bc
000003d0: d6ab 51bd 0be4 acbc 2f6c 0bbe f417 debd
000003e0: 0df1 29be 6aa3 a0bd 1da4 2bbd c542 6ebd
000003f0: 5576 c5bd f76f 13be df98 a13b c602 0abc
-0.0818467 -0.094559684 -0.08353469 0.036890764 -0.12716886 -0.09252483 0.020650726 -0.018214583
-0.10751515 -0.0706279 -0.067385904 0.00031959973 -0.019997953 -0.048368234 -0.012953242 -0.031908125
-0.15027215 -0.11264196 -0.056823127 -0.04621769 -0.01998376 -0.035720147 -0.11651629 -0.24955156
-0.048576012 -0.09157984 -0.124544024 -0.033321008 -0.04424118 -0.15205498 0.03635576 -0.052988924
-0.010906078 -0.06338556 -0.107572265 -0.045561865 -0.14474037 0.049383428 -0.0774869 -0.06888902
-0.17010862 -0.06278446 -0.039110966 -0.11719003 -0.07773196 -0.10029472 -0.03889491 -0.11438997
-0.004855862 -0.022694228 -0.073868275 -0.08044883 -0.08643143 -0.09184135 -0.110353775 -0.01441898
-0.12368017 -0.15102902 -0.09175436 -0.038561918 -0.1416499 -0.035828386 -0.1241071 -0.08638952
0.0055888733 -0.048010178 -0.030500636 -0.012725808 -0.1772215 -0.075256266 0.025940929 0.008318478
-0.030309394 -0.031213636 -0.1034736 -0.042802352 -0.15753047 -0.08853316 -0.09690231 -0.068648376
-0.17071448 0.006966326 -0.0070166844 -0.1411871 -0.07190938 -0.13182592 -0.09438152 -0.037470326
-0.10545676 -0.15414391 -0.04085753 -0.061543 -0.047766346 -0.03071372 -0.067091376 -0.15476137
-0.13623989 -0.06908963 -0.05224846 -0.025004124 -0.0344726 -0.034405585 -0.07601596 -0.119448364
-0.054523177 -0.044044204 -0.038078096 -0.24193747 -0.07749291 0.02664158 -0.19313718 -0.087008245
-0.17683622 -0.13791512 -0.0058441395 -0.050128475 -0.017437043 -0.10610467 -0.13463873 -0.08593042
-0.116059355 -0.06295703 -0.09112964 -0.04410045 -0.100969076 -0.0041925744 -0.07523049 -0.0037716872
-0.057222325 -0.0287812 -0.04740737 -0.1480109 -0.15564145 -0.05046987 -0.08300127 -0.0046173213
-0.107942745 -0.11826486 -0.11686004 -0.0072757667 -0.0560519 -0.1025143 -0.22265981 -0.13588233
-0.07923393 -0.022362534 -0.03715084 0.0007872514 -0.015713193 -0.022820916 -0.062135 -0.032053497
-0.058270335 -0.084180966 -0.050222673 -0.024029918 -0.12966293 -0.06228911 -0.12713003 -0.06441262
-0.046598066 0.0106800115 -0.01991946 -0.084421806 -0.06425506 -0.13697337 -0.07622742 -0.026345143
-0.040671907 -0.069817565 -0.120408155 -0.030990314 -0.06353535 -0.07936298 -0.11335215 -0.14766149
-0.04885585 -0.11860274 -0.036254723 -0.15226516 -0.16957632 -0.09150625 -0.023319013 -0.057679918
-0.059506636 -0.06804248 -0.056240976 -0.06738702 -0.07150332 -0.040038347 -0.1332941 0.046116974
-0.13060611 -0.06624981 -0.03774818 -0.096072845 0.017054861 -0.09127342 -0.17238976 -0.074293055
0.022629092 -0.060072668 -0.018245645 -0.113867596 -0.09388213 -0.13764927 -0.04015967 -0.22832897
-0.06409113 -0.15297359 -0.098182224 -0.0060083885 -0.059096165 -0.062493756 -0.05007579 -0.058474224
-0.15448092 -0.21420676 -0.062663935 0.018953314 -0.1392751 -0.11744101 -0.1013355 -0.038266495
-0.04532959 -0.060434103 -0.12667976 -0.19237112 -0.007884715 0.002203906 -0.005800594 -0.10190228
-0.071257755 -0.102815896 -0.16707265 -0.01708097 -0.1426713 -0.13099402 -0.104136154 -0.056546204
-0.1434018 -0.12203279 -0.14474384 -0.01174549 -0.051189266 -0.021104833 -0.13615488 -0.108444124
-0.1659586 -0.07843669 -0.041904557 -0.058169145 -0.09641711 -0.1439818 0.0049315537 -0.008423513
