policy/Himloco/policy_6_9.onnx (onnx, 978188 bytes, 14 tensors)

estimator.0.weight f4 [128, 270]
000000 6d 9c 13 3c a5 dc 0e bc d7 04 82 be 4a 12 80 3e
       0.009009463 -0.008719598 -0.25394318 0.25013953
000010 26 0d 67 3f 3d 22 9b bf 0b fa 94 3f 2a ef 69 be
       0.9025444 -1.2119824 1.1638807 -0.2284514
000020 b5 9a 6b bd d8 df 59 3f 32 f1 d0 be 0f bc d8 bd
       -0.057520587 0.85107183 -0.40809017 -0.10582744
000030 a0 01 cc 3d c7 31 cc 3e 0f 5a b3 be 9d d8 ca 3e
       0.099612474 0.39881727 -0.35029647 0.39618388
000040 8e 4e e2 bd 6b d5 31 bd ec 3a 93 bd fe d6 42 bf
       -0.11050139 -0.04341642 -0.07188973 -0.761093
000050 d0 c6 0f be e6 f1 0b 3e 28 14 0e 3d 4b 08 99 bb
       -0.14040685 0.13666496 0.03468719 -0.004670178
000060 5c fb 83 be 6c 2d 3c 3e e2 00 c1 3d cd 22 78 3d
       -0.2577771 0.18376702 0.094239965 0.060580064
000070 2e 39 9c bd ad f4 6f bd 7c cd 90 be a3 a0 30 3f
       -0.07628094 -0.05858295 -0.28281772 0.6899511
000080 b6 ca 19 40 b0 42 0d bc 67 6b ad 3d 62 47 2b bc
       2.4029975 -0.008621857 0.08467751 -0.010454031
000090 9b c3 0e 3c cc 3c e9 bd a4 06 82 3d 06 e0 47 bd
       0.008713628 -0.11388549 0.06348923 -0.04879763
0000a0 fa bd 08 bd 77 ef fe bc 70 ad af bd 52 b5 11 be
       -0.0333843 -0.031120045 -0.085780025 -0.14229324
0000b0 71 47 32 bd 14 0e dd bb 4c 79 2c 3c 84 e9 02 be
       -0.043525163 -0.006746063 0.010526966 -0.12784392
0000c0 d8 a0 e9 3e e4 65 27 3f 40 67 40 be b5 da 50 3f
       0.45630527 0.6538985 -0.18789387 0.8158372
0000d0 25 4b 32 be ab 09 10 bd a0 6e dc 3e 0e 25 cd be
       -0.17411478 -0.03516547 0.4305315 -0.40067333
0000e0 ca 0f 99 3d e6 fd 3c be f8 6d 0f 3e 22 4c 39 3e
       0.07473715 -0.1845623 0.14006793 0.18095449
0000f0 fb 9f 98 3d 4b 37 9b be 41 15 19 3e 35 cb 69 be
       0.07452389 -0.30315623 0.14949514 -0.22831424
000100 70 aa a2 3d 3f 79 05 bf 91 1e 04 bc 6b 10 fb 3d
       0.079426646 -0.5213813 -0.008063928 0.12258991
000110 b9 d5 89 3d 05 ac 8e bd ec fc cd 3d 32 6b 9c 3b
       0.067302175 -0.06966404 0.10058007 0.004773521
000120 11 53 af 3b e5 6b bd bd a9 df 8d 3d 7f 06 e0 be
       0.0053504785 -0.09249095 0.069274254 -0.43754956
000130 63 06 89 bf e6 3a 1e be 0f da 70 bb ca 39 39 3d
       -1.0705074 -0.15452155 -0.0036751067 0.045221128
000140 27 a5 a1 bb 5e 85 c7 3c 2a b1 42 bd b4 24 88 3c
       -0.004933018 0.024355587 -0.047532238 0.016619064
000150 bf 0d 95 bc ac 4a 17 3d e5 67 79 bd 43 49 92 bd
       -0.018195031 0.036936447 -0.060890097 -0.0714288
000160 94 2f b1 bd cf a7 41 bc e1 c5 f5 3c 03 22 08 bd
       -0.08651653 -0.011819794 0.030001583 -0.03323556
000170 9e 77 f5 3c 98 37 65 3e 7c 4f 9f 3e 19 a8 42 be
       0.029964264 0.22384489 0.3111533 -0.19009437
000180 5b 32 e3 3e b4 13 48 be ab b4 58 bd 92 c3 a0 3e
       0.44374356 -0.19538766 -0.052906673 0.31399208
000190 96 b4 c3 bd 5c 9c 01 3e b5 a0 2b be 9f 45 34 3e
       -0.095559284 0.12657303 -0.16760524 0.17604683
0001a0 50 40 1e be 33 70 32 3d 73 46 33 be 08 d7 09 bc
       -0.15454221 0.043564033 -0.17507343 -0.008413084
0001b0 8f e6 4e be 35 77 84 3f b7 90 13 3f 48 0d 84 bd
       -0.20205139 1.0348879 0.5764269 -0.06447846
0001c0 7e d6 76 3d c4 9a c6 3c 40 0c 8c bd 0c 30 06 3d
       0.06026315 0.02424372 -0.06838274 0.032760665
0001d0 2d f0 b0 bc 3c 0d b1 bd b4 76 80 3d 0d 30 27 3d
       -0.0215989 -0.086451024 0.06272641 0.04081731
0001e0 d8 e6 9e 3d bd 02 1f 3b 1b e8 b9 bd b5 03 1e ba
       0.07758874 0.0024263107 -0.09077474 -0.0006027774
0001f0 2f 5e 15 3d 9c b3 b9 bc 20 8e 75 3b 19 5e 52 bd
       0.036466774 -0.022668652 0.0037468746 -0.05135927
000200 7a 39 93 3c 9f 4e 3f bc 98 eb 98 3c e5 4a 33 bd
       0.017971743 -0.01167646 0.018667027 -0.043772597
000210 ef 49 cf bc a3 30 e9 bb 24 b5 02 bd 3c ae 08 3d
       -0.025303809 -0.0071163937 -0.03191103 0.033369288
000220 ec 0e 66 3d 42 bc 11 3c 62 54 58 3d f0 de 5a 3d
       0.056166574 0.008894982 0.05281485 0.053435266
000230 42 e4 90 3d 26 27 8a 3e 6c ae 5b be f9 a7 52 3d
       0.07074787 0.26982993 -0.21453255 0.051429722
000240 50 93 a9 3e 9f 7f 7b bd b1 06 54 3d e5 94 90 3d
       0.33120203 -0.061401006 0.051764194 0.070596494
000250 39 e7 45 3d 61 19 5a be c5 03 89 39 6d 2c bf 3b
       0.048316214 -0.21298744 0.00026133485 0.0058341534
000260 8e 32 fa bc 57 77 3c be 05 b9 16 3f 58 56 8a 3e
       -0.030541684 -0.184049 0.5887607 0.27019
000270 ad 98 6a be b8 e8 41 bc 5b 03 83 3a aa 21 1b bc
       -0.22909804 -0.01183527 0.0009995507 -0.009468475
000280 81 43 a9 3d 76 61 42 bd 8d da 72 ba 0f ea ac 3d
       0.082648285 -0.047456227 -0.0009264134 0.08443081
000290 03 65 7e 3d 37 8d c1 3d 24 28 b0 3e 5e 03 c3 3d
       0.06210805 0.09450763 0.34405625 0.095221266
0002a0 a1 e6 23 ba a9 34 f8 3c 8e 70 3f bc 87 35 d7 3b
       -0.0006252323 0.030298548 -0.01168455 0.0065676603
0002b0 04 56 21 bd 5b 96 6f 3c 34 80 ba 3b 53 60 d8 3c
       -0.03938867 0.01462325 0.0056915525 0.026413118
0002c0 f1 f8 e1 bc 96 4d b8 bc b3 c0 06 3d 63 5d 26 bd
       -0.027584525 -0.022497933 0.032898616 -0.040616404
0002d0 72 e5 ac 3c 3c c0 41 3d 48 26 c4 3d f4 35 44 3d
       0.021105502 0.04730247 0.09577614 0.047903016
0002e0 a6 94 7b 3e e4 66 39 3e 6a 86 05 3e 72 87 2d be
       0.24568424 0.18105656 0.13039556 -0.169462
0002f0 06 44 73 3d 90 c5 77 3e 9f ea 76 bd 4a 37 4c 3c
       0.059391044 0.24196458 -0.060282346 0.012464354
000300 11 cc 49 bd fb e2 aa bc 02 68 b8 bd b9 d0 ca bd
       -0.04926688 -0.020860186 -0.09004213 -0.09903092
000310 94 d3 f2 3d 01 53 e8 bb f5 8e 2a 3d 2d a7 9d 3e
       0.118567616 -0.007089973 0.04164024 0.30791607
000320 02 24 67 3e d7 85 cf 3d 4b 99 1e bd 3b ae 40 bd
       0.2257233 0.1013295 -0.03872041 -0.04704116
000330 7c 03 ef bd 74 a0 53 3d 8a 67 e9 bb db c6 21 be
       -0.116705865 0.051666692 -0.0071229385 -0.15798514
000340 2e 34 6f bc 06 f5 dd 3d ad a5 64 3d 2a 51 4d 3c
       -0.014599843 0.1083775 0.055822063 0.012531558
000350 6e 91 0d 3d 17 8b 8c 37 84 d5 14 3c 14 5a 7b bc
       0.03456252 1.675407e-05 0.009084109 -0.0153413005
000360 91 2e ad 3b 61 da 90 bc 8f 96 d9 3b 4b c1 38 3c
       0.005285092 -0.017682256 0.0066402624 0.011276553
000370 a2 57 f3 bb e8 30 ca bc 21 79 e1 bc 12 35 43 3c
       -0.007426218 -0.024681523 -0.02752358 0.011914508
000380 96 cf 1e bd 77 42 08 be 24 06 0f 3d e9 3d 9e 3e
       -0.038772188 -0.13306604 0.034917966 0.3090661
000390 2c b6 be 3d 9b 60 5d 3e 0b 55 89 3d a4 8e 11 3d
       0.0931209 0.21618883 0.06705674 0.035536423
0003a0 13 40 8f bd ef 3a cd 3d 1b 80 0b 3e d2 bb 4e bd
       -0.06994643 0.10021006 0.13623087 -0.05047209
0003b0 ce 96 b0 bd 9b 68 42 be b8 8e 02 bd 41 96 30 3e
       -0.08622514 -0.18985216 -0.03187439 0.17244817
0003c0 20 82 b3 bd fe 22 df 3c 59 8b 41 bd 8d df d6 3e
       -0.08765054 0.027238365 -0.047252033 0.4196743
0003d0 f7 a0 6f 3e b0 c5 b4 3d 0e 37 74 bd 16 0e 27 be
       0.23401247 0.088267684 -0.059622817 -0.16313967
0003e0 be ed ce bb ee 9d 15 bd 87 7b 9d 3d 12 c1 c5 bc
       -0.006314962 -0.036527567 0.076895766 -0.024139915
0003f0 6b d5 9c bd 86 a2 22 3d 32 93 c9 3c 8d 6f 0b 3d
       -0.07657894 0.039705776 0.024606321 0.03404193

estimator.0.bias f4 [128]
000000 01 2a 43 bd 22 24 11 3c 93 7c 5d 3d d1 6a c6 3d
       -0.04764748 0.008858712 0.05407388 0.09688342
000010 6a ff 04 be 67 7e 33 be 05 2b 35 be 1f 21 6d bd
       -0.12988058 -0.17528687 -0.17692192 -0.057892915
000020 6a 64 d0 3c 40 69 1a 3e 20 f9 ee bd 51 9c d0 3d
       0.025438506 0.15079212 -0.116686106 0.10186065
000030 19 70 3a 3d 08 58 ac bd 4c 0c 29 3d 67 35 39 be
       0.04551706 -0.08415228 0.041271493 -0.18086778
000040 e2 5a f4 3e 59 13 39 bc 82 1a 7c be 7e 74 52 be
       0.47725588 -0.011296117 -0.24619487 -0.2055225
000050 82 ee 90 3d 1b 3a 5f be fd 8a 48 3e ad 30 eb bd
       0.07076742 -0.21799509 0.1958427 -0.114838935
000060 43 70 9d 3e 4d 93 1d bd c3 d1 97 be d5 c3 f6 3c
       0.3074971 -0.038470555 -0.29652223 0.030122677
000070 d2 9c 64 be 81 30 0b 40 d1 9d 82 3e ff 58 0f be
       -0.22325447 2.1748354 0.2551103 -0.13998793
000080 d8 15 55 bd 65 16 d6 be c7 8a 14 3e a3 20 4a bf
       -0.052022785 -0.4181396 0.14506064 -0.7895605
000090 9a 86 56 be 95 b4 05 3e c0 08 a7 be 1b 05 1b bd
       -0.20949784 0.13057168 -0.32623863 -0.037846666
0000a0 68 a4 a8 bd b3 2f 39 be 6d b9 58 3e 57 30 ee be
       -0.08234483 -0.18084602 0.21164484 -0.46521255
0000b0 e0 ca 3f 3e 2c 20 06 be 4c 76 6c 3d b0 ee f8 3d
       0.18729734 -0.1309821 0.057730004 0.12154901
0000c0 29 5b 31 bf 69 aa 8e bd 48 d9 c0 3d aa c1 ca be
       -0.69279724 -0.06966097 0.09416443 -0.3960088
0000d0 9a 8a 1f bf 89 fe 54 bd 7b ef e1 bd 47 00 85 3d
       -0.62320864 -0.052000556 -0.110320054 0.064941935
0000e0 bc 41 da 3c 21 ec 3c 3d c6 31 2f be db 2b 08 be
       0.026642673 0.046123628 -0.17108831 -0.1329798
0000f0 a4 4a 18 3e f3 40 38 be 3d 9c 1f bd 8c a4 47 be
       0.14872223 -0.17993526 -0.03896736 -0.19496363
000100 0e e1 d6 bd d0 0c 05 3e 58 3c 6f be 48 c6 22 bd
       -0.104921445 0.12993169 -0.23362863 -0.039739877
000110 d4 d5 34 3d d8 e6 bc bd 14 bf 13 be c9 bc 3a bd
       0.044149235 -0.092237175 -0.1442836 -0.045590196
000120 2f d4 53 3e 26 4a b7 3e 4c 35 8a 3e c0 9c 0f be
       0.2068641 0.35798758 0.26993787 -0.14024639
000130 81 d8 1f be f1 a0 23 be 6d 29 14 3f b9 83 a8 be
       -0.15609933 -0.15979363 0.5787571 -0.32912996
000140 cb 9e a5 bc b0 87 d0 bd 42 77 b2 3d 40 7c 93 bd
       -0.02021732 -0.1018213 0.08714153 -0.07201433
000150 b5 9e c7 3e 8d f2 61 3e 75 17 11 3e e7 d7 4c be
       0.3898827 0.22065182 0.14169104 -0.20004235
000160 37 34 08 3e 63 04 c8 be 32 fc 82 be bb 96 9b 3e
       0.13301168 -0.39065847 -0.25583035 0.30388436
000170 99 8c 88 3e 8e d9 f6 3b 0a 10 cd be 75 b2 d4 bc
       0.26669767 0.0075332588 -0.400513 -0.025964001
000180 3a 63 0e be 72 5b 82 3e 81 3a fc 3e 41 93 02 3e
       -0.1390504 0.25460392 0.49263385 0.12751485
000190 ce 8f bb 3c 0e 63 27 bd 3f 79 fc 3d 7e 56 80 bc
       0.02289572 -0.04086595 0.12327813 -0.015666243
0001a0 72 75 ae 3e 0e 4f 80 be cf 03 b7 bc 97 e7 4a be
       0.3407398 -0.25060314 -0.022340683 -0.19814907
0001b0 83 10 ec be 0b b7 28 3d 93 e6 3a bf ca 03 e0 bd
       -0.46106347 0.04119019 -0.7300808 -0.10938223
0001c0 28 6b 1c bf 6e 4e 60 bd 5e 35 25 3e 88 41 0e be
       -0.6110101 -0.054762296 0.16133639 -0.13892186
0001d0 1b 54 25 3e 0a 04 73 bd 33 66 95 3e 68 dd 89 be
       0.16145365 -0.059330024 0.29179534 -0.26926732
0001e0 8c af 38 bc c5 34 fc be d6 3d 37 3e 2f 76 05 3c
       -0.011272322 -0.4925901 0.17894682 0.008145853
0001f0 45 f3 99 be e1 c8 22 be cb 44 2f 3e d8 18 79 3d
       -0.30068412 -0.15896942 0.17116086 0.06081471

estimator.2.weight f4 [64, 128]
000000 57 9c c4 bd ea 2a 83 bd 92 72 da 3d 1c e2 c5 3d
       -0.09600132 -0.064046696 0.10666384 0.096622676
000010 90 bd a1 bd 7c 5c cb 3c 29 9a 25 be 82 33 14 be
       -0.07897484 0.024824373 -0.16172089 -0.14472774
000020 d2 45 f7 bd 63 d4 39 bb f3 0e 43 3d e5 49 77 bd
       -0.12073864 -0.0028355352 0.04762168 -0.060373206
000030 67 32 f6 bc 4d b9 78 3d 0b 4d 09 bd a4 16 5e 3b
       -0.03005333 0.06072359 -0.03352074 0.0033888007
000040 af e7 df 3d ab b9 3e bd 15 95 1a 3e 70 f6 5a bd
       0.10932862 -0.046563786 0.15095933 -0.053457677
000050 43 24 86 bb 90 da 96 bd 72 06 03 bd 2f 9d 7a bd
       -0.004093678 -0.07365906 -0.03198857 -0.06118506
000060 d3 e0 c5 3c 94 7f 10 bd c8 dc f8 3d 52 3b ae be
       0.024155056 -0.035277918 0.12151486 -0.34029633
000070 af 80 15 be 78 d6 17 be fd 28 4c be 30 5e 8a 3c
       -0.1459987 -0.14827907 -0.19937511 0.016890615
000080 46 ec 08 bd 2c 8b dc 3d 23 8b 85 3e 71 b3 01 3e
       -0.033428453 0.107687324 0.26082715 0.12666108
000090 81 4e 68 be 38 9a 4d 3d fe 9d 10 be b8 7e 91 3e
       -0.22686197 0.050195903 -0.14122769 0.2841699
0000a0 5b 01 0b 3b 69 91 40 bd f2 31 2d be 24 90 04 3e
       0.0021210525 -0.047013674 -0.16913584 0.1294561
0000b0 93 46 09 bc 28 35 44 3d 46 4d 46 3d 58 0e 12 be
       -0.008378643 0.047902256 0.048413537 -0.14263284
0000c0 54 1d a0 3d 86 39 c7 bd 60 19 09 bd 34 fd ac 3c
       0.07818094 -0.097277686 -0.033471465 0.02111683
0000d0 5f b6 09 be 90 c8 35 3d 3d 3b 1c be 22 ab c1 bd
       -0.13448475 0.044380724 -0.15256973 -0.09456469
0000e0 2d d8 e5 bc 1a 64 d3 3c df 51 17 bd f4 4f 87 3d
       -0.028057182 0.025804568 -0.036943313 0.06607047
0000f0 0d 25 37 be 6d 8d cf 3e f0 a5 21 3b 42 45 87 be
       -0.17885228 0.40537587 0.0024665557 -0.26420027
000100 cd 62 89 be bb ec 93 bb 5c 3d df 3d 96 06 dc bc
       -0.26833192 -0.0045143045 0.10900375 -0.02685861
000110 02 65 b3 3d be db 06 bc 4d 86 10 be 5f b0 c5 bd
       0.087595 -0.008231102 -0.14113732 -0.09652781
000120 9d b4 07 3e 64 61 ee 3b 43 65 c3 3d 18 66 4e bd
       0.13252492 0.0072747935 0.095407985 -0.050390333
000130 1c 81 80 bc 23 b1 30 be 76 55 82 3d f2 86 59 3c
       -0.015686564 -0.17255072 0.06363957 0.013276802
000140 96 54 58 be 12 e8 25 bc c9 82 8d bc 95 bf 9e be
       -0.21126017 -0.010126131 -0.017274277 -0.3100554
000150 fa a7 bb be 83 42 16 be 2f a1 11 3d ce c6 87 3d
       -0.36651593 -0.1467381 0.035554107 0.06629716
000160 2b d5 79 3c c7 78 a6 3d 8a ac 5f be 99 38 02 bd
       0.015248577 0.08128505 -0.21843162 -0.031792257
000170 1d 46 d1 3d 50 87 f5 3c 27 f9 db 3d 07 1f 66 be
       0.10218451 0.029971749 0.107408814 -0.22472773
000180 7c 2a dd bc 4f f2 9c bd a1 9a 33 be d1 d6 91 3d
       -0.026997797 -0.07663404 -0.17539455 0.07121051
000190 59 d4 a7 3e b5 17 34 be f3 cf 36 bd e4 39 34 3d
       0.32779196 -0.17587169 -0.04463191 0.04400052
0001a0 88 c4 79 3d 1b 92 6a bd 01 eb 3e be 3a c3 71 bd
       0.060978442 -0.057268243 -0.18644334 -0.059024073
0001b0 2d 3a 90 3d 06 91 db bd c4 f0 d5 3c b1 fc 36 bd
       0.07042346 -0.107210204 0.026115783 -0.04467458
0001c0 d3 55 f7 3a b6 57 1a 3d 51 38 06 3e 7b 5a d7 bd
       0.0018870182 0.037681304 0.1310742 -0.10515305
0001d0 6d 5e 9c bc 10 c6 1f bd e3 bf 47 3d 93 54 05 3e
       -0.019087994 -0.039007246 0.04876698 0.13020544
0001e0 43 7a 44 3d 17 25 25 bd d2 52 79 be 37 bd 87 3d
       0.04796816 -0.040318575 -0.24348 0.06627887
0001f0 b5 56 de 3a 66 8e 83 3d 06 48 ab bd 0e 64 c0 3d
       0.0016963097 0.06423645 -0.08363347 0.09394084
000200 0a 57 97 be 72 ae 07 3e 3f 3b 0f 3e ec a9 31 3d
       -0.29558593 0.1325014 0.13987444 0.04337494
000210 9f b2 80 3c a4 06 66 bd 94 4c 37 3e bf c9 e2 3d
       0.015710173 -0.056158677 0.17900306 0.11073636
000220 36 39 22 bf c0 69 98 bd 2a 18 9d 3b c1 22 de bc
       -0.63368547 -0.07442045 0.0047941403 -0.027116181
000230 1d ba 92 bd cb b9 5b be 62 4f ff bd 87 ef 51 bd
       -0.071644045 -0.21457593 -0.12466313 -0.05125382
000240 56 e8 31 3e 61 34 20 3f de ee 27 be 65 c9 bd 3d
       0.17373785 0.62579924 -0.16399714 0.092669286
000250 d1 88 2f 3e 88 c8 14 3e 07 9f 4d 3d ed 5e 9f bd
       0.17142035 0.14529622 0.05020049 -0.077817775
000260 ac 93 6f be 3b 90 3d bc 09 e0 31 3e 99 2c 1c be
       -0.23396176 -0.011570032 0.17370619 -0.15251388
000270 aa e8 89 be a2 9c bf 3e 74 fa 5f 3e 66 70 91 3c
       -0.2693532 0.3742419 0.21872884 0.017753791
000280 e5 42 8d bd 7d ae 10 3e 24 4e 5e 3d c5 63 bd bd
       -0.06897525 0.14129062 0.05427374 -0.09247545
000290 70 69 a1 3c 98 24 5d 3c 98 29 d6 bd e4 12 a8 be
       0.019703597 0.013497494 -0.10457152 -0.32826912
0002a0 ac 19 f0 bd a7 a1 0a 3d 15 9d 74 3c 4e 67 3e 3e
       -0.117236465 0.03384557 0.014930029 0.18594095
0002b0 4c ab b6 be 90 db af bd 25 f8 9f 3e 1e c6 18 3e
       -0.35677564 -0.085868 0.31244007 0.14919326
0002c0 2b 51 58 bd 2e 48 3d 3e 8b 70 7d bb 8c 65 ed bc
       -0.052811783 0.18484566 -0.0038671817 -0.028979085
0002d0 56 75 5f 3e 13 78 07 3e 36 7c 2e 3d 7a 61 95 bd
       0.21822104 0.13229398 0.042598926 -0.07293983
0002e0 ba 12 13 3e a4 48 1a be 5b 38 ca bd 96 70 5a 3e
       0.14362612 -0.15066773 -0.0987403 0.2133201
0002f0 6a 03 08 be cf eb 06 be 02 45 b6 3d 94 1c 80 3d
       -0.13282552 -0.13175891 0.08899881 0.06255451
000300 d1 89 79 3e c4 47 22 3e f9 44 8d 3e 31 1b 81 3d
       0.24368979 0.15847689 0.27591684 0.063040145
000310 f0 61 38 3d 2c 8a 57 bd 66 51 ca 3d 9d b9 34 be
       0.045015275 -0.052622005 0.09878807 -0.17648931
000320 d4 0d 90 be b7 fb 82 be 30 0d db bd 4e 11 80 bc
       -0.2813555 -0.25582668 -0.10695875 -0.015633252
000330 cb 13 c4 bd 36 f6 9a 3e e4 0c 81 3d 4c be f1 bd
       -0.09574088 0.3026597 0.06301287 -0.118038744
000340 27 52 e1 bc d7 cc e6 be 18 8e 71 bd de b9 10 3e
       -0.027504994 -0.45078155 -0.0589734 0.14133403
000350 8b 6b 2f 3e b9 ad 83 bc a5 ed 55 bd d6 db 21 3b
       0.17130868 -0.016074048 -0.05222859 0.0024697683
000360 8a 90 56 bd f5 ec 74 3d 3a c4 a1 3c 18 07 72 3d
       -0.052383937 0.059796292 0.019746888 0.059088796
000370 d2 b0 89 3c a0 dd e6 3d 1a e7 96 3d 1b 03 a4 be
       0.016807947 0.1127274 0.07368298 -0.3203362
000380 c0 26 e5 3d 0b 7b 1d 3e 27 c4 14 bd 81 83 1c bc
       0.111890316 0.15378968 -0.036319878 -0.009552837
000390 44 1d e0 bd ff 00 37 3d 3a 33 1b bd 10 be 5d 3d
       -0.10943082 0.044678684 -0.03789065 0.054136336
0003a0 e2 50 e4 38 ff 95 15 3e 03 a1 f7 3d 99 de 59 3e
       0.00010886953 0.14608 0.120912574 0.2127632
0003b0 61 ec b5 3e e0 f9 18 3d 53 af 48 3d fe c4 d5 bb
       0.35531905 0.037347674 0.048995327 -0.0065237274
0003c0 97 b5 7a 3e dc 41 0f 3e 37 7f bf bd 0f 23 bc 3d
       0.24483334 0.13989967 -0.09350436 0.091863744
0003d0 72 2c 35 3d 7d 86 a4 bd 62 28 a9 bc 53 6d 3f 3e
       0.04423184 -0.08033464 -0.020649139 0.18694048
0003e0 a4 6c 1f 3e c9 b7 88 3e 6f 91 cc bd 94 6a fd bc
       0.15568787 0.26702717 -0.09988677 -0.03093461
0003f0 44 aa e4 3c 15 27 be 3d 7f 9e 2f 3d 8d cd d1 bc
       0.02791322 0.09284798 0.042875763 -0.02561071

estimator.2.bias f4 [64]
000000 2d a9 b7 bd 00 96 66 bd f7 15 a3 3d dc 2d a7 3e
       -0.089678146 -0.056295395 0.07963174 0.32652175
000010 18 02 e7 bd 8d 2f ae be 29 a3 4e 3d c4 2c 06 be
       -0.11279696 -0.34020653 0.05044857 -0.13103014
000020 70 37 23 bd 85 e9 87 3c 12 05 eb 3d ba a5 99 3d
       -0.03984779 0.016590843 0.114755765 0.07502313
000030 b8 df 38 bd a6 0d 06 be c1 97 3d be d1 11 46 bd
       -0.04513523 -0.13091144 -0.18514921 -0.048356835
000040 d6 c5 d7 3d 09 0a 66 3d 5b b8 86 3d 7b 39 f8 bd
       0.10535781 0.056161914 0.06578132 -0.121203385
000050 a8 e4 93 bd 85 27 f4 3d 67 44 17 bd 5b 34 49 3d
       -0.07221347 0.119216 -0.036930468 0.049122196
000060 5d 76 35 bf c5 b2 14 3e 93 93 d8 be 4a 00 73 bd
       -0.70883733 0.1452132 -0.4230009 -0.059326448
000070 85 59 5b 3d 68 27 1f be c9 e8 1d be 5b e6 ac bc
       0.05355217 -0.15542376 -0.15420832 -0.021105936
000080 b4 13 ae bc 46 41 5a be 6c 59 a7 bd 43 5c 7c 3d
       -0.02124963 -0.21313962 -0.08171353 0.061611425
000090 32 d4 56 bd e6 54 80 3e a1 3a 45 be 1e dd 88 3c
       -0.05244846 0.25064772 -0.19260646 0.016707
0000a0 60 c2 d1 bd 03 f4 9b bd 92 d9 0a bd d7 dd 4e bd
       -0.10242152 -0.07614901 -0.033898897 -0.05050453
0000b0 d2 2c 3f bd b2 40 d7 bd e9 e9 05 3d 3f fd 5b be
       -0.046673603 -0.105103865 0.032693777 -0.21483324
0000c0 41 fa 1b be 4a 90 1c bb b1 88 d9 bd ec 2b cc bd
       -0.15232183 -0.0023889714 -0.10621775 -0.09969315
0000d0 57 3f f1 3c 06 4a 25 bd 5c e1 f5 be ae f0 25 be
       0.029449148 -0.040353797 -0.48023498 -0.16205093
0000e0 97 43 ca 3c 1a 9f 0d 3c 7a 58 34 bc cf 76 a2 bd
       0.024690432 0.00864389 -0.011007423 -0.07932817
0000f0 e4 c2 df be 60 8d ca 3d 10 ef a7 be 7b 32 35 be
       -0.43703377 0.098902464 -0.32799578 -0.17695038

estimator.4.weight f4 [19, 64]
000000 f1 bf 02 be 06 29 05 bf 9e 0e 6d be a9 2c 55 3e
       -0.12768532 -0.5201572 -0.23150107 0.20817818
000010 8a b7 1e 3f 60 97 69 3c ae d4 11 3f 3e 2c ea be
       0.6199881 0.014257282 0.5696515 -0.4573688
000020 a2 70 97 3d d4 fe f2 be 47 db 36 3e ff f6 ea 3e
       0.0739453 -0.47460043 0.17857085 0.45891568
000030 3f 53 db 3e 2b 20 62 be f0 17 81 3e ae dd 68 3e
       0.4283695 -0.22082584 0.25213575 0.22740814
000040 11 68 97 be db f9 f2 be 8e c4 e4 bd ac 9a 2f 3e
       -0.29571584 -0.4745625 -0.11170302 0.17148846
000050 3c 52 c4 be f9 f8 84 be 3c 6b 86 bd 68 e5 fa be
       -0.3834399 -0.259712 -0.06563422 -0.49003148
000060 2f 14 6f 3e 9a 0f 2b bf a3 ef b1 3d 42 62 bc bd
       0.23347543 -0.6682068 0.08688285 -0.09198429
000070 0a 41 1b be dd d4 d1 bd 22 b4 df 3e 52 30 2c 3e
       -0.15161529 -0.102456786 0.43692118 0.16815308
000080 75 1e 30 bd a9 a8 c1 3c 45 2c 83 3e f8 8f cf 3e
       -0.042997796 0.023639994 0.25619712 0.40539527
000090 6d e5 bb be e5 75 86 be 2d 35 e7 3e 72 2a 77 be
       -0.36698475 -0.2626182 0.45157757 -0.24137285
0000a0 cd 2b 59 be d9 78 92 3e 0f 9e 49 bd 97 5c 30 bd
       -0.21208115 0.28607824 -0.049223002 -0.04305705
0000b0 d9 f4 83 3e 45 e3 91 3e 08 8b 90 3e 89 6f 5c be
       0.2577274 0.28493705 0.28231072 -0.21526922
0000c0 63 ad 3e bf 66 4a 9b bd b1 bd 99 3e 18 eb 88 3e
       -0.7448332 -0.0758255 0.30027536 0.26741862
0000d0 fe bc c1 bd 70 b6 2c bf 68 31 10 3d 75 52 50 3e
       -0.094598755 -0.6746588 0.035203367 0.20343955
0000e0 55 60 70 be fb e2 6a 3e 79 df db 3e b2 81 85 3e
       -0.23474248 0.22938149 0.42943934 0.26075512
0000f0 fb 92 b4 3d e5 00 bc 3e 7c e4 d2 be 4d 4b 4e 3d
       0.08817097 0.36719432 -0.41189945 0.05036478
000100 7b 7a 98 3e 98 4b c0 3c 33 49 32 be 36 95 bb bd
       0.29780945 0.023473546 -0.17410736 -0.09159319
000110 ba 95 0e 3e 93 d2 34 bf 79 96 0d be ea 9a eb be
       0.13924304 -0.7063381 -0.13826932 -0.46016628
000120 59 6e 57 3e 1f 71 34 bd d7 5c db be a4 a8 96 3d
       0.21038188 -0.044053193 -0.4284427 0.073563844
000130 92 1e ce bd bb 7d 5e 3f 2c a1 b3 be d6 59 c1 bd
       -0.100644246 0.869106 -0.35083902 -0.09440963
000140 71 c0 87 bd ee 67 62 be 27 0d a2 3e 38 ca 6e be
       -0.06628502 -0.22109959 0.3165066 -0.23319328
000150 ea ab af bd 38 28 d8 bd ad 58 09 3f df 46 21 be
       -0.08577712 -0.10554546 0.53650934 -0.15749691
000160 40 e8 88 3e 6f 25 27 ba 3c 54 fc bd 6d 88 15 3d
       0.26739693 -0.00063761225 -0.12320754 0.03650706
000170 6d a0 8f 3d 99 5f 21 bf 4d f3 1f 3e 5f 7b 6f 3e
       0.07013021 -0.63036495 0.15620156 0.23386906
000180 65 63 bf 3e 26 ff e4 be fb 98 e5 3d d7 a9 9c 3d
       0.3738052 -0.44725913 0.11210819 0.07649582
000190 9a 8b 13 3e 47 b5 d1 3c 7d f3 b3 be 7a 63 82 be
       0.14408723 0.025599135 -0.35146704 -0.2546652
0001a0 93 13 d2 3e cf 20 c4 3d 48 c5 6b be c2 67 09 3f
       0.4103056 0.0957657 -0.23024476 0.53673947
0001b0 c4 cd 01 3d 7c 0b 8f 3c 7f fa 11 3e 61 ee 28 3e
       0.031690374 0.01746153 0.14255713 0.16497184
0001c0 ef fe a2 bd af 2a 00 3e fb 12 c9 bd 02 cd a9 3c
       -0.07958781 0.12516282 -0.09818073 0.020727638
0001d0 30 94 f7 be 59 7f 47 bd 01 ab a6 bd 3c 06 01 3e
       -0.48355246 -0.048705433 -0.08138085 0.12600034
0001e0 8e 90 33 3f 6a 7b 4a be 3e 94 c1 3e af 46 c4 be
       0.7014245 -0.19773641 0.37808412 -0.38335177
0001f0 99 d2 87 bd 37 a9 9e be 28 ca 3f be 97 d8 de 3e
       -0.06631965 -0.30988476 -0.1872946 0.4352462
000200 0c 3c 13 be 8c fa f3 3c 91 bb 9d be 08 74 e3 be
       -0.14378375 0.029782556 -0.30807164 -0.44424462
000210 c1 34 db 3c 71 26 59 3e 96 9c bf bc f4 0a 31 be
       0.026758553 0.2120607 -0.023390096 -0.17289335
000220 3f a2 67 be b7 f2 05 bc f7 ec 56 be 62 62 e5 be
       -0.22620486 -0.0081755435 -0.20988832 -0.44801623
000230 f2 5a ca 3e b2 3d 88 3d 47 f9 65 bd 13 19 70 3e
       0.3952251 0.066523924 -0.056145933 0.23447065
000240 0c de 79 3e 96 5e fa 3d 6f f4 eb 3b 9a 84 92 3e
       0.2440111 0.12225072 0.0072007696 0.28616792
000250 09 64 69 be 50 32 95 3e 9d e8 ee 3e e0 a5 9e 3d
       -0.22792067 0.29139948 0.46661845 0.07746482
000260 2d 2e cc 3e 10 f2 29 be 34 c8 9a 3e be 15 c8 be
       0.3987898 -0.16596246 0.30230868 -0.39079088
000270 51 7f 9c be 76 ec 22 3d 08 bb 2c 3e 16 e6 0b bf
       -0.30565885 0.039776288 0.16868222 -0.5464796
000280 22 41 3d 3e 19 2a 67 3e 4c a1 b1 3e 21 32 60 3e
       0.18481877 0.22574653 0.34693372 0.21894123
000290 4b 13 bf bd ed 07 b3 be 61 24 e2 bc 23 c4 e6 bd
       -0.09329852 -0.34966984 -0.027605237 -0.11267879
0002a0 ad 93 81 be c6 a8 a6 be 38 3b fd 3d cb 3c b1 3e
       -0.2530798 -0.3255064 0.12364811 0.34616694
0002b0 32 90 63 be 81 c2 e3 3e bc 03 63 bc 65 6a 8e 3e
       -0.22222975 0.44484332 -0.013855871 0.27815548
0002c0 1d 25 74 be 56 e9 9f 3e 10 58 ca be 0b 8b c6 3e
       -0.23842283 0.3123271 -0.3952031 0.38777956
0002d0 1b f1 b7 bd 86 c0 09 3e 13 c7 d0 3e 04 59 c9 be
       -0.08981534 0.13452348 0.40776882 -0.39325726
0002e0 b5 d6 c8 bc 1b ce ae 3d 9a ff ce 3d 08 0b 09 be
       -0.024516443 0.08535405 0.10107346 -0.13383114
0002f0 5a cb 0d bf e3 e2 d9 be 32 16 05 bd 89 ab 89 bb
       -0.55388415 -0.42555913 -0.03249187 -0.004201357
000300 71 07 a8 bf bd c6 c3 be 93 a6 bf be 31 b0 15 bf
       -1.3127271 -0.38237563 -0.37431774 -0.5847197
000310 17 94 ea 3e c5 51 31 be 40 32 e8 3e b1 19 d5 3d
       0.4581611 -0.17316349 0.45350838 0.10405291
000320 a7 38 83 bd 3a ad 8b bf f3 df cb be 35 c9 2e 3e
       -0.0640729 -1.091224 -0.39819297 0.17068942
000330 ea 75 9e be a1 e2 bd 3e 2b b4 dc 3e 5f ff 79 3e
       -0.30949336 0.37086967 0.43106207 0.24413823
000340 53 c2 e0 3d f5 b1 79 bf b4 dd 0f 3c c3 c4 a5 3e
       0.109745644 -0.97537166 0.0087808855 0.3237668
000350 2d fb a7 bc 73 be 01 be d6 20 10 3e ad 82 c4 3e
       -0.020505512 -0.12670307 0.14075026 0.38380948
000360 d3 c2 92 be 67 85 99 be 59 d0 ba 3e 10 b4 35 3f
       -0.28664264 -0.2998459 0.36487082 0.7097788
000370 01 04 ed 3e f1 83 0a 3e 97 e8 83 be 35 eb 4b bd
       0.46292117 0.13526894 -0.2576339 -0.049784858
000380 e0 91 9c bc 51 55 8c 3e 64 9b 10 3f e1 03 35 bf
       -0.019112527 0.2740884 0.5648711 -0.70709044
000390 e4 60 87 bf 01 66 fa be 5e 8a 83 be b4 1b e4 bd
       -1.0576444 -0.48905948 -0.25691503 -0.111380965
0003a0 c6 0c af be d5 d9 1f bf 47 8d 25 3e 4f eb a2 bc
       -0.34189433 -0.6244176 0.16167174 -0.019887595
0003b0 29 34 de be 04 9e 9b be 3b e3 e0 be 19 6c 8f 3f
       -0.4339917 -0.30393994 -0.43923363 1.1204864
0003c0 92 bf b5 3e b4 a7 d9 3e 9d c4 9c bf 74 e1 b9 be
       0.3549772 0.4251076 -1.2247502 -0.3630482
0003d0 0a 5d ac be 25 39 71 bf b9 1b c9 3d e1 bd 04 bf
       -0.33664733 -0.9422782 0.09819741 -0.5185223
0003e0 d3 8d ae 3e b6 17 40 be 36 66 81 be b3 68 98 bf
       0.34092578 -0.18759045 -0.25273293 -1.1906952
0003f0 31 76 7a 3f 75 7f 5c 3e 5a 5f ac bb 21 9c 59 bc
       0.97836596 0.21532996 -0.00526039 -0.013281853

estimator.4.bias f4 [19]
000000 62 3c 33 3d f2 9b f7 bd 35 44 fd 3d f5 f4 14 bf
       0.043758757 -0.12090291 0.12366525 -0.58186275
000010 cc d0 57 bf 61 6e 00 bf 76 73 15 3f 5e 42 5c 3f
       -0.84302974 -0.50168425 0.58379304 0.8603877
000020 62 22 1c 3f 89 14 48 3f 31 e9 1f 3f e4 55 1a bf
       0.60989964 0.78156334 0.62465197 -0.6028731
000030 b3 ad 16 3f d8 f1 5f 3f 6a 03 1e bf 4d c2 12 3f
       0.58858794 0.874784 -0.6172396 0.5732773
000040 c9 6b 01 bf ed e5 51 bf 24 a5 17 3f
       -0.5055509 -0.81991464 0.5923636

actor.0.weight f4 [512, 64]
000000 8b ad b6 3c ac d8 54 bd 51 13 d2 bd 04 50 4d 3d
       0.022299549 -0.051964447 -0.102575906 0.050125137
000010 75 74 30 be 63 3b 86 be e3 5a a5 3e 86 ee 02 3e
       -0.17231925 -0.26217183 0.32295904 0.12786302
000020 73 31 59 3d bf 39 9d be ae bc ba bd 42 2c 58 bd
       0.053025674 -0.3070812 -0.09118019 -0.052776583
000030 04 52 01 be ef 73 e1 3e da 2e 18 3c 06 a0 81 3e
       -0.12628943 0.44033763 0.009288514 0.253174
000040 ec 81 c0 be 4c ef 31 be 11 15 a5 be 63 0e 80 3e
       -0.37599123 -0.17376441 -0.32242635 0.25010976
000050 f1 c6 25 3e 0c 09 0e be 02 a5 d9 bd 59 fd f7 3d
       0.16189171 -0.13870639 -0.10627176 0.12108869
000060 bd f3 49 3e 06 16 cc 3e a4 1e 1e 3e 7b 57 92 3e
       0.19721885 0.39860553 0.15441376 0.28582367
000070 07 be 00 3e 1d 4b 47 bd 65 e6 af be 4e bb 4f 3b
       0.1257249 -0.048655618 -0.34355465 0.0031697336
000080 4c fb ed bd 7c 24 0c 3c 5c bc 51 bd bb 8c 34 bc
       -0.11620197 0.00855362 -0.051205024 -0.011019881
000090 83 f4 6e bc b3 61 03 be e0 96 54 bd 5f aa eb 3b
       -0.014584663 -0.12830238 -0.051901698 0.0071919407
0000a0 fd a5 98 bd de bd c6 bd 79 95 d0 3c 63 aa b3 bc
       -0.07453535 -0.09704183 0.0254619 -0.021931833
0000b0 f3 e1 80 bd c6 91 ae bd 77 78 18 3c 1f 9a 4a 3e
       -0.062930964 -0.08523898 0.009306065 0.19785355
0000c0 cc ba 0a be c9 a0 a4 bd ce 05 cd 3c e9 86 57 3c
       -0.1354782 -0.0803848 0.025027182 0.013154724
0000d0 f9 22 6b bd 75 bc cd bd 7d 42 3d be 5f 82 a8 bd
       -0.0574064 -0.10045711 -0.18482395 -0.08227991
0000e0 93 fb a3 3b 1d 60 bf 3d e6 c3 bb bc f8 0f dd 3d
       0.005004355 0.09344504 -0.02292056 0.107940614
0000f0 0e b1 26 bd 6b 5c fc ba 32 32 92 bd 74 02 fa 3d
       -0.040696196 -0.0019253617 -0.0713848 0.12207499
000100 cf 16 6b 3d 00 05 4a 3d 21 8a e5 3e 5d 06 ec bd
       0.0573948 0.049321175 0.44831946 -0.11524651
000110 99 6b 6d be a9 df ff be c5 85 ed 3d 39 75 b8 bd
       -0.23185576 -0.49975327 0.1159778 -0.090067334
000120 bc 25 17 3e 69 e1 86 3b 71 0f 34 be 0d a4 dc 3c
       0.14760488 0.0041162265 -0.17584015 0.026933694
000130 8f 75 e3 3e 68 3e 12 be b0 4e 96 be 3d 45 31 be
       0.44425628 -0.14281619 -0.2935691 -0.17311569
000140 4a e2 af bd a3 6f 4c be bf 90 6a 3e 2c 31 45 bd
       -0.08588083 -0.19964461 0.22906779 -0.048142597
000150 c3 50 a8 3d b2 ce 13 3e 57 86 d3 ba b6 1e ad bd
       0.08218529 0.14434317 -0.0016138059 -0.08453123
000160 19 ce 22 bf de ee a5 3e c8 2a a2 3e e9 dc 29 3f
       -0.6359573 0.32408804 0.31673265 0.6635271
000170 2d 28 cd 3d e8 0b d4 3d bd 01 78 3d ff e4 76 be
       0.100174285 0.103538334 0.060548533 -0.24110793
000180 95 9b 11 be 8f ef 3e bc 36 7a 95 bc db 8f 82 bb
       -0.14219506 -0.011653795 -0.018246751 -0.003984434
000190 48 f9 37 3e 54 0c 02 be 14 a8 1c be c4 3b cf bd
       0.17966187 -0.12700015 -0.15298492 -0.10118821
0001a0 6b 9e 35 3c 97 e1 c6 bd 2e 9c 85 bd 29 1d 39 bd
       0.011085133 -0.097109966 -0.065239295 -0.045193825
0001b0 b9 76 c2 b9 72 cd ed bd d3 14 a1 3c b2 e6 db be
       -0.0003709102 -0.11611451 0.01966325 -0.42949444
0001c0 f1 6f 10 3d 80 9c bc bc b8 06 90 bd 9d f2 26 bc
       0.035263006 -0.023023844 -0.070325315 -0.010189679
0001d0 48 3c 2c 3d 5a 2d 3d bd 92 2e 45 bd ea 42 c1 3c
       0.042049676 -0.04618583 -0.048140116 0.023591477
0001e0 a9 ac 80 3d f9 71 0c bd 6c 8b db 3d 91 1a bd 3c
       0.06282932 -0.03428838 0.10719952 0.023083957
0001f0 64 c9 d8 3d 24 58 21 3e ca a0 53 3c 0e 8a 05 3e
       0.10585287 0.15756279 0.012916753 0.13040945
000200 e0 2d 4e 3c 35 9f 04 3d 59 f2 0a 40 3f 77 b0 bd
       0.01258418 0.032378394 2.1710417 -0.086164944
000210 1f dc f8 bc 2e 6d 97 be 9a ee 64 bd fa 46 ee 3d
       -0.0303784 -0.29575485 -0.05589161 0.116346315
000220 f3 ba 3d bd 46 da c6 3d 9f 93 e3 bd d1 24 42 3e
       -0.046320867 0.09709601 -0.11112141 0.18959357
000230 78 88 9c 3e 0d 24 57 be 03 1a 8d bd fa c7 a4 be
       0.30572867 -0.21009846 -0.06889727 -0.3218382
000240 b9 71 0b bd 19 90 1a be 02 06 6e 3e a8 46 b2 be
       -0.034044 -0.15094031 0.2324448 -0.3481953
000250 f3 6a 71 3d 31 dd aa 3e be 90 10 bd c4 18 a4 3d
       0.058939885 0.3337188 -0.035294287 0.08012536
000260 ae 0d 96 be 6d 2e f2 3d 52 7c 25 bc 9e ba d5 3c
       -0.29307312 0.11825261 -0.010100441 0.026089963
000270 66 87 15 3e 3d 87 80 be 76 ab c4 3e 9a 58 8c ba
       0.14602432 -0.2510318 0.38412064 -0.0010707558
000280 83 fa 29 bc fc 6c 43 3c 48 44 b9 3c 54 07 23 bd
       -0.010374668 0.011927839 0.022615567 -0.03980191
000290 03 a4 ef 3c 7f 2a 0c bd 43 87 12 bd a4 be 02 bd
       0.029253012 -0.034220215 -0.035773527 -0.03192009
0002a0 c9 ec 47 bc e8 da 41 bd 27 c5 59 3d 80 80 3b bd
       -0.01220245 -0.047327906 0.053166535 -0.045776844
0002b0 ae 60 5d bd 27 ef 93 3d 3f ae 43 3d 9f cf 1a 3e
       -0.05404728 0.07223349 0.047773596 0.15118264
0002c0 dd 11 2c 3d 53 6e 18 bd 73 a3 3b 3d a9 46 94 bd
       0.042009223 -0.03721459 0.045810174 -0.0724004
0002d0 98 03 1c be 41 13 93 bd e8 53 13 be 6e 75 38 bd
       -0.15235746 -0.07181407 -0.14387476 -0.045033865
0002e0 52 25 28 3c 05 68 0b 3c 14 a1 1a 3d 2f 6b 2e bc
       0.010262804 0.008508687 0.037751272 -0.010645672
0002f0 39 14 8a bb c7 48 1c bc 29 f6 15 bd 95 ea 2b be
       -0.0042138365 -0.009538836 -0.03661171 -0.16788705
000300 55 c3 b3 3d 36 a3 09 be 0e b2 0b 3e e3 3e da bd
       0.08777491 -0.13441166 0.13642141 -0.10656526
000310 e2 10 af bd 8e d8 1d 3e 59 39 0a 3e 28 ab ee 3d
       -0.08548142 0.1541464 0.13498439 0.11653739
000320 13 88 44 3e d3 c2 25 3e 47 72 79 3c 4d 1c 13 3f
       0.19192533 0.16187601 0.015225 0.5746506
000330 f4 5b 84 be d3 da c4 3d 0e e5 09 be 32 5d bb 3e
       -0.25851405 0.0961205 -0.13466284 0.3659454
000340 e3 4d 83 3e fc a6 96 3e ba 47 99 3c ad 03 a9 3e
       0.2564536 0.29424274 0.01871096 0.33010617
000350 4c 0b 90 3e c2 95 4b bd 3e 76 a5 be 7c d7 ba 3b
       0.2813362 -0.049703367 -0.32316774 0.0057019573
000360 c5 84 b9 3d f1 66 1d be 58 ae dc 3c e8 2f 14 3e
       0.09058527 -0.153713 0.026938602 0.144714
000370 00 8b fa bd 73 2c 57 3d 53 81 41 3e a6 ee 99 3e
       -0.122335434 0.052532624 0.1889699 0.30064887
000380 06 9d d8 bd 13 60 4b 3c 19 93 3c 3d 70 08 ed bd
       -0.10576825 0.012413043 0.04603872 -0.11573875
000390 74 ee 8e 3d 60 4f 95 bd 68 9e 8d bd 48 57 42 bc
       0.06979075 -0.0729053 -0.06914979 -0.01186163
0003a0 3a 51 f6 3c bb ec d0 3c 1a d8 16 bd d1 75 ff bc
       0.030068029 0.025503507 -0.036827184 -0.031184109
0003b0 40 12 59 3a fe d7 27 be 35 06 9f 3e 03 40 55 3e
       0.00082806125 -0.16390988 0.31059423 0.208252
0003c0 38 34 4e bc 1b 49 50 3d ae 39 a5 3d db 74 c0 3d
       -0.012585692 0.05085097 0.08067642 0.093972884
0003d0 5a 8e c5 bd 63 bf 88 3d 6d f9 7d bd 6a 66 37 3d
       -0.09646292 0.06677129 -0.06200545 0.044775404
0003e0 03 d7 13 bd cf c5 34 3c ab 11 b5 3a 9f d5 fb 3c
       -0.036093723 0.011033489 0.001381447 0.03074151
0003f0 35 b9 fc bb 80 3c f1 3c a2 51 fa 3d 07 ea c2 3c
       -0.007712508 0.029447794 0.122226015 0.023793234

actor.0.bias f4 [512]
000000 74 26 cc bb e9 c1 29 be 70 70 8e be 36 97 8e bd
       -0.00623017 -0.16577877 -0.27820158 -0.06962435
000010 97 df 82 3b 02 2b 8f be a9 85 49 3d d1 23 26 be
       0.003993939 -0.279625 0.049199734 -0.162246
000020 27 75 08 3b 6e 1a 3b be ce 89 94 3d 57 92 d2 3d
       0.0020821781 -0.18271801 0.07252847 0.10281818
000030 30 f2 03 be 17 fa 2e be 0a 51 19 be 80 25 94 3c
       -0.12885356 -0.17087589 -0.1497232 0.018084288
000040 76 78 92 be 7f f2 75 be 00 4c 39 3d 0a f0 6e bc
       -0.2860753 -0.24018286 0.045238495 -0.014583597
000050 4a b0 fa bd 3e 1e 18 3e 6c f8 60 3d b3 fb 34 3c
       -0.12240656 0.14855286 0.054924414 0.011046338
000060 85 bb a4 3d b4 4b 2e 3d 8b ac 4d bd 41 83 d9 3c
       0.08043579 0.042552665 -0.050213378 0.026551845
000070 2f 8a b1 bd 38 c7 9b bc dd 3d 10 3d 5b 3b 84 3e
       -0.086689346 -0.019015893 0.035215247 0.25826535
000080 ac 55 42 3e b1 2b 09 be 84 ee 52 3e 25 d0 b7 3c
       0.18977994 -0.13395573 0.20598799 0.022438118
000090 6b de 40 3d 5b 21 30 bd 3b 5f 69 bd a8 dd d4 3d
       0.047087114 -0.04300056 -0.056975584 0.1039384
0000a0 8a eb 87 be 7f cf 0b 3b a2 1f 77 be fa a6 42 be
       -0.2654689 0.0021333394 -0.2413316 -0.19009009
0000b0 1c be 3a 3e 84 8d c6 bd 08 cb 85 be 89 6a 6b be
       0.18236583 -0.09694961 -0.26131463 -0.22989859
0000c0 3e 1b 9c be 03 a4 20 be 1d af 09 be fc 6f c8 bd
       -0.30489534 -0.15687566 -0.13445707 -0.09786984
0000d0 90 3a c0 bd 34 b5 15 3d b6 5d 69 3e ad 36 83 be
       -0.0938617 0.036549762 0.22789654 -0.25627652
0000e0 15 13 4b bd d5 64 1b 3e 62 b7 50 bd f5 8a 4a be
       -0.049578745 0.15175183 -0.050956137 -0.1977957
0000f0 05 8a 70 3e f9 b0 02 be a0 8c 78 bb 21 9f 1d bc
       0.2349015 -0.12762822 -0.0037925616 -0.009620459
000100 c9 c5 65 3c 87 71 ae 3d 93 41 1b be 95 b6 4b be
       0.014024206 0.08517747 -0.15161733 -0.19893868
000110 4e 11 6f bd 45 f1 d1 3d 6f 65 3c 3e 54 8c 0a be
       -0.058366112 0.10251097 0.18398069 -0.13530093
000120 3b bc 47 3c 57 6c 36 be 49 4b 12 3e 14 46 87 be
       0.012190874 -0.17814766 0.14286532 -0.26420653
000130 09 66 75 3d c4 7a 99 3a 4d 6f 3a be 21 08 85 3c
       0.05991176 0.0011709561 -0.1820652 0.016239228
000140 06 c1 fe 3d 69 cb 2d be 43 bb 96 bb 00 91 28 3d
       0.1243916 -0.16972126 -0.00459996 0.041153908
000150 f3 01 93 bd 0c 28 a3 3c 8f 55 c8 3a 76 ed e4 3b
       -0.07178106 0.019916557 0.0015284288 0.0069863154
000160 37 ae 12 be a9 80 f8 bc 1c 80 bc bd 90 c7 ee bb
       -0.1432427 -0.030334787 -0.092041224 -0.0072869733
000170 08 77 6b ba 40 fe 89 be fb ff cf be 7f ac 89 bd
       -0.00089822756 -0.2695179 -0.40624985 -0.06722354
000180 5d 66 26 3c a9 d7 e5 3b 5e be 4a be 93 4b 15 bd
       0.010156241 0.007014234 -0.19799182 -0.036449026
000190 fa 70 9c be 02 05 bc bc 70 28 ad bd 98 25 c4 3b
       -0.30554944 -0.022951607 -0.084549785 0.005985927
0001a0 d8 06 d7 3c 85 b9 0a be 85 9d 14 be dc e7 c5 bd
       0.02624838 -0.13547333 -0.14513214 -0.09663364
0001b0 c2 24 16 3e d0 e6 4f 3c 39 c4 a6 bd 4c a3 26 3d
       0.1466246 0.012689307 -0.08142895 0.040683076
0001c0 94 06 77 bd df a4 68 3d 71 19 8e be c3 f0 1b be
       -0.060309008 0.05679786 -0.27753785 -0.15228562
0001d0 c3 05 31 be 4f a2 d1 3c 3d 64 03 bd 15 3f 63 3d
       -0.17287354 0.02559009 -0.032078017 0.05548008
0001e0 e1 c7 af 3d 0b c9 92 3e 25 e8 ec bb 5a bf b9 3c
       0.08583046 0.2866901 -0.007229822 0.022674251
0001f0 31 70 50 be 3d ab 2d be 5c 38 70 be 89 b7 54 3d
       -0.20355298 -0.16959853 -0.23459 0.051932845
000200 33 c8 73 be f6 ed de 3d d8 43 80 3d ae 2d c5 bd
       -0.23806839 0.10885231 0.0626294 -0.09627853
000210 8c ad 82 bd df 0c 4e bc 04 23 7e 3e 19 ab ad 3d
       -0.06380758 -0.012576311 0.24818045 0.084799
000220 5e 20 74 bd d0 fc 1a 3c d6 9b cc bd 75 ab 8e bd
       -0.05960118 0.009459689 -0.09990661 -0.069662966
000230 d2 d3 e7 bc 65 7f 17 3e 51 97 10 3c 45 6d 14 3e
       -0.028299246 0.14794691 0.008825139 0.14494808
000240 08 b5 4b be 2b 0c 4f be 63 68 29 be 5b 97 8d 3b
       -0.19893277 -0.20219485 -0.16543727 0.0043210215
000250 54 e8 87 3d 2f 6b 6b 3c 82 8f 42 be 83 27 57 3d
       0.0663611 0.014368816 -0.19000056 0.052527916
000260 59 78 81 bd 0e 57 9a 3e 47 35 22 3e 3e 34 dd bd
       -0.063217826 0.30144542 0.15840636 -0.1080098
000270 19 56 a1 be d6 bb 66 be 38 b6 f6 bd 2a 66 17 3e
       -0.31511 -0.22532591 -0.12046474 0.14785066
000280 b7 4f 0b 3d 0f 56 2b 3d c4 42 76 be 8a e4 0c be
       0.03401157 0.04183012 -0.24048907 -0.13759056
000290 da 1b 5c be 69 73 b0 bd 7a 70 b8 3c 83 dc 5d 3d
       -0.21495 -0.08615763 0.02251457 0.054165374
0002a0 eb d1 65 bd d0 78 20 be ef 77 3e 3d cc 00 da 3d
       -0.056108397 -0.15671086 0.046501096 0.10644683
0002b0 d9 72 15 3e a1 ce 9c be 77 0e bb bd 78 fe 08 3e
       0.14594592 -0.30626395 -0.09133618 0.13378322
0002c0 88 48 c9 3c ac 6f 8c bd a8 5a ce 3c 66 66 1c 3e
       0.024570718 -0.06857237 0.025189713 0.15273437
0002d0 6d 5a 79 be bf 63 24 3d d3 5d 1f bd 36 77 2e 3e
       -0.24350901 0.040134188 -0.038907837 0.17037663
0002e0 c3 0e 93 be a5 41 b6 3d 44 04 57 be b9 e5 80 be
       -0.287222 0.088992395 -0.20997721 -0.25175264
0002f0 67 38 f8 3d b5 29 f7 3c 2e 4e 66 bd 85 bc 8c be
       0.12120133 0.030171255 -0.0562269 -0.2748758
000300 0b 2c 23 be c0 e1 1e 3d ac 21 f9 3d c9 f3 19 3d
       -0.1593477 0.03878951 0.121646255 0.037586007
000310 8a 68 0b be 79 0d ec 3d 90 0b 4e be 10 b5 27 bd
       -0.13614097 0.11526007 -0.20121598 -0.04094416
000320 23 39 aa 3d 03 5a a9 be 56 8e 42 be 7e 84 a0 be
       0.08311679 -0.33076486 -0.1899961 -0.31351084
000330 87 e4 1d bd 00 7d c4 bd 1e 1a 50 be 0d 9b 9c bd
       -0.03854802 -0.09594154 -0.20322463 -0.07646761
000340 59 68 49 bd 82 ee 55 3d 9f f9 c7 be 05 a3 a1 bc
       -0.04917178 0.052229412 -0.39057633 -0.019731054
000350 51 4a b7 bd 5d 64 94 3d 53 b3 cd 3d c3 86 bf 3d
       -0.089497216 0.07245705 0.10043969 0.09351876
000360 52 85 3e be 46 33 19 3e 31 b6 93 bd 25 38 f7 3d
       -0.18605545 0.14960966 -0.07212485 0.120712556
000370 43 46 0c 3d 65 98 33 3d d1 0f 98 3d 86 52 33 be
       0.034246694 0.043846507 0.07424892 -0.17511949
000380 25 77 3a be e9 f8 fd bb 63 11 e8 3d 60 42 5d 3c
       -0.18209513 -0.0077506197 0.11331441 0.013504595
000390 51 46 aa 3c 9a 88 42 bb 57 6e a5 3d e4 29 24 bd
       0.020785483 -0.0029683472 0.08077686 -0.040079013
0003a0 84 f4 81 be 01 cc 2c bc da 1a 06 be 0c 84 4e be
       -0.25381863 -0.010546685 -0.1309618 -0.2016756
0003b0 f7 c3 f6 3c d5 9c 8a be 62 12 52 bd 0a 0c 30 3d
       0.03012274 -0.27072778 -0.051287062 0.04298023
0003c0 98 ee d7 bc c4 0e 9d be 05 ae 5f 3d c8 f8 0b be
       -0.026358888 -0.30675328 0.054609317 -0.13669121
0003d0 68 44 e0 bd 7f 63 15 3e f1 14 b8 bc e7 4c 16 be
       -0.109505475 0.14588736 -0.022470923 -0.14677773
0003e0 c0 51 a0 3c 52 c9 6f be b3 f8 5c 3c 50 f8 d1 bc
       0.019570231 -0.23416641 0.013487029 -0.0256311
0003f0 9b 12 ad bc 95 3e 64 be 26 87 06 bc a4 a7 4c be
       -0.021127036 -0.22289498 -0.008210933 -0.19985825

actor.2.weight f4 [256, 512]
000000 5d 10 21 3d e4 db 23 3e b6 e4 99 3e 38 3c ce 3d
       0.039322246 0.1600185 0.30057305 0.100700796
000010 a0 58 94 bd c8 07 24 bd b8 70 19 3c 01 ec 3f 3e
       -0.072434664 -0.040046483 0.009365253 0.18742372
000020 32 56 d8 bb a5 b6 86 bd 18 d5 2b 3e 4b 14 2c be
       -0.006602072 -0.065778054 0.16780508 -0.16804616
000030 b6 1e 90 3c 82 72 cb bd 74 56 bc bd 90 32 01 bd
       0.01759277 -0.0993395 -0.09196177 -0.03154236
000040 c0 41 92 bd 71 3c a7 bd 87 a3 e5 bd 86 2e ff bc
       -0.07141447 -0.08165825 -0.11212831 -0.031150114
000050 82 88 5c 3d 1d af 4c be fd 1b 14 bd 74 dc 6b be
       0.05384112 -0.19988675 -0.036159504 -0.23033315
000060 ba e5 51 bd 03 5c 38 bd 11 66 36 bd 4d 38 69 bd
       -0.051244475 -0.045009624 -0.04453093 -0.05693846
000070 ce 40 d6 bd 94 db 89 bd 32 34 9a bb b0 52 5f bc
       -0.10461579 -0.06731334 -0.004705929 -0.013630554
000080 50 02 a7 bd 2e 23 3b bd 49 24 2b 3e c8 c9 82 bd
       -0.08154738 -0.045687847 0.1671306 -0.06386143
000090 8d b4 02 be f4 d3 a5 3d dd 73 03 bd c4 b2 10 3e
       -0.12764187 0.080970675 -0.032092918 0.14130694
0000a0 6c 5e 39 bd 59 00 5a 3d a3 9f 69 bc b5 9b dd 3d
       -0.045256063 0.053222988 -0.014259252 0.108207144
0000b0 63 73 85 3d 72 d2 f7 3d 14 ab d3 bd de 9b 80 bd
       0.06516149 0.12100686 -0.10335365 -0.06279729
0000c0 b9 42 68 3d 86 41 58 3c e0 58 5a 3c 14 cd c5 bd
       0.056704257 0.013199216 0.0133268535 -0.09658256
0000d0 bd 0b 4f 3e 26 18 19 be 72 f0 85 3c 9d 60 d0 bc
       0.20219322 -0.14950618 0.016350005 -0.025436694
0000e0 c2 ac 18 ba 22 d9 c2 3d bc b3 03 3e b3 9d 0e bd
       -0.0005824083 0.09514071 0.12861532 -0.034818362
0000f0 88 8f c7 bd e4 13 aa bd 2c a1 94 3d 22 ab f1 bd
       -0.09744173 -0.08304575 0.072573036 -0.11800219
000100 bf 54 ea 3b f4 e6 10 3d bc bc 0d 3e d7 d3 ca bb
       0.007151216 0.035376504 0.13841528 -0.006189804
000110 61 85 81 3d 94 26 05 3e c9 0e 1e bd e7 8f 14 bc
       0.06324268 0.13002998 -0.03858832 -0.009067512
000120 44 e3 33 3e 61 23 50 3d 24 9b 25 bd 35 e3 3a 3e
       0.17567164 0.05081499 -0.040431157 0.18250735
000130 c8 f4 60 3e 18 55 5a 3c 96 91 45 bd dc 68 9b bc
       0.21968377 0.013325952 -0.048234545 -0.0189709
000140 6b f0 6a bd 46 89 9a 3c 15 b2 89 3d 28 6c 2b 3e
       -0.057358187 0.018864285 0.067234196 0.16740477
000150 19 2a 1e bc 0f 4a 07 bd 6c d6 1b 3d 10 e8 d1 3d
       -0.009653592 -0.033029612 0.038046286 0.102493405
000160 6b 27 07 be f8 23 08 bd 03 b4 cc 3b 70 9e c2 3d
       -0.1319863 -0.033237427 0.006247045 0.09502876
000170 9a cc 36 3d 12 20 05 be 89 ca 00 3d e6 9a a9 bc
       0.044628717 -0.13000515 0.031443153 -0.020703744
000180 e2 93 0c 3c 1b 0f 10 be f0 a5 f3 bd 2c 15 c7 3e
       0.00858018 -0.14068262 -0.118968844 0.3888334
000190 b4 2b d9 bd 76 18 40 be 3d 5d c4 3d 78 e0 a3 3d
       -0.10604039 -0.18759331 0.09588096 0.080017984
0001a0 40 24 1c bd 96 4e c1 3d 3b a0 e5 bc 6b 5c d2 bd
       -0.03812051 0.09438817 -0.028030505 -0.102715336
0001b0 aa 35 84 bd c2 cb df 3d 02 7f 12 bd 30 b5 00 bd
       -0.06455548 0.109275356 -0.035765655 -0.031422794
0001c0 b7 68 bf bd e1 19 4f bd f0 80 83 3c bf 0b 1c 3d
       -0.09346145 -0.05056179 0.016052693 0.03809714
0001d0 00 ed 56 3c 33 43 8a bc 95 b7 a1 3d a3 c3 17 3d
       0.013118029 -0.016877746 0.078963436 0.037051808
0001e0 99 cd 0e be f6 ba 3e be 91 1e f2 3d 51 5f 72 be
       -0.13945617 -0.18626007 0.11822236 -0.23669173
0001f0 a7 10 51 be 53 b7 ce bc 9f 06 72 3d 04 b0 4b bd
       -0.20416509 -0.0252339 0.059088346 -0.04972841
000200 79 11 85 be 14 f3 09 3e f5 a4 8d 3d cb 1d 9b bd
       -0.25989893 0.13471633 0.06916229 -0.07574042
000210 d9 d8 75 bd ec f3 05 be 18 2d c1 3d 13 eb a6 bd
       -0.060021255 -0.1308133 0.09432429 -0.081503056
000220 1e 1b 1f bb d2 cc 14 3d d8 ba 38 3c 43 25 e7 bc
       -0.0024277638 0.036328144 0.011275016 -0.02821601
000230 43 03 be bc 3a 19 97 3d 76 79 c1 bd e4 cd 93 bd
       -0.023194915 0.073778585 -0.09446995 -0.07217005
000240 ba b8 28 bd fc 26 78 3d 93 b5 5e bd 6e 7a 98 3d
       -0.041191794 0.060584053 -0.05437238 0.074452266
000250 f3 38 42 bd bb cb ea 3d 30 01 18 bd 4d be 0e 3d
       -0.047417592 0.1146464 -0.037110507 0.034849454
000260 12 e8 06 3e 12 5c 11 bd 25 bf 4e 3d 33 b4 31 bc
       0.13174465 -0.035488196 0.05047526 -0.0108461855
000270 ac 0f bc bd fb dd 11 bd fa 65 af bd a2 1f 9f 3c
       -0.09182677 -0.035612088 -0.08564372 0.019424263
000280 f6 ff 5e 3d 98 69 17 3e c3 af 60 3c 3c 8f 76 bb
       0.054443322 0.14786375 0.01371378 -0.0037621995
000290 8e ef e5 3d 5d 62 bf bd c5 d9 c7 be 82 93 62 bc
       0.11227332 -0.09344933 -0.39033332 -0.013829114
0002a0 33 1a ed bd 29 94 88 3b fe 39 78 3d 61 6f 93 3d
       -0.11577263 0.0041680527 0.06060218 0.07198978
0002b0 24 23 08 be 95 95 94 3c e5 6b f6 3d 8b 6d 40 be
       -0.13294655 0.018137733 0.12032298 -0.18791787
0002c0 b4 40 ae bc 97 70 fd bb 10 d0 38 3e e0 95 83 bb
       -0.021271087 -0.007734369 0.1804812 -0.004015669
0002d0 bd 73 65 3d 1c a2 1a bd 25 c5 06 be a4 32 0c 3e
       0.05601858 -0.037752256 -0.13161142 0.13691193
0002e0 27 00 7c bb 55 de a9 3d ad aa d8 3c 6b 4e 70 bd
       -0.003845224 0.082943596 0.026448572 -0.058668535
0002f0 82 95 e8 bd 24 de a6 3d 7b 96 dd 3d b5 fc 3f 3e
       -0.11356641 0.08147839 0.108197175 0.18748744
000300 38 41 08 3e 29 ba 11 3d 02 82 e9 bc 16 78 31 3d
       0.13306129 0.035577927 -0.028504375 0.043327413
000310 55 21 fc 3d de c1 6d 3d 7b 94 80 bd 6d 53 79 bd
       0.12311045 0.058046214 -0.062783204 -0.060870577
000320 30 e0 d7 bd 2c 58 10 3e 69 37 ae 3e 7e cd f1 3d
       -0.10540807 0.14096135 0.3402665 0.11806773
000330 3e e6 a9 bd 27 b2 a5 bd 3c d8 15 3c 7a d6 14 bd
       -0.08295868 -0.080906205 0.009145793 -0.036337353
000340 6f f7 85 3c 7d 3a c1 3c fc 3b e2 bc 12 35 51 3e
       0.016353337 0.02358746 -0.027616493 0.20430401
000350 15 48 6c 3d e0 39 8f 3d d6 4e 9d bc 86 23 5f be
       0.05768593 0.06993461 -0.019202631 -0.21790895
000360 ca 73 71 bc d2 c9 58 bb 45 18 01 3e 3f 78 2b be
       -0.014737079 -0.0033079279 0.12606914 -0.16745089
000370 f0 cc 90 bb 54 0c 0c be e0 2d c3 3c 75 f6 cf 3c
       -0.0044189617 -0.13676578 0.023825586 0.025386075
000380 b2 fe b3 bd 8a dd b9 bd 3e 10 83 be c8 9e bb bc
       -0.08788814 -0.09075458 -0.2559833 -0.022902861
000390 7b 6a c4 bd b6 b8 5b be 39 7b c4 3d a0 14 67 bd
       -0.09590622 -0.2145718 0.09593815 -0.056416154
0003a0 e8 66 6c 3d 78 65 f8 bd 6c 1e 82 bd a2 4f 6a bd
       0.057715327 -0.12128729 -0.06353459 -0.05720485
0003b0 d7 2e 3e 3d 64 b3 23 be 1c 6f 3c bd 45 75 a3 bd
       0.04643139 -0.15986401 -0.0460044 -0.07981352
0003c0 71 9b 86 bd 3a 42 28 be 68 6c c6 3a 18 6a 11 be
       -0.06572617 -0.16431513 0.0015138509 -0.14200628
0003d0 a9 0c d4 bd cd c0 17 3e 4e 2f 94 bd f8 83 33 bd
       -0.10353977 0.14819641 -0.07235585 -0.043827027
0003e0 b3 af 0d 3c 42 31 9f 3d d4 38 91 3e 2c 9f d6 bc
       0.008647847 0.07773067 0.2836367 -0.026198946
0003f0 17 8c 9f 3b 2a 07 23 3d 8d c4 6d 3d cc b2 c2 bd
       0.004868995 0.039801754 0.058048774 -0.09506759
