policy/ppo/policy.onnx (onnx, 758549 bytes, 8 tensors)

actor.0.weight f4 [512, 45]
-0.27582487 0.004720503 -0.7672633 -0.50740093 0.011449447 0.029240437 0.016095264 -0.06266892
-0.003903348 -0.6875177 0.2923699 -0.18008403 -0.09082367 -0.40876976 0.35650423 0.077813596
-0.18675011 0.09502266 -0.8475041 0.381593 0.18720001 -0.07859903 -0.17405559 -0.18971111
0.23259623 -0.123787306 0.22076154 -0.22898763 0.22050808 0.050529297 0.12407975 0.0150307845
-0.010477621 0.010862813 -0.06559264 0.01763902 0.050437573 0.055344302 -0.026041187 -0.03439237
0.06211411 0.0115596745 -0.0121817775 0.05129289 0.015222077 0.22781 0.117442094 0.12714663
-0.12503214 -0.49625662 0.33475488 0.111408845 0.34177637 0.15170611 0.13395509 0.06101997
0.2142787 -0.12771034 -0.05776358 0.02323093 0.46330518 -0.20146498 -0.12977557 -0.4114139
-0.26801747 -0.7020016 -0.18412296 -0.45699668 -0.06409381 0.35953057 0.34341562 -0.033606026
-0.12523623 -0.014108208 0.10861584 -0.44327655 -0.5826438 0.126826 -0.14192356 0.08280602
-0.02426529 -0.030121813 -0.10687137 0.016962789 -0.058643024 -0.021471987 0.017334595 0.09060102
0.04504104 0.02745126 0.32651412 -0.24897385 -0.40703526 -1.0200287 -0.10476516 0.19835502
0.15502858 0.11926489 0.09058279 0.030634793 0.34312102 0.22339335 0.21445931 0.019172955
-0.09916519 -0.25404415 0.20429032 0.1685317 -0.32070136 0.124475405 0.19487043 0.06436025
0.13678266 0.10026186 0.28381082 0.08637271 -0.087107025 -0.42888126 0.53906125 0.28896287
-0.44973984 0.14174703 -0.0114686135 0.03685081 -0.012387546 0.036960088 -0.026831022 -0.01430708
0.01137218 -0.023056017 0.010964316 -0.1170821 -0.050752506 -0.0856488 -0.102241784 -0.21305309
0.42398357 -0.1744338 0.6663971 0.18627314 0.4814241 0.054830186 0.16525516 0.028589332
0.5401888 -0.47945374 -0.24656105 -0.23559473 -0.09960049 0.17367409 0.030384967 -0.08692588
-0.1659683 -0.15178017 -0.01925312 -0.19141668 0.20316193 -0.07899549 -0.1710235 0.29085907
0.24230123 -0.19050439 0.054222725 -0.17121068 -0.18535964 0.059388943 -0.07174715 0.21402827
-0.11992642 0.0024223241 -0.041690826 0.033499055 -0.11355346 0.00892243 -0.028765954 0.14827146
0.026734205 0.1464033 0.091960534 0.110797115 -0.21282071 -0.78306395 -0.40817398 -0.68816715
0.9151376 0.10876371 0.15181446 0.095778435 -0.08623957 0.25995672 -0.029189581 0.037987605
-0.59351856 0.5433992 -0.07886124 0.34018698 -0.21719038 -0.30707654 -0.1364681 0.23985994
0.23355594 0.21380246 -0.09574126 0.03558773 0.098446034 0.02039953 -0.024374621 -0.117974944
-0.36559263 -0.022362687 -0.029098585 0.5134626 -0.098873824 -0.0014179891 0.05893625 -0.11750929
0.004532228 0.027069457 0.14465348 -0.07450608 -0.0044773123 0.030757096 -0.020795412 0.03563429
-0.17496885 -0.11406962 0.32144246 0.19379182 0.5323664 0.015662951 -0.05427125 0.01317423
0.54293543 -0.16717961 0.06397192 -0.14120552 -0.004681324 0.32840762 0.30543575 0.11051196
0.34702936 0.01360718 -0.07892264 0.20318085 -0.1684948 0.05738499 -0.40482554 0.18756598
-0.071191855 0.41339657 0.03027839 -0.05224927 -0.27129298 0.038344383 0.05695485 -0.16583669
00000000: eb38 8dbe 73ae 9a3b 5e6b 44bf 07e5 01bf
00000010: 7696 3b3c a489 ef3c 37da 833c 9058 80bd
00000020: 50cf 7fbb 2901 30bf 82b1 953e f367 38be
00000030: c301 babd 454a d1be b987 b63e bc5c 9f3d
00000040: 6c3b 3fbe 3e9b c23d 07f6 58bf 2860 c33e
00000050: 5cb1 3f3e 87f8 a0bd a13b 32be a143 42be
00000060: b52d 6e3e 3384 fdbd 500f 623e bc7b 6abe
00000070: dfcc 613e cff7 4e3d 861d fe3d ae43 763c
00000080: 54aa 2bbc f1f9 313c 6f55 86bd b57f 903c
00000090: a197 4e3d b5b0 623d 5454 d5bc 04df 0cbd
000000a0: 5d6b 7e3d ca64 3d3c 1496 47bc 7e18 523d
000000b0: 0566 793c 0647 693e 7b85 f03d ba32 023e
000000c0: 6d08 00be 5915 febe fe64 ab3e 522a e43d
000000d0: 50fd ae3e d958 1b3e 862b 093e 13f0 793d
000000e0: e06b 5b3e 80c6 02be 8199 6cbd cb4e be3c
000000f0: 5636 ed3e d64c 4ebe e3e3 04be d8a4 d2be
00000100: 9639 89be 60b6 33bf bb8a 3cbe 78fb e9be
00000110: 9e43 83bd 6414 b83e 2cd4 af3e 79a6 09bd
00000120: ed3d 00be 1d26 67bc fb71 de3d 25f5 e2be
00000130: 2528 15bf adde 013e 6954 11be 3496 a93d
00000140: 00c8 c6bc 05c2 f6bc 60df dabd 8cf5 8a3c
00000150: ab33 70bd 05e6 afbc 4801 8e3c 078d b93d
00000160: f47c 383d 77e1 e03c dc2c a73e 00f3 7ebe
00000170: ed66 d0be 4d90 82bf 1e8f d6bd 941d 4b3e
00000180: d0bf 1e3e 2741 f43d 7883 b93d d1f5 fa3c
00000190: 8fad af3e 3ac1 643e 399b 5b3e 9a10 9d3c
000001a0: 1e17 cbbd 1312 82be 7b31 513e 9393 2c3e
000001b0: f832 a4be f6ec fe3d 1d8c 473e 4fcf 833d
000001c0: c110 0c3e 1756 cd3d a74f 913e 2de4 b03d
000001d0: 2b65 b2bd 5396 dbbe ebff 093f f1f2 933e
000001e0: 4d44 e6be 2226 113e dae6 3bbc e0f0 163d
000001f0: 22f5 4abc 7663 173d bbcc dbbc 3e68 6abc
00000200: 6152 3a3c f9df bcbc ada3 333c bdc8 efbd
00000210: dce1 4fbd a368 afbd 2464 d1bd 972a 5abe
00000220: 6014 d93e c69e 32be 0099 2a3f 63be 3e3e
00000230: 387d f63e 9e95 603d a638 293e 2d34 ea3c
00000240: d049 0a3f f67a f5be 807a 7cbe bf3f 71be
00000250: 57fb cbbd 9fd7 313e e5e9 f83c 3206 b2bd
00000260: 98f3 29be 436c 1bbe b8b8 9dbc bc02 44be
00000270: ae09 503e 63c8 a1bd c920 2fbe 7beb 943e
00000280: d01d 783e 9513 43be a618 5e3d da51 2fbe
00000290: ebce 3dbe d241 733d 2bf0 92bd 3a2a 5b3e
000002a0: fc9b f5bd dbbf 1e3b 00c4 2abd 4e36 093d
000002b0: b78e e8bd 622f 123c 94a6 ebbc 79d4 173e
000002c0: b101 db3c bfea 153e ce55 bc3d 99e9 e23d
000002d0: aced 59be e176 48bf 2efc d0be b92b 30bf
000002e0: 7546 6a3f 82bf de3d 4075 1b3e 7c27 c43d
000002f0: 5f9e b0bd 0c19 853e fd1e efbc e498 1b3d
00000300: d5f0 17bf 361c 0b3f 0082 a1bd fd2c ae3e
00000310: 2867 5ebe 2339 9dbe 4bbe 0bbe d89d 753e
00000320: 4a29 6f3e 08ef 5a3e fe13 c4bd 71c4 113d
00000330: 139e c93d ea1c a73c 49ad c7bc d99c f1bd
00000340: f52e bbbe f431 b7bc 2860 eebc 4972 033f
00000350: 5c7e cabd d2db b9ba 2367 713d b6a8 f0bd
00000360: 1683 943b c4c0 dd3c 0b20 143e a596 98bd
00000370: 6bb6 92bb 4ef6 fb3c 245b aabc 43f5 113d
00000380: 092b 33be 559d e9bd 1b94 a43e 5d71 463e
00000390: 2a49 083f 974f 803c 884b 5ebd bad8 573c
000003a0: d1fd 0a3f 2231 2bbe b603 833d 2e98 10be
000003b0: cb65 99bb 0b25 a83e 1362 9c3e 1854 e23d
000003c0: d5ad b13e a6f0 5e3c 31a2 a1bd a40e 503e
000003d0: e789 2cbe 860c 6b3d 4b45 cfbe 4c11 403e
000003e0: 09cd 91bd b7a8 d33e 630a f83c 5503 56bd
000003f0: eae6 8abe 000f 1d3d 7d49 693d 18d1 29be

actor.0.bias f4 [512]
0.13036768 -0.058188293 -0.2190342 -0.5734813 -0.013106352 -0.18287256 -0.23415938 -0.0923654
0.081762925 -0.24988808 0.105053656 0.04822072 -0.012794056 -0.18696252 -0.12986735 0.07144709
-0.16140208 -0.045111734 0.022097157 0.099695094 -0.13384242 0.025070384 -0.16654918 0.040110618
-0.21504381 0.0032052533 -0.0129779745 0.036920555 0.030438775 -0.12782063 -0.07751519 -0.3251189
-0.15213951 0.01325194 0.0103723 -0.11346341 -0.032420773 -0.26397663 -0.108188026 0.092230976
0.068881705 -0.1566428 -0.26805538 -0.18178494 -0.054732956 0.11287349 -0.054000925 -0.1404758
-0.20546937 0.02511322 -0.1008569 0.038231187 -0.16728011 0.09772002 -0.15688266 -0.10018493
-0.101655774 -0.030617053 0.01488224 0.030318504 0.04145697 -0.022901263 0.005017821 -0.114881374
-0.11516912 -0.13950102 -0.13422836 -0.21041518 -0.021310478 -0.122229345 -0.024686428 -0.06487472
-0.13432284 0.08293336 0.08443285 0.15818761 -0.021585736 -0.10576453 0.17533223 -0.0011639718
0.09019715 0.036311246 0.13973293 0.027647503 -0.15896513 -0.08835997 0.24366544 0.0023554214
-0.042195503 -0.24441393 0.22439519 -0.26476204 -0.15139844 -0.19152689 -0.068737134 -0.14182813
-0.20410888 0.09929228 0.0504004 0.1278727 0.15392715 0.08740399 -0.0418216 -0.1537268
0.08249575 -0.22145888 -0.046294678 0.036196403 -0.35421968 -0.10017671 0.041559946 0.0090192305
0.02342495 0.04795575 -0.093231976 -0.11993759 0.03609776 -0.018749705 -0.14830564 -0.13274541
-0.007303909 -0.13932012 -0.20350425 -0.20208551 -0.0022123575 -0.029975325 -0.19128616 -0.2520141
-0.017269818 0.036064655 0.00811632 -0.068259925 -0.16612282 -0.1148785 -0.11571539 -0.116160914
-0.21010084 -0.31638214 -0.13034874 -0.2517786 0.084646516 -0.2114914 0.03033944 0.023268055
0.16492358 0.042867508 -0.0151526155 -0.14811589 -0.25515214 0.07703619 -0.09448004 -0.027982526
-0.07841385 0.09572154 0.0015221001 -0.0239874 -0.11610015 0.03145465 -0.18875016 0.13712078
-0.020886868 -0.113945626 -0.18196115 -0.21001884 0.0918431 -0.14513311 0.13756089 -0.0055543184
-0.16968578 -0.20797706 -0.023737978 0.047909234 -0.12805957 0.013471145 -0.16675888 -0.21418545
0.040435795 -0.024569888 -0.16600692 -0.035923965 -0.10067204 -0.09149439 0.23086241 -0.20995688
-0.44297832 0.06886642 -0.17607422 -0.13666695 -0.08160038 -0.07427872 0.086664826 0.02998777
-0.31302747 0.1672233 -0.20435171 0.18143469 -0.020966412 0.12904598 0.20019014 0.17731959
-0.024283985 -0.18576849 -0.0061473898 0.03449285 0.018198136 0.065041244 -0.21758176 -0.4006315
-0.21311235 -0.28901017 -0.14497803 -0.018848509 -0.15606958 -0.013760914 -0.06937351 0.09254168
0.0011579329 -0.039676923 0.06610234 -0.10076535 -0.044723287 0.11616293 0.098760985 0.003121584
-0.0846697 0.05598459 -0.13147095 -0.118927814 -0.19332023 0.005993319 -0.20694877 -0.018530853
-0.11184544 0.0029852777 0.0841443 0.010271961 -0.28407133 -0.12925552 -0.023403319 -0.14329593
-0.08412442 -0.18301335 0.15343644 -0.09761543 -0.1483521 -0.22057758 -0.36172605 0.023219952
0.052035317 -0.013048621 0.08797017 -0.15588756 0.2165247 0.0062292125 0.06894772 -0.17817515
00000000: 1b7f 053e d956 6ebd 804a 60be accf 12bf
00000010: 06bc 56bc f242 3bbe 7ac7 6fbe 122a bdbd
00000020: 5273 a73d a9e2 7fbe 5f26 d73d 1783 453d
00000030: 299e 51bc 1a73 3fbe f2fb 04be da52 923d
00000040: 9646 25be 15c7 38bd 1905 b53c f12c cc3d
00000050: fd0d 09be 6860 cd3c de8b 2abe 084b 243d
00000060: 7234 5cbe 3a0f 523b 92a1 54bc 023a 173d
00000070: bd5a f93c 69e3 02be 49c0 9ebd fc75 a6be
00000080: 76ca 1bbe aa1e 593c 94f0 293c 815f e8bd
00000090: a5cb 04bd f227 87be af91 ddbd 98e3 bc3d
000000a0: da11 8d3d f866 20be 8e3e 89be d525 3abe
000000b0: aa2f 60bd 372a e73d 1330 5dbd e3d8 0fbe
000000c0: 9066 52be 3dba cd3c 108e cebd 4e98 1c3d
000000d0: 7a4b 2bbe 6f21 c83d d9a5 20be c22d cdbd
000000e0: e730 d0bd 9dd0 fabc a4d4 733c 835e f83c
000000f0: c9ce 293d 6e9b bbbc 896c a43b ed46 ebbd
00000100: cadd ebbd 5bd9 0ebe 2973 09be 1477 57be
00000110: 5093 aebc 6153 fabd 313b cabc 0add 84bd
00000120: ed8b 09be f7d8 a93d 21eb ac3d effb 213e
00000130: 92d4 b0bc 139b d8bd 4b8a 333e 6a90 98ba
00000140: 49b9 b83d 1abb 143d 2616 0f3e 047d e23c
00000150: c1c7 22be 12f6 b4bd 6f83 793e 6a5d 1a3b
00000160: 31d5 2cbd a547 7abe dac7 653e e48e 87be
00000170: 3108 1bbe a01f 44be 0ec6 8cbd 653b 11be
00000180: eb01 51be c059 cb3d a670 4e3d 10f1 023e
00000190: 149f 1d3e dd00 b33d 204d 2bbd 8f6a 1dbe
000001a0: 88f3 a83d 1ec6 62be 7d9f 3dbd ae42 143d
000001b0: 485c b5be 7229 cdbd c33a 2a3d 65c5 133c
000001c0: aee5 bf3c 406d 443d 68f0 bebd d7a1 f5bd
000001d0: 3fdb 133d fb98 99bc 6fdd 17be 6aee 07be
000001e0: a155 efbb efa9 0ebe 6b63 50be 81ef 4ebe
000001f0: 33fd 10bb d08e f5bc 85e0 43be fe07 81be
00000200: 6f79 8dbc 88b8 133d 50fa 043c dccb 8bbd
00000210: 1a1c 2abe 6b45 ebbd 31fc ecbd c6e5 edbd
00000220: ad24 57be d7fc a1be 247a 05be 20e9 80be
00000230: 275b ad3d 3491 58be 6b8a f83c a69c be3c
00000240: bae1 283e d795 2f3d ad42 78bc b1ab 17be
00000250: 4da3 82be 26c5 9d3d c07e c1bd 9c3b e5bc
00000260: 7197 a0bd a809 c43d 3481 c73a 3981 c4bc
00000270: eac5 edbd 97d6 003d b947 41be 6469 0c3e
00000280: f01a abbc 535c e9bd 0654 3abe 2e0f 57be
00000290: 3c18 bc3d c69d 14be c3dc 0c3e 0001 b6bb
000002a0: 1cc2 2dbe f0f7 54be 2676 c2bc 793c 443d
000002b0: 0c22 03be 14b6 5c3c d7c2 2abe 6e53 5bbe
000002c0: 01a0 253d ca46 c9bc b8fd 29be 0225 13bd
000002d0: 242d cebd 6961 bbbd 3267 6c3e f0fe 56be
000002e0: 0ece e2be d609 8d3d cd4c 34be 6cf2 0bbe
000002f0: 1a1e a7bd 711f 98bd 547d b13d e9a8 f53c
00000300: 2345 a0be 963c 2b3e 9341 51be 04ca 393e
00000310: c1c1 abbc a124 043e a5fe 4c3e 4493 353e
00000320: 35ef c6bc 183a 3ebe 0b70 c9bb 6048 0d3d
00000330: 4214 953c 5834 853d c1cd 5ebe 921f cdbe
00000340: 203a 5abe 24f9 93be 1f75 14be 3068 9abc
00000350: b4d0 1fbe 7575 61bc b313 8ebd 7e86 bd3d
00000360: c8c5 973a 4584 22bd aa60 873d 105e cebd
00000370: c42f 37bd d5e6 ed3d 3343 ca3d 7d93 4c3b
00000380: 4f67 adbd 1950 653d 52a0 06be 6d90 f3bd
00000390: bdf5 45be 9b63 c43b 61ea 53be 04ce 97bc
000003a0: 390f e5bd a6a4 433b d953 ac3d ba4b 283c
000003b0: cc71 91be 8f5b 04be 51b8 bfbc 2bbc 12be
000003c0: 6d49 acbd da67 3bbe 711e 1d3e 99ea c7bd
000003d0: 9de9 17be 17df 61be 2834 b9be c537 be3c
000003e0: fc22 553d e2c9 55bc b429 b43d fda0 1fbe
000003f0: a7b8 5d3e 6c1e cc3b 7634 8d3d 8c73 36be

actor.2.weight f4 [256, 512]
-0.2080159 0.34772784 -0.1500185 0.30911055 0.084539786 0.088871345 -0.18234044 0.019156968
-0.27759638 0.048748337 0.0028893587 -0.28272474 -0.14551902 -0.18712664 0.0357368 -0.022272436
0.14263804 0.0019031663 0.102338776 0.0028735793 0.0887461 0.31953257 -0.30282572 0.013035822
0.053834192 -0.3239698 -0.5199404 -0.0070424704 -0.40390152 0.020764535 -0.1670661 0.19167398
0.2082541 0.16502401 0.3008896 -0.075580224 -0.15288168 -0.25706035 -0.050138608 0.2226607
-0.03138425 0.1777 -0.06318165 0.25258574 -0.21088913 -0.24085179 0.07543471 -0.11001829
-0.2374895 0.15363565 -0.073172 0.25496185 0.41956782 0.3337148 -0.074455455 -0.31370166
0.16299857 -0.15139104 0.1997886 0.031432763 0.16797931 0.01955906 0.004260671 0.15317512
0.42582834 -0.09249397 -0.085265666 0.21098177 -0.27138135 -0.050009623 0.14250705 -0.075686224
-0.06345253 0.1772443 -0.028291965 -0.09258613 -0.08745792 -0.0033818078 -0.19934817 0.29742512
-0.13321835 -0.15219529 0.21588849 -0.25858995 0.14198978 0.18016458 -0.090395 0.014549456
0.3348883 0.17244175 -0.064841256 0.08628962 0.27848014 -0.07878148 -0.076891065 -0.30116817
0.19242977 -0.14992344 -0.1628673 -0.03466433 -0.1365501 0.11652786 0.15517022 0.04786386
0.053600222 0.05391227 -0.32164684 -0.2732297 0.3996531 -0.025250837 -0.043996543 -0.1268461
-0.12205932 -0.35151097 -0.35032246 -0.08376562 -0.20031767 0.009163619 0.2028393 -0.010293577
0.049507126 0.22541068 -0.17352664 -0.04863704 0.1119201 0.14354324 0.39268643 0.09810767
0.13575149 0.1684811 -0.0309935 0.06567562 0.15948702 -0.22407253 -0.0020983515 -0.09988579
0.027776724 0.07222592 0.011205029 0.24270774 0.17797767 0.22423424 -0.14640221 -0.37967998
-0.3803377 -0.1742737 -0.12877947 -0.029521056 0.02352722 0.08175672 -0.0072489074 -0.31395572
-0.27024195 -0.32020578 0.35505894 0.3876755 0.22127813 -0.0031696784 -0.19194724 0.16687606
0.18771288 -0.2302406 -0.026410343 0.22871473 -0.3671079 0.28119364 -0.30913392 0.4338464
-0.06653916 -0.17706196 -0.0028851326 0.21452758 -0.028273055 0.15993838 0.17869243 0.06728832
0.27796653 0.30659324 -0.041760318 0.13889171 -0.08648679 0.030957261 0.0867068 0.035457987
0.16857857 -0.13830262 0.0405058 0.08157518 0.03074779 -0.016508188 -0.13933758 -0.17015094
-0.015962865 0.04238333 0.47137746 -0.08393906 -0.055014785 -0.15071762 -0.05802816 -0.0041874945
0.3859905 0.10403024 0.018969288 0.189275 -0.35434383 0.10446659 0.16031964 0.15903167
0.20723246 0.18507768 0.1655917 0.03064559 0.2786425 0.030298736 -0.017556215 0.1710134
0.19720791 0.08718105 0.044071514 0.0064220643 -0.3941458 0.10820238 0.09346617 0.31580967
-0.13725638 -0.015583135 -0.14938842 0.31204265 -0.08739975 0.008635867 0.21086441 0.06964623
0.0094610145 -0.079860784 -0.03830322 0.15785997 0.10535926 -0.23406063 -0.25897837 -0.16833821
-0.0855409 -0.10214941 -0.35974085 0.31200343 0.12739192 -0.011631253 0.19835638 -0.17241593
-0.06503618 -0.089520626 -0.07708823 0.08601612 0.054269668 0.282705 -0.10164437 0.15639795
00000000: 1f02 55be 6209 b23e 739e 19be bd43 9e3e
00000010: 3223 ad3d 2e02 b63d 74b7 3abe 13ef 9c3c
00000020: 1d21 8ebe 56ac 473d 655b 3d3b 4cc1 90be
00000030: f002 15be 209e 3fbe c060 123d af74 b6bc
00000040: b50f 123e aa73 f93a fe96 d13d a952 3c3b
00000050: 84c0 b53d c699 a33e f90b 9bbe 3394 553c
00000060: 3e81 5c3d 5fdf a5be d01a 05bf 86c4 e6bb
00000070: 2ecc cebe 631a aa3c 6013 2bbe 2f46 443e
00000080: 9040 553e 0efc 283e 340e 9a3e cec9 9abd
00000090: 048d 1cbe 6a9d 83be 245e 4dbd 2b01 643e
000000a0: c58c 00bd fdf6 353e 6265 81bd eb52 813e
000000b0: 52f3 57be daa1 76be 837d 9a3d 4551 e1bd
000000c0: 7330 73be aa52 1d3e 34db 95bd 5c8a 823e
000000d0: 98d1 d63e abdc aa3e 1a7c 98bd 819d a0be
000000e0: 19e9 263e 4106 1bbe 6295 4c3e a4bf 003d
000000f0: c502 2c3e 523a a03c 199d 8b3b f0d9 1c3e
00000100: 2c06 da3e 7b6d bdbd c49f aebd 9b0b 583e
00000110: 7ff2 8abe e4d6 4cbd 5eed 113e 6101 9bbd
00000120: 66f3 81bd 887f 353e 8dc4 e7bc cc9d bdbd
00000130: 231d b3bd 52a1 5dbb ed21 4cbe 1b48 983e
00000140: 646a 08be 15d9 1bbe df11 5d3e e765 84be
00000150: c565 113e 107d 383e 0421 b9bd d760 6e3c
00000160: 7b76 ab3e 9294 303e 7ecb 84bd 9db8 b03d
00000170: f394 8e3e 2f58 a1bd 1079 9dbd b732 9abe
00000180: 4f0c 453e 8885 19be afc6 26be 2ffc 0dbd
00000190: cad3 0bbe 29a6 ee3d f1e4 1e3e e50c 443d
000001a0: e88b 5b3d 1dd3 5c3d e5ae a4be c3e4 8bbe
000001b0: 559f cc3e d8da cebc b835 34bd f2e3 01be
000001c0: 3dfa f9bd 3ff9 b3be 775d b3be 4f8d abbd
000001d0: 1320 4dbe 0123 163c 1bb5 4f3e 64a6 28bc
000001e0: fcc7 4a3d 0fd2 663e f8b0 31be a237 47bd
000001f0: 5e36 e53d 00fd 123e 320e c93e adec c83d
00000200: 7002 0b3e 4f86 2c3e 15e6 fdbc f180 863d
00000210: 9150 233e 4573 65be 7f84 09bb ec90 ccbd
00000220: 038c e33c 2feb 933d 4c95 373c 6188 783e
00000230: c73f 363e a99d 653e 76ea 15be 6a65 c2be
00000240: 9fbb c2be ce74 32be c4de 03be 24d6 f1bc
00000250: 28bc c03c 1170 a73d 3e88 edbb cebe a0be
00000260: 275d 8abe 03f2 a3be 49ca b53e 677d c63e
00000270: bc96 623e 61ba 4fbb d18d 44be 8fe1 2a3e
00000280: ce37 403e 31c4 6bbe 815a d8bc 3234 6a3e
00000290: 91f5 bbbe 9df8 8f3e cd46 9ebe 1e21 de3e
000002a0: af45 88bd bb4f 35be 7e14 3dbb 1ead 5b3e
000002b0: e59c e7bc e3c6 233e 26fb 363e 75ce 893d
000002c0: a151 8e3e caf9 9c3e de0c 2bbd a139 0e3e
000002d0: fc1f b1bd 159a fd3c 5693 b13d 653c 113d
000002e0: dc9f 2c3e 349f 0dbe 69e9 253d e310 a73d
000002f0: cae2 fb3c 2e3c 87bc 83ae 0ebe 0c3c 2ebe
00000300: 8ec4 82bc 259a 2d3d 6358 f13e 3ee8 abbd
00000310: 2f57 61bd b855 1abe f0ae 6dbd 4037 89bb
00000320: 8ca0 c53e ce0d d53d 7b65 9b3c 4ed1 413e
00000330: 8e6c b5be 94f2 d53d d52a 243e 33d9 223e
00000340: bf34 543e 0185 3d3e df90 293e 760c fb3c
00000350: 3baa 8e3e 0e35 f83c 0dd2 8fbc 231e 2f3e
00000360: dff0 493e fa8b b23d 5584 343d 2e70 d23b
00000370: 7acd c9be 3699 dd3d 316b bf3d ceb1 a13e
00000380: f08c 0cbe 6850 7fbc 47f9 18be 0ec4 9f3e
00000390: a4fe b2bd 747d 0d3c d7ec 573e afa2 8e3d
000003a0: 5f02 1b3c 0d8e a3bd d6e3 1cbd 0ba6 213e
000003b0: 99c6 d73d 97ad 6fbe d098 84be da60 2cbe
000003c0: 1130 afbd b633 d1bd f42f b8be eabe 9f3e
000003d0: 0773 023e 0391 3ebc ef1d 4b3e cd8d 30be
000003e0: b031 85bd 9756 b7bd 6fe0 9dbd 3829 b03d
000003f0: df49 5e3d b6be 903e ec2a d0bd c926 203e

actor.2.bias f4 [256]
-0.29325688 0.046437554 -0.14101481 -0.2614429 -0.06675902 -0.03739121 -0.3753542 -0.18344234
-0.13244319 0.006036909 -0.20571226 -0.20687205 -0.23602632 -0.031024178 -0.11449388 -0.076890126
-0.08047354 -0.13053109 -0.3753534 -0.18461032 -0.27001396 -0.10765073 -0.14155929 -0.11485151
-0.13253056 -0.10067651 -0.11732776 -0.15423945 0.00924003 -0.18119466 -0.21055838 -0.054803904
-0.13433349 -0.14941508 -0.04872878 -0.08439078 -0.123823814 -0.1312777 -0.048239104 -0.30727306
-0.11210709 -0.067181095 -0.57517284 -0.18617591 -0.15118167 0.019906474 -0.1214252 -0.22257183
-0.030851986 -0.14413464 -0.1873732 0.015837703 -0.12761979 0.005279393 -0.14768702 -0.06103697
-0.11573894 -0.22141773 -0.008196439 -0.06957621 -0.087285526 0.11519513 -0.44891486 -0.11766148
-0.19789623 -0.20684674 -0.23383032 -0.048792247 -0.16562521 -0.08014951 -0.12727758 -0.32971662
-0.097858734 -0.107629396 -0.23525092 -0.018547216 -0.06431618 -0.24616618 -0.22504939 -0.093823515
-0.18556635 -0.14036717 -0.17931546 -0.028721746 -0.079835944 -0.2487647 -0.21243675 0.008259863
-0.30071646 -0.12116407 -0.10756869 -0.17660847 -0.15472937 -0.17808183 -0.16803348 -0.092270486
-0.46611258 -0.107042454 -0.1801016 -0.04711906 -0.0747116 -0.14571968 -0.030422403 -0.09322126
0.08376542 -0.22120741 -0.07892596 -0.08255134 -0.11788301 -0.13003652 -0.055452187 0.0038156072
-0.10523924 -0.31902325 -0.045263007 -0.04562258 -0.16677527 -0.40911362 -0.1258181 -0.11734253
-0.059321787 -0.27602428 -0.17238733 -0.08855957 -0.13383898 -0.2761969 -0.4182068 -0.39514795
-0.18083602 -0.17201343 -0.053425755 -0.18945976 -0.11607054 -0.2797968 -0.17674796 -0.15175033
-0.04673738 -0.08927442 -0.056867406 0.012929172 -0.1322804 -0.08512064 -0.1516211 -0.1606368
-0.2051789 -0.07188198 0.10660862 -0.20362166 -0.063013196 -0.15711299 -0.08690896 -0.03276713
-0.0609119 -0.3279634 0.005676543 -0.20354782 -0.12666407 -0.21629652 -0.055724382 -0.18212886
-0.19405654 -0.12947996 -0.11260244 -0.0012047056 -0.008050455 -0.04456771 -0.079899676 -0.06546928
-0.027887268 -0.24904573 -0.22355406 -0.13011864 -0.15205386 -0.11674558 -0.33313859 -0.121512935
-0.24020061 -0.25479528 0.019769616 -0.10445708 -0.11897658 -0.026716374 -0.047868676 -0.0405144
-0.06481108 0.016755177 -0.11784435 -0.12749805 -0.15142591 -0.09464548 0.027243216 -0.12630628
-0.14542526 -0.26141694 -0.37303972 -0.09314143 -0.102866516 -0.30735666 -0.12351175 -0.23298012
-0.08445273 -0.22438194 -0.120303445 -0.051423926 -0.22619112 -0.11574971 -0.19502944 -0.25155023
-0.12525852 -0.1536461 -0.12693185 -0.24149011 -0.0760608 -0.22606535 -0.17025982 -0.09642525
-0.20939448 -0.15126613 -0.21526296 -0.12056422 -0.14368993 -0.10364099 -0.1394049 -0.09371921
-0.035612147 -0.124048874 -0.10542737 -0.07827251 0.009945401 -0.24723905 -0.15677841 -0.14731777
-0.018324494 -0.20962836 0.008930487 -0.16158772 -0.050221357 0.036327884 0.036495354 -0.07850201
-0.33108386 -0.006629646 -0.12343395 -0.1952241 -0.19282608 -0.20748225 -0.11098858 -0.061576612
-0.1596858 -0.11838919 -0.122517146 -0.16246676 -0.12484643 -0.2829929 -0.10965643 -0.0505821
00000000: c425 96be 4e35 3e3d 3066 10be d8db 85be
00000010: f4b8 88bd 8727 19bd 6d2e c0be 4fd8 3bbe
00000020: 309f 07be 43d1 c53b 3ca6 52be 44d6 53be
00000030: e2b0 71be 6b26 febc c47b eabd 9278 9dbd
00000040: 50cf a4bd f1a9 05be 522e c0be 7d0a 3dbe
00000050: 453f 8abe fc77 dcbd ebf4 10be 4537 ebbd
00000060: 17b6 07be 7c2f cebd 8949 f0bd f2f0 1dbe
00000070: 7f63 173c 188b 39be 9e9c 57be 0f7a 60bd
00000080: b88e 09be 4400 19be d497 47bd 13d5 acbd
00000090: 5797 fdbd a96d 06be 5e96 45bd e552 9dbe
000000a0: 6798 e5bd 3e96 89bd 873e 13bf e6a4 3ebe
000000b0: 5ecf 1abe e712 a33c c6ad f8bd dfe9 63be
000000c0: 4ebd fcbc 0898 13be c3de 3fbe 12be 813c
000000d0: c3ae 02be c2fe ac3b 443b 17be e701 7abd
000000e0: 8a08 edbd 54bb 62be 5b4a 06bc f97d 8ebd
000000f0: c1c2 b2bd 6deb eb3d 2bd8 e5be 81f8 f0bd
00000100: 4fa5 4abe a2cf 53be 3771 6fbe 61da 47bd
00000110: a899 29be 6d25 a4bd 0e55 02be 9ed0 a8be
00000120: 296a c8bd cd6c dcbd 9ee5 70be 55f0 97bc
00000130: 34b8 83bd fd12 7cbe 5973 66be 8b26 c0bd
00000140: 1b05 3ebe 69bc 0fbe 799e 37be de49 ebbc
00000150: 0781 a3bd 2cbc 7ebe 0589 59be 6054 073c
00000160: 82f7 99be de24 f8bd f94c dcbd dad8 34be
00000170: 6071 1ebe 155b 36be f810 2cbe 4ff8 bcbd
00000180: 4fa6 eebe 1339 dbbd 8e6c 38be eaff 40bd
00000190: 6502 99bd 8a37 15be 6738 f9bc caea bebd
000001a0: 348d ab3d 3284 62be efa3 a1bd ad10 a9bd
000001b0: a66c f1bd 4b28 05be d521 63bd 440f 7a3b
000001c0: ac87 d7bd 0457 a3be b465 39bd bede 3abd
000001d0: 23c7 2abe 5777 d1be 76d6 00be 4851 f0bd
000001e0: 67fb 72bd 0e53 8dbe 4e86 30be b85e b5bd
000001f0: 160d 09be ae69 8dbe 341f d6be d550 cabe
00000200: 142d 39be 4a24 30be f7d4 5abd bd01 42be
00000210: 64b6 edbd 8741 8fbe 6bfd 34be 7064 1bbe
00000220: b26f 3fbd 82d5 b6bd cced 68bd e1d4 533c
00000230: 8374 07be bb53 aebd 9042 1bbe f97d 24be
00000240: 6b1a 52be dc36 93bd 9f55 da3d 3282 50be
00000250: 100d 81bd 3ae2 20be 53fd b1bd d336 06bd
00000260: c27e 79bd d2ea a7be 4b02 ba3b d76e 50be
00000270: 3ab4 01be d67c 5dbe 403f 64bd fd7f 3abe
00000280: c2b6 46be 6596 04be 1c9c e6bd 36e7 9dba
00000290: 0ee6 03bc a28c 36bd 71a2 a3bd c214 86bd
000002a0: d773 e4bc d805 7fbe 5beb 64be d23d 05be
000002b0: 02b4 1bbe 4f18 efbd 2491 aabe c6db f8bd
000002c0: 26f7 75be 8774 82be e4f3 a13c 98ed d5bd
000002d0: fea9 f3bd 4cdc dabc f211 44bd 6df2 25bd
000002e0: acbb 84bd 2742 893c 6158 f1bd d98e 02be
000002f0: 650f 1bbe 7dd5 c1bd 2a2d df3c 6f56 01be
00000300: 5cea 14be 71d8 85be 10ff bebe efc0 bebd
00000310: aeab d2bd da5d 9dbe baf3 fcbd 5792 6ebe
00000320: 8ef5 acbd 61c4 65be a761 f6bd e5a1 52bd
00000330: a59e 67be 2f0e edbd ccb5 47be 31cb 80be
00000340: c543 00be 6755 1dbe 6cfa 01be 2f49 77be
00000350: c4c5 9bbd ad7d 67be 9758 2ebe 9a7a c5bd
00000360: 826b 56be 82e5 1abe e56d 5cbe 60ea f6bd
00000370: 7423 13be ba41 d4bd 28c0 0ebe dbef bfbd
00000380: 0bde 11bd 560d febd 4eea d7bd 564d a0bd
00000390: 09f2 223c 3c2c 7dbe 858a 20be 78da 16be
000003a0: 401d 96bc d1a8 56be 2d51 123c 4077 25be
000003b0: e9b4 4dbd 8ccc 143d 277c 153d a9c5 a0bd
000003c0: d383 a9be 803d d9bb f0ca fcbd d4e8 47be
000003d0: 3374 45be 3a76 54be fb4d e3bd c237 7cbd
000003e0: ad84 23be 0876 f2bd 45ea fabd b05d 26be
000003f0: 7caf ffbd 72e4 90be 8d93 e0bd 2d2f 4fbd

actor.4.weight f4 [128, 256]
-0.02495093 0.027809644 0.05639768 0.06428086 0.06147597 0.08177864 0.12909906 0.13822351
0.12279856 -0.23067233 -0.067980185 -0.0009980549 0.14151874 -0.039897412 0.0015069797 -0.04735332
-0.005536889 0.026530903 0.21398117 -0.39990377 -0.25433475 0.07335079 0.22687642 -0.024023093
0.031556398 -0.4233187 0.03954745 0.039554227 0.086392894 0.064455494 0.07012804 -0.1306655
-0.031025209 -0.09410118 0.1676832 0.01525318 -0.047309484 -0.12772913 -0.03505208 0.15429768
-0.067140035 0.090815865 0.019494846 0.13688259 0.023046244 0.112687975 0.20694119 -0.15577242
0.08581955 -0.00676425 0.043077167 0.07488223 0.1085229 -0.06101486 -0.09686124 0.1975642
-0.01843526 -0.084184915 0.060843978 -0.07370652 -0.03241554 -0.18458784 0.027192196 -0.041265074
-0.25132337 -0.038876384 0.07891387 0.04011123 0.05852494 0.005913574 -0.015644085 -0.0014776167
0.042842705 -0.07974537 0.07935909 0.107994154 0.018801272 -0.04486388 0.17717957 0.046763584
0.014859803 -0.009407604 -0.15723224 -0.04097041 0.12119695 0.018917995 -0.08384719 -0.08170917
-0.1836926 0.050841656 -0.08942113 -0.3687781 -0.023828221 0.15514837 -0.033682514 0.15361445
-0.06143442 -0.17880121 -0.071035154 -0.11071311 0.008568029 0.18553294 -0.007042115 0.176994
-0.2021342 0.04251053 -0.090575166 -0.188837 -0.097990885 -0.012495437 0.022783095 -0.15047646
-0.031240227 -0.11112732 -0.25770122 -0.0665552 -0.1728808 -0.06932858 -0.2794588 -0.16678345
-0.048376188 0.05829465 0.018928394 -0.044649318 0.09662197 -0.08736856 0.069477744 0.08089785
0.0322916 -0.11509907 0.06974577 -0.07477427 0.0039138757 -0.0056914105 0.07682379 -0.14923182
0.057325486 -0.18290232 -0.0663981 0.05690826 0.0013493394 -0.0029821948 -0.15519065 -0.15577672
0.14153059 -0.049677745 -0.050919775 0.03020151 -0.2986162 0.08759378 0.038908683 -0.041477416
0.02134997 -0.17493998 0.027405629 0.012418231 -0.0012296506 -0.14495157 -0.051376317 -0.14801995
0.025119813 -0.101886585 -0.049795132 -0.06930324 -0.057789844 0.03409365 -0.14087169 -0.3045118
0.115880676 -0.036382765 -0.040306162 0.14952022 0.059457682 -0.10965345 0.04665144 -0.0662752
0.030248644 -0.17239898 0.010804477 0.007360932 0.12350868 0.026361233 0.104165725 0.039974865
0.070483096 -0.19505873 -0.022168076 0.08699582 0.08247977 0.020714212 -0.123443514 0.11317397
0.19363949 0.05578372 0.09854761 -0.076058105 0.06670046 -0.15704186 -0.075241566 -0.24888217
-0.08586649 -0.2072788 -0.028935615 0.05266189 0.016809726 -0.1447069 0.027359957 -0.029861448
-0.043642815 -0.13481972 0.08059692 -0.051735684 -0.15879871 -0.038012598 0.1939662 0.08673538
0.07135931 0.014193373 0.06955293 -0.08674069 -0.03676509 0.18595624 0.0405464 0.083687656
0.13860156 0.17215325 -0.1594218 0.045485947 -0.01954837 -0.0850078 0.038897905 0.05854161
-0.13543905 0.06372419 -0.05001031 -0.062444493 0.03501085 -0.0455387 -0.012388108 0.022261953
0.08945389 0.20128115 -0.07930174 0.064852975 0.11101055 0.026600802 -0.09937037 0.05397062
-0.0065562045 0.031322166 0.133848 0.08136281 0.08104344 0.22084357 0.15583052 -0.18814479
00000000: e565 ccbc 0dd1 e33c 4101 673d afa5 833d
00000010: 3ace 7b3d 8f7b a73d 8b32 043e 778a 0d3e
00000020: d07d fb3d 5e35 6cbe 3239 8bbd 2ad1 82ba
00000030: 4aea 103e 786b 23bd d985 c53a 8ef5 41bd
00000040: cb6e b5bb 5657 d93c e11d 5b3e 30c0 ccbe
00000050: 2a38 82be f038 963d 4b52 683e 14cc c4bc
00000060: 4841 013d 3bbd d8be 82fc 213d 9d03 223d
00000070: c2ee b03d 3e01 843d 4a9f 8f3d 2dcd 05be
00000080: 9428 febc 1fb8 c0bd 25b5 2b3e 79e8 793c
00000090: 97c7 41bd 6dcb 02be c592 0fbd 3600 1e3e
000000a0: b780 89bd abfd b93d a8b3 9f3c f32a 0c3e
000000b0: 7acb bc3c f4c8 e63d 64e8 533e ce82 1fbe
000000c0: 29c2 af3d a4a6 ddbb af71 303d db5b 993d
000000d0: 4141 de3d b8ea 79bd 305f c6bd 454e 4a3e
000000e0: 8b05 97bc 2469 acbd 8937 793d 72f3 96bd
000000f0: 28c6 04bd 9804 3dbe 2bc2 de3c 9105 29bd
00000100: 75ad 80be d83c 1fbd 989d a13d ac4b 243d
00000110: d9b7 6f3d a7c6 c13b 0628 80bc 97ac c1ba
00000120: d57b 2f3d 8a51 a3bd 0587 a23d 0a2c dd3d
00000130: 2005 9a3c 30c3 37bd 906e 353e 2c8b 3f3d
00000140: 8876 733c 5a22 1abc 7d01 21be 97d0 27bd
00000150: 1b36 f83d e9f9 9a3c 13b8 abbd 2357 a7bd
00000160: ea19 3cbe 573f 503d 6d22 b7bd 7cd0 bcbe
00000170: 6733 c3bc 37df 1e3e adf6 09bd 1b4d 1d3e
00000180: a9a2 7bbd aa17 37be e17a 91bd 8ebd e2bd
00000190: eb60 0c3c 59fc 3d3e 8bc1 e6bb ea3d 353e
000001a0: 45fc 4ebe 861f 2e3d 797f b9bd 7d5e 41be
000001b0: 72af c8bd a9b9 4cbc 9da3 ba3c 8016 1abe
000001c0: 81eb ffbc b896 e3bd 6af1 83be 184e 88bd
000001d0: aa07 31be 24fc 8dbd 3915 8fbe 48c9 2abe
000001e0: 1c26 46bd 5fc6 6e3d b80f 9b3c 34e2 36bd
000001f0: bde1 c53d 4aee b2bd 594a 8e3d c6ad a53d
00000200: 3244 043d 10b9 ebbd dfd6 8e3d 4123 99bd
00000210: f83f 803b 037f babb cb55 9d3d 3ad0 18be
00000220: 21ce 6a3d bf4a 3bbe bafb 87bd a318 693d
00000230: 51dc b03a ed70 43bb 4cea 1ebe ef83 1fbe
00000240: 65ed 103e e47a 4bbd 4191 50bd 2869 f73c
00000250: 39e4 98be 5e64 b33d b65e 1f3d 39e4 29bd
00000260: 22e6 ae3c 7723 33be c581 e03c d675 4b3c
00000270: 3a2c a1ba 2f6e 14be f96f 52bd 8b92 17be
00000280: 11c8 cd3c eaa9 d0bd fbf5 4bbd dbee 8dbd
00000290: 0bb5 6cbd c8a5 0b3d ab40 10be f8e8 9bbe
000002a0: d952 ed3d 1806 15bd 1318 25bd d41b 193e
000002b0: e689 733d fd91 e0bd 9515 3f3d 4bbb 87bd
000002c0: 01cc f73c 5c89 30be 4305 313c f933 f13b
000002d0: 1ef2 fc3d 83f3 d73c d754 d53d afbc 233d
000002e0: 7159 903d 7abd 47be d399 b5bc dd2a b23d
000002f0: 27eb a83d dab0 a93c f4cf fcbd c1c7 e73d
00000300: 6e49 463e 787d 643d 54d3 c93d 5ac4 9bbd
00000310: 409a 883d 95cf 20be 4018 9abd f8da 7ebe
00000320: c5da afbd e540 54be 620a edbc feb3 573d
00000330: 8db4 893c 0c2e 14be fd21 e03c ff9f f4bc
00000340: cfc2 32bd 2e0e 0abe ff0f a53d cce8 53bd
00000350: 219c 22be 19b3 1bbd 139f 463e 52a2 b13d
00000360: d424 923d 528b 683c c471 8e3d 1aa5 b1bd
00000370: fe96 16bd 506b 3e3e fb13 263d 6f64 ab3d
00000380: 91ed 0d3e f148 303e 783f 23be 794f 3a3d
00000390: e723 a0bc 9218 aebd 6953 1f3d 54c9 6f3d
000003a0: 89b0 0abe d481 823d 9cd7 4cbd ccc5 7fbd
000003b0: 8967 0f3d ca86 3abd 7ef7 4abc b35e b63c
000003c0: 9a33 b73d a51c 4e3e f368 a2bd a3d1 843d
000003d0: 8059 e33d ede9 d93c b182 cbbd 4c10 5d3d
000003e0: 6ed5 d6bb ac4b 003d 730f 093e 8ca1 a63d
000003f0: 1afa a53d d124 623e 0992 1f3e 07a9 40be

actor.4.bias f4 [128]
-0.2275432 -0.12052626 -0.13029487 0.2239911 -0.12605235 -0.059136536 -0.1717033 -0.17445038
-0.18983963 -0.10399793 -0.23906863 -0.11383318 -0.15401813 -0.0450431 -0.12015812 -0.24393682
-0.17464124 -0.17971435 -0.10666642 -0.045069687 -0.04684544 -0.07223211 -0.101340644 -0.04649343
-0.35191455 -0.10013816 -0.3028255 -0.15757531 -0.1407174 -0.17721581 -0.13962276 -0.14400233
-0.064726725 -0.051000144 -0.10014544 -0.22643435 -0.20787369 -0.14815241 -0.17398907 -0.021128487
-0.5601088 -0.2448427 -0.07869529 -0.1313583 -0.22203006 -0.107645355 -0.0650407 -0.10425825
-0.0921057 -0.1303974 -0.08033062 -0.15664904 -0.15836464 -0.074556984 -0.12475008 -0.016927807
-0.12520048 -0.14414549 -0.09208597 -0.11346879 -0.2852248 -0.17826271 -0.10995313 -0.15617117
-0.3673366 -0.080963895 -0.09665916 -0.14349174 -0.15877835 -0.23245418 -0.07046182 0.010786772
-0.086849965 0.010533634 -0.3005982 -0.18985604 -0.08389325 -0.20932403 -0.14854766 -0.19695748
-0.11799877 -0.16453387 -0.099161945 -0.25805536 -0.11374217 -0.114391014 -0.07371608 -0.17938425
-0.15873145 -0.24830347 -0.14694622 -0.09422015 -0.20405339 -0.34366083 -0.0960902 -0.13963276
-0.0589673 -0.14961487 -0.14235921 -0.22358418 0.019088784 -0.14345017 -0.10794455 -0.19046724
-0.018875508 -0.012346038 -0.18981749 -0.11674492 -0.13248713 -0.060142066 -0.079685405 -0.21325213
-0.05178822 -0.10187837 -0.12580086 -0.1763157 -0.06548948 -0.012847888 -0.19110134 -0.19665004
-0.27846542 -0.023172408 -0.12666196 -0.04834064 -0.09838983 -0.16571176 -0.12241819 -0.2525226
00000000: 1601 69be 79d6 f6bd 056c 05be ec5d 653e
00000010: de13 01be 2739 72bd fdd2 2fbe 1fa3 32be
00000020: 5265 42be defc d4bd 68ce 74be 5f21 e9bd
00000030: eeb6 1dbe 1d7f 38bd 7615 f6bd 93ca 79be
00000040: 27d5 32be 0a07 38be ed73 dabd fe9a 38bd
00000050: 01e1 3fbd 6eee 93bd af8b cfbd e56f 3ebd
00000060: 252e b4be 3c15 cdbd f20b 9bbe 6c5b 21be
00000070: 3918 10be 1078 35be 45f9 0ebe 5975 13be
00000080: 728f 84bd 87e5 50bd 0d19 cdbd 68de 67be
00000090: d7dc 54be 44b5 17be 312a 32be a615 adbc
000000a0: 4a63 0fbf 0bb8 7abe ff2a a1bd ca82 06be
000000b0: d95b 63be 2b75 dcbd 0f34 85bd 5985 d5bd
000000c0: eaa1 bcbd e586 05be 6184 a4bd 9b68 20be
000000d0: 572a 22be 55b1 98bd f87c ffbd 2fac 8abc
000000e0: 8e34 00be e09a 13be 9297 bcbd 5362 e8bd
000000f0: fc08 92be 808a 36be 1b2f e1bd 56eb 1fbe
00000100: 8b13 bcbe 66d0 a5bd 3df5 c5bd 80ef 12be
00000110: cb96 22be 7808 6ebe 494e 90bd 00bb 303c
00000120: 65de b1bd 4395 2c3c 02e8 99be 9f69 42be
00000130: 39d0 abbd 0a59 56be e11c 18be 39af 49be
00000140: 57a9 f1bd 917b 28be 6b15 cbbd d51f 84be
00000150: a8f1 e8bd d645 eabd 75f8 96bd 81b0 37be
00000160: 7f8a 22be 4443 7ebe 1279 16be 7ef6 c0bd
00000170: 5ff3 50be 50f4 afbe f0ca c4bd e4fb 0ebe
00000180: b287 71bd a434 19be 9dc6 11be 40f3 64be
00000190: 1560 9c3c 9ae4 12be 0812 ddbd d809 43be
000001a0: cfa0 9abc 0947 4abc 845f 42be f617 efbd
000001b0: b5aa 07be 8757 76bd 1a32 a3bd c45e 5abe
000001c0: e21f 54bd 9ba5 d0bd f1d1 00be 1a8c 34be
000001d0: 591f 86bd f37f 52bc 12b0 43be a15e 49be
000001e0: 0593 8ebe 10d4 bdbc acb3 01be d600 46bd
000001f0: 9b80 c9bd 58b0 29be 63b6 fabd a44a 81be

actor.6.weight f4 [12, 128]
0.016641453 0.0050005172 0.0037800972 0.008332116 -0.0012089742 0.016849894 -0.022801183 -0.01993222
-0.027736545 -0.017844897 -0.016942518 -0.009262858 -0.019008175 0.0074610123 -0.010907729 -0.051614273
0.023666777 -0.007853129 -0.0041169417 0.0810615 -0.056758266 0.054245107 0.004460108 0.021500124
0.017496446 0.0048233494 0.00659191 0.10535235 -0.03185371 -0.060249988 -0.028507318 -0.022291876
0.055898104 -0.04774921 0.03319204 -0.045684718 -0.0089667495 -0.006438633 -0.050725743 0.04718517
-0.027501369 0.016883688 -0.008304933 0.006101367 0.026577476 0.0060774907 -0.011785022 0.0012735554
0.01922991 -0.027262555 0.013768089 0.0117801 0.020161001 0.005710785 0.018852143 0.004989281
-0.06586856 -0.0022891266 -0.041494116 0.016334731 -0.029211909 -0.025367886 -0.023623524 -0.0108034145
-0.015361058 0.018801915 -0.009792467 -0.03978605 -0.0031578063 0.030965311 0.016515633 0.03161327
0.009589246 -0.01053228 0.018194422 0.0021010651 0.015142065 0.0012204422 -0.041803237 -0.065036826
-0.022452494 0.009056236 0.016624084 -0.008114353 -0.0030605134 -0.068080306 0.003336875 0.0019437445
-0.08263971 0.007057875 0.03409984 0.019975783 -0.031327937 0.023671124 0.0536247 -0.009542839
0.020396847 0.012114522 -0.029720215 0.009317426 0.011759996 0.0019627116 0.021128844 -0.008059895
-0.003656141 0.11175712 0.01419725 -0.026851838 0.040447686 -0.0004844936 0.018920137 -0.051494222
-0.019790297 0.005810055 -0.07232221 -0.0155714275 0.009560761 0.02851177 -0.029923415 0.024797266
-0.02669026 -0.016512956 -0.024542503 0.015178335 0.038984332 -0.039445087 0.055487957 0.07973487
0.0069597266 0.056798987 -0.007624393 -0.020210665 -0.019975232 -0.018052675 -0.05763005 0.012814619
0.0032148669 0.010965862 0.012264031 0.029473778 -0.027018536 0.0152284615 0.01981969 0.04986359
0.0062976656 -0.029325202 -0.019302912 0.039646972 0.009428403 -0.0013774645 -0.021095566 0.0039958195
-0.06920199 -0.0035720812 0.005613795 -0.004897201 0.0015136201 0.0099318875 0.026979063 -0.04626356
-0.0054098736 0.10108053 -0.04496498 0.008177969 -0.05371785 -0.0071797404 0.04040149 0.08616376
0.004705592 -0.0019679493 0.00154417 0.0021555189 0.01846803 0.049960043 0.035840143 -0.020464014
-0.04416591 -0.013733735 0.0020387138 -0.013358425 -0.03579095 0.017537298 -0.02152941 -0.012323039
0.022682788 0.06450366 0.012647243 0.011526381 -0.07932123 -0.007415301 0.06587643 0.09634855
0.03880878 0.020328226 -0.0027607554 -0.029475914 -0.036134943 -0.04031822 0.0041278363 -0.008426216
0.0006105548 -0.0018263799 0.03074729 -0.031172842 -0.031168502 -0.0056087556 0.009222345 -0.005539128
0.098663725 -0.005314273 0.004953935 -0.0047581275 0.0170137 -0.0043665706 -0.016264485 0.032075748
0.023450002 -0.046132732 0.029428046 0.0064325985 0.011350056 0.027992923 -0.047672424 -0.021348963
-0.027292527 0.0051763905 0.018762058 -0.0020190973 0.015533194 -0.0048496444 -0.023695907 0.030213598
-0.005503418 0.017937629 -0.018798098 0.035105128 0.051666796 0.03461647 -0.0059963814 -0.028631652
-0.02715182 -0.040079266 -0.04348481 0.0201426 -0.0052546426 0.0009137564 0.002356446 0.064749494
-0.028997881 -0.0069560693 0.024464373 -0.039306987 -0.09667247 -0.012796875 0.038070258 -0.022513602
00000000: a853 883c 61db a33b 82bb 773b 6d83 083c
00000010: 7176 9eba ca08 8a3c 8cc9 babc e548 a3bc
00000020: c037 e3bc 762f 92bc 09cb 8abc 3ec3 17bc
00000030: 08b7 9bbc 827b f43b 55b6 32bc 7d69 53bd
00000040: d4e0 c13c 69aa 00bc 69e7 86bb 9203 a63d
00000050: 5b7b 68bd 1e30 5e3d 1926 923b 0721 b03c
00000060: b554 8f3c 300d 9e3b f300 d83b f9c2 d73d
00000070: 0979 02bd b1c8 76bd 2e88 e9bc 749d b6bc
00000080: 69f5 643d ad94 43bd 60f4 073d e61f 3bbd
00000090: 46e9 12bc 2bfb d2bb ccc5 4fbd 3d45 413d
000000a0: 8d4a e1bc a94f 8a3c 6a11 08bc faed c73b
000000b0: 02b9 d93c b025 c73b f715 41bc 6eed a63a
000000c0: 0b88 9d3c b955 dfbc 8d93 613c 5201 413c
000000d0: af28 a53c 8921 bb3b cf6f 9a3c 1f7d a33b
000000e0: 18e6 86bd 2c05 16bb bcf5 29bd 6ad0 853c
000000f0: d04d efbc 50d0 cfbc 1f86 c1bc ce00 31bc
00000100: f2ac 7bbc 7906 9a3c 9570 20bc b2f6 22bd
00000110: 33f3 4ebb f7aa fd3c cb4b 873c eb7c 013d
00000120: 361c 1d3c 968f 2cbc 780c 953c 06b2 093b
00000130: 6c16 783c 3ff7 9f3a df39 2bbd 0732 85bd
00000140: 4bee b7bc 9b60 143c 3b2f 883c 10f2 04bc
00000150: e592 48bb b06d 8bbd 79af 5a3b 3ec5 fe3a
00000160: 023f a9bd bf45 e73b 46ac 0b3d 41a4 a33c
00000170: b951 00bd f2e9 c13c 93a5 5b3d 9159 1cbc
00000180: 4a17 a73c fd7b 463c cf77 f3bc 1ea8 183c
00000190: 00ad 403c d6a0 003b 6616 ad3c a60d 04bc
000001a0: de9b 6fbb ebe0 e43d 959b 683c 63f8 dbbc
000001b0: 79ac 253d a103 feb9 67fe 9a3c 9beb 52bd
000001c0: 431f a2bc 4662 be3b ab1d 94bd 4d1f 7fbc
000001d0: bda4 1c3c 8491 e93c f321 f5bc a323 cb3c
000001e0: 88a5 dabc 2e46 87bc 5c0d c9bc 8dae 783c
000001f0: 09ae 1f3d 2c91 21bd 5747 633d 094c a33d
00000200: 6b0e e43b 0ea6 683d 0bd6 f9bb d690 a5bc
00000210: 19a3 a3bc 34e3 93bc 7d0d 6cbd 68f4 513c
00000220: 84b0 523b 29aa 333c 13ef 483c fe72 f13c
00000230: fa55 ddbc cc80 793c e75c a23c c43d 4c3d
00000240: a65c ce3b 683b f0bc 2421 9ebc dd64 223d
00000250: 9779 1a3c 0a8c b4ba 9cd0 acbc 5def 823b
00000260: c6b9 8dbd 9419 6abb edf3 b73b b378 a0bb
00000270: aa64 c63a 5bb9 223c 3203 dd3c dc7e 3dbd
00000280: 4f45 b1bb 4f03 cf3d 332d 38bd e3fc 053c
00000290: 4007 5cbd 0744 ebbb 087c 253d a076 b03d
000002a0: 5e31 9a3b b6f8 00bb bf65 ca3a 9b43 0d3b
000002b0: 444a 973c e7a2 4c3d 1dcd 123d 26a4 a7bc
000002c0: 50e7 34bd 7603 61bc f19b 053b 4cdd 5abc
000002d0: 8899 12bd 61aa 8f3c 725e b0bc 92e6 49bc
000002e0: 41d1 b93c 7f1a 843d 6236 4f3c 25d9 3c3c
000002f0: 2b73 a2bd 0efc f2bb 39ea 863d 6352 c53d
00000300: f5f5 1e3d 6187 a63c caed 34bb 7977 f1bc
00000310: 3c02 14bd b824 25bd cd42 873b 1d0e 0abc
00000320: a40d 203a 2463 efba bee1 fb3c 305e ffbc
00000330: 1655 ffbc a7c9 b7bb 5219 173c 9381 b5bb
00000340: 3510 ca3d 5a23 aebb 9e54 a23b 11ea 9bbb
00000350: 5160 8b3c 7315 8fbb 193d 85bc dc61 033d
00000360: 381a c03c adf5 3cbd 1613 f13c 8cc8 d23b
00000370: 96f5 393c 6a51 e53c 2944 43bd 05e4 aebc
00000380: 9494 dfbc b69e a93b e3b2 993c d552 04bb
00000390: f07e 7e3c c4e9 9ebb eb1d c2bc 8282 f73c
000003a0: 0456 b4bb eff1 923c 78fe 99bc 65ca 0f3d
000003b0: 90a0 533d 00ca 0d3d 4b7d c4bb ed8c eabc
000003c0: 7e6d debc 282a 24bd 211d 32bd 1802 a53c
000003d0: 232f acbb 2789 6f3a 9b6e 1a3b 629b 843d
000003e0: f78c edbc bdef e3bb 8269 c83c 5d00 21bd
000003f0: 37fc c5bd fca9 51bc 8fef 1b3d 726e b8bc

actor.6.bias f4 [12]
0.0039017904 0.01587961 0.21174411 -0.065834105 -0.006789207 -0.0156049 0.19816338 -0.20240237
-0.347963 -0.23471946 -0.166918 -0.35306913
00000000: 2eb5 7f3b f515 823c 73d3 583e 08d4 86bd
00000010: ff77 debb b2ab 7fbc 57eb 4a3e 9142 4fbe
00000020: 3528 b2be 4c5a 70be 8dec 2abe 7ac5 b4be
